model/hoist_4.pth (torch, 470886 bytes, 22 tensors)

covid_weight.0.weight f4 [128, 1]
0.124979444 0.15123193 -5.7372556 -0.4979052 -2.5346854 -4.1795344 1.3056332 1.2093811
0.049119778 1.2758722 -0.70080215 -3.2907166 1.1409698 -0.30493808 0.34366977 0.8052935
0.807124 -1.2698648 -1.5125775 -1.7743229 -0.11939022 -3.0078213 0.06400033 -0.1617224
1.1474235 0.020129416 0.652705 0.27864724 0.86398274 -0.23700595 1.1146662 1.0263286
-1.2762742 0.6622969 1.0540544 -2.9745147 -0.40712616 0.7128535 0.7791078 0.12796007
0.37156773 0.67342967 1.2063602 -0.72861737 -0.71620804 0.7992542 0.8937776 -3.2887714
-0.40474147 1.1784778 -0.81616664 0.9367649 0.79224384 -5.480393 -1.2354579 1.645972
0.65059805 1.2137425 0.37009355 1.053565 -0.90800965 1.8177344 -1.2547821 0.93741137
-0.07374065 0.72160494 0.6822047 -0.7618465 0.05750914 0.2248276 0.25105685 -0.74719936
-1.1008625 -0.621615 -5.0526958 0.9380563 0.46579054 0.74357575 -0.5464194 -5.095398
0.46075717 1.2127478 0.72903764 -3.5560338 -0.30105898 0.007854079 0.9153823 0.6817184
-1.3108636 -1.2378564 0.56037235 0.48698628 0.6813764 0.9035414 0.85076106 -0.49408105
-3.7102613 0.5712334 1.2387928 -0.82061327 -0.8038549 1.1233795 0.7177026 -0.08892001
-3.594537 0.42213193 -3.84095 -5.577327 -0.6086176 -0.48021102 0.4354533 -0.18647127
-0.68821734 0.10923836 -0.1136593 0.8374959 -0.13714683 -0.6960144 0.38114935 0.761048
-0.016744751 -0.5904774 1.0577391 0.2429135 2.0992584 -8.257236 -0.29636186 2.051783
00000000: 39f5 ff3d 8bdc 1a3e 9997 b7c0 6eed febe
00000010: 4938 22c0 bfbe 85c0 fd1e a73f 00cd 9a3f
00000020: d231 493d c84f a33f c567 33bf 1a9b 52c0
00000030: 4c0b 923f d820 9cbe 7cf5 af3e b727 4e3f
00000040: ae9f 4e3f ee8a a2bf 249c c1bf 031d e3bf
00000050: dc82 f4bd 2580 40c0 9b12 833d 8f9a 25be
00000060: c6de 923f 72e6 a43c ad17 273f daaa 8e3e
00000070: f92d 5d3f b0b1 72be 62ad 8e3f bc5e 833f
00000080: f45c a3bf 4a8c 293f 41eb 863f 735e 3ec0
00000090: d772 d0be 917d 363f 9c73 473f f707 033e
000000a0: 203e be3e e365 2c3f 036a 9a3f ab86 3abf
000000b0: 6959 37bf ec9b 4c3f 9cce 643f 3b7b 52c0
000000c0: 463a cfbe 5cd8 963f 4cf0 50bf d3cf 6f3f
000000d0: 7ed0 4a3f 615f afc0 7c23 9ebf 36af d23f
000000e0: 988d 263f ea5b 9b3f e77c bd3e 38db 863f
000000f0: 5273 68bf 85ab e83f b39c a0bf 31fa 6f3f
00000100: 5705 97bd 1abb 383f f8a4 2e3f 5f08 43bf
00000110: b48e 6b3d 3539 663e 868a 803e 7548 3fbf
00000120: 10e9 8cbf 2922 1fbf afaf a1c0 7524 703f
00000130: 197c ee3e fb5a 3e3f 24e2 0bbf 800d a3c0
00000140: 5de8 eb3e 523b 9b3f 36a2 3a3f 0f96 63c0
00000150: 6724 9abe 65ae 003c 7f56 6a3f 1985 2e3f
00000160: 61ca a7bf 1472 9ebf 9074 0f3f 4456 f93e
00000170: af6e 2e3f 7d4e 673f 7acb 593f 31f8 fcbe
00000180: ec74 6dc0 5a3c 123f c390 9e3f b613 52bf
00000190: 6fc9 4dbf e6ca 8f3f 5cbb 373f b21b b6bd
000001a0: e50c 66c0 ad21 d83e 20d2 75c0 7679 b2c0
000001b0: 5dce 1bbf 38de f5be bcf3 de3e 53f2 3ebe
000001c0: 032f 30bf 5cb8 df3d 35c6 e8bd 2266 563f
000001d0: 3870 0cbe 002e 32bf 0226 c33e 0bd4 423f
000001e0: 4a2c 89bc 8729 17bf ff63 873f 51be 783e
000001f0: 405a 0640 a31d 04c1 bebc 97be 6a50 0340

covid_weight.0.bias f4 [128]
-0.058058232 0.13269773 0.23592444 0.5571887 0.28865585 0.17237927 0.26578212 0.18739235
0.57069016 0.22696984 0.27018616 0.3720191 0.20247443 0.052112438 -0.32759967 0.19725282
0.35010332 0.23550646 0.32715127 0.43694296 0.029493924 0.117217205 -0.28855312 0.1594522
-0.5344911 -0.039589956 -0.18273948 -0.317099 -0.7352827 0.71608186 0.20529571 0.21532018
0.23659952 -0.34528413 -0.65444267 0.122308 -0.49971232 -0.39079738 0.3872519 0.54299897
-0.25879127 -0.648633 0.76365066 0.21216229 0.36812264 -0.22364701 0.20376138 0.121477716
-0.04414175 0.23105116 -0.3193921 0.64640325 0.31805396 0.41352215 -0.67814404 -0.44077912
-0.18228313 0.23318888 0.2674997 0.2214442 0.12478084 -0.47917178 -0.29244676 0.44127294
0.6525181 -0.61535543 0.17954823 0.22058454 -0.02432817 0.02191204 0.25618583 -0.81536734
0.15483707 -0.62411404 0.20799847 0.47386995 -0.54272276 0.12883112 -0.9163858 0.5788656
0.5336606 0.52066654 0.28725177 0.14487073 -0.24338618 0.33280018 0.355261 0.4251495
0.20838463 -0.33106673 0.17378983 0.6691158 0.6437428 -0.6671524 -0.8431803 -0.16356425
0.4178173 -0.36866355 0.56923944 -0.6804738 -0.20229898 0.7089017 -0.30647865 -0.022807071
0.14769989 0.7849457 0.14872037 0.221235 0.066626914 -0.86509115 -0.28141937 0.70827955
-0.5204713 0.43135664 -0.31344327 0.19780266 0.143654 0.27926478 -0.20164262 0.19638841
-0.64946616 -0.045281824 -0.27449298 0.010077792 -0.5707268 0.34064472 -0.85315984 -0.5631956
00000000: 78ce 6dbd eae1 073e 2d96 713e eba3 0e3f
00000010: b3ca 933e 3184 303e 9814 883e c8e3 3f3e
00000020: c018 123f c86a 683e d755 8a3e 4a79 be3e
00000030: 7555 4f3e da73 553d 25bb a7be a5fc 493e
00000040: be40 b33e 9b28 713e 5f80 a73e fdb6 df3e
00000050: 3e9d f13c 930f f03d 3cbd 93be 7047 233e
00000060: 69d4 08bf 1429 22bd 0f20 3bbe cd5a a2be
00000070: 7d3b 3cbf 2451 373f 0a39 523e e57c 5c3e
00000080: 2547 723e 15c9 b0be 8e89 27bf 9e7c fa3d
00000090: 4bda ffbe 9816 c8be e245 c63e fb01 0b3f
000000a0: 4a80 84be d00c 26bf 9c7e 433f 1241 593e
000000b0: 927a bc3e b903 65be d3a6 503e 4fc9 f83d
000000c0: fbcd 34bd ad98 6c3e 5d87 a3be af7a 253f
000000d0: f8d7 a23e 2db9 d33e d99a 2dbf cdad e1be
000000e0: 6ea8 3abe 11c9 6e3e b8f5 883e 45c2 623e
000000f0: 198d ff3d 0156 f5be 95bb 95be 87ee e13e
00000100: 6d0b 273f ef87 1dbf 7edb 373e eae0 613e
00000110: df4b c7bc e180 b33c ca2a 833e eabb 50bf
00000120: 9c8d 1e3e f0c5 1fbf 8dfd 543e 159f f23e
00000130: e1ef 0abf 4eec 033e 4398 6abf 8930 143f
00000140: fb9d 083f 674a 053f aa12 933e fe58 143e
00000150: 3a3a 79be c964 aa3e c5e4 b53e 32ad d93e
00000160: c862 553e 9481 a9be f6f5 313e 2c4b 2b3f
00000170: 54cc 243f 80ca 2abf aada 57bf 637d 27be
00000180: 26ec d53e 78c1 bcbe adb9 113f 8833 2ebf
00000190: 7727 4fbe 957a 353f c5ea 9cbe e5d5 babc
000001a0: a43e 173e 34f2 483f 274a 183e 6e8b 623e
000001b0: b173 883d 9d76 5dbf 3316 90be cf51 353f
000001c0: 9b3d 05bf c7da dc3e a37b a0be c88c 4a3e
000001d0: 091a 133e cbfb 8e3e 677b 4ebe 0b1a 493e
000001e0: 6a43 26bf 6f79 39bd 588a 8cbe 531d 253c
000001f0: 271b 12bf fc68 ae3e af68 5abf 962d 10bf

covid_weight.2.weight f4 [1, 128]
0.0008951244 -0.044536877 4.580641 -0.06427886 1.188351 2.041243 -0.15266363 -0.16326876
-0.047607765 -0.26375237 0.009109638 1.4940875 -0.25894034 0.008861973 0.031992774 -0.19840403
-0.112312995 0.10994302 0.4969598 0.54864585 -0.0031981631 0.4106705 0.07695998 -0.014033663
-0.09590795 -0.015575554 -0.24924114 -0.06383513 -0.014564415 -0.14593968 -0.27577358 -0.23326331
0.4101617 -0.09027171 -0.17787121 0.8687064 0.08474749 -0.12121241 -0.095404 -0.06792704
-0.06061421 0.059785273 -0.12212701 -0.005111132 0.016616585 -0.07910103 -0.24467959 1.4555026
-0.007224027 -0.23672165 0.13568404 -0.116482995 -0.09992335 4.1306524 0.12551674 -1.4840353
-0.18702362 -0.22481887 -0.1584122 -0.2291426 0.03802478 -1.1040533 0.23660396 -0.18467738
-0.060450073 -0.062138677 -0.21616395 -0.0035704256 0.008014025 -0.022332562 -0.05907892 0.08834512
0.02685119 0.13410632 1.5304036 -0.10621148 -0.04334995 -0.16051114 0.17455487 4.1776066
-0.16743495 -0.20403373 -0.18778688 1.6026975 0.09943868 -0.04528886 -0.22076192 -0.23943505
0.04154595 0.21989436 -0.31513867 -0.08859782 -0.09683407 -0.0021443663 0.030300492 0.08029065
0.9242313 -0.0470549 -0.240481 0.107473895 0.216236 -0.23547682 -0.073341265 0.013264563
0.8257056 -0.20402153 1.0270903 4.8584585 0.19556826 0.20674443 -0.014727399 -0.04586188
0.08993655 -0.15218572 0.14778216 -0.14904688 -0.023801656 0.0023213683 0.021287872 -0.28324682
0.16874279 0.011654312 -0.38867706 -0.03359821 -1.4092219 10.182577 0.20887432 -1.1809165
00000000: c8a6 6a3a 4d6c 36bd 9c94 9240 a3a4 83bd
00000010: e31b 983f baa3 0240 db53 1cbe ed2f 27be
00000020: 5c00 43bd 8d0a 87be 9740 153c 423e bf3f
00000030: d493 84be cf31 113c db0a 033d 6d2a 4bbe
00000040: 5b04 e6bd ce29 e13d 8471 fe3e 0e74 0c3f
00000050: 4698 51bb 6743 d23e 329d 9d3d 73ed 65bc
00000060: 636b c4bd 9c30 7fbc 1239 7fbe febb 82bd
00000070: 969f 6ebc 3671 15be 3232 8dbe 94dc 6ebe
00000080: b700 d23e 60e0 b8bd df23 36be 8b63 5e3f
00000090: 1890 ad3d 363e f8bd 2c63 c3bd 551d 8bbd
000000a0: 9b46 78bd 67e1 743d ba1d fabd 487b a7bb
000000b0: 811f 883c b9ff a1bd 498d 7abe e94d ba3f
000000c0: 88b7 ecbb 2967 72be c2f0 0a3e a38e eebd
000000d0: 9da4 ccbd 4e2e 8440 7687 003e def4 bdbf
000000e0: 1f83 3fbe eb36 66be cf36 22be 5ca4 6abe
000000f0: dfbf 1b3d 9e51 8dbf 4f48 723e 111c 3dbe
00000100: 7f9a 77bd 2085 7ebd 155a 5dbe cdfd 69bb
00000110: 424d 033c c7f2 b6bc bdfc 71bd 49ee b43d
00000120: 07f7 db3c 2b53 093e 44e4 c33f 6885 d9bd
00000130: b88f 31bd 085d 24be 83be 323e f4ae 8540
00000140: 1174 2bbe 38ee 50be 344b 40be 3125 cd3f
00000150: 82a6 cb3d d080 39bd 6a0f 62be 762e 75be
00000160: 162c 2a3d fd2b 613e db59 a1be c672 b5bd
00000170: f150 c6bd 7f88 0cbb bd38 f83c 6d6f a43d
00000180: 6c9a 6c3f a4bc 40bd a740 76be 461b dc3d
00000190: f86c 5d3e d620 71be f233 96bd 9c53 593c
000001a0: 7161 533f 05eb 50be b277 833f 7e78 9b40
000001b0: 0c43 483e d0b4 533e 304b 71bc abd9 3bbd
000001c0: a730 b83d 93d6 1bbe 3554 173e bf9f 18be
000001d0: b1fb c2bc 1922 183b e763 ae3c ba05 91be
000001e0: e9ca 2c3e baf1 3e3c ae00 c7be 479e 09bd
000001f0: 6261 b4bf d6eb 2241 26e3 553e 4628 97bf

claim_weight.0.weight f4 [128, 20]
-1.1532772 -1.2614433 -0.9195165 -0.97124183 -1.0200449 -0.9633675 -1.0721753 -1.298559
-1.3363047 -1.340241 -1.1952671 -1.6353387 -1.0203996 -0.8554041 -1.2323196 -1.7614111
-1.2325771 -1.1444103 -0.9613138 -1.2818593 -0.46207857 0.030791733 -0.045601655 -0.10172662
-0.0696261 -0.48916307 -0.18420468 -0.20575635 -0.055290263 0.25403762 -0.5566134 -0.37204236
0.030172352 -0.14641611 -0.2963389 -0.22754401 -0.11830384 3.3181488e-05 0.12692322 -0.063250795
-0.07617489 -0.37426007 -0.3174306 -0.20187913 -0.31527242 0.029136669 0.120016135 0.022009768
-0.36659765 -0.070512764 -0.22887921 -0.28019524 -0.20648767 -0.10105026 -0.11530524 0.11639686
0.075046636 -0.12263443 -0.3741674 0.1846681 0.24214636 0.025699932 0.116202936 -0.15611996
0.1734584 -0.025383579 0.05195345 -0.13472664 0.11940837 0.06061764 0.011519221 -0.34589946
-0.04741583 -0.04970133 0.07518865 0.18785731 0.0021360405 0.15382567 -0.06267473 -0.01813685
0.1449144 0.3236227 0.14617954 0.0055432986 0.45211655 0.08880351 -0.45020273 0.016921433
-0.15747635 0.004771008 -0.27298042 -0.16658533 0.06730567 0.14444545 0.31076586 -0.3336283
0.045264162 -0.1867505 0.08422359 -0.07595118 -0.42383265 -0.3236048 -0.04029521 -0.29889587
0.019629298 -0.5302806 -0.059184402 -0.19121216 0.104924835 0.16495617 -0.5243129 -0.27496955
-0.019152008 -0.17867866 -0.3158347 -0.3573194 0.08794577 -0.15172566 0.17216118 -0.15053883
-0.09235525 -0.07112922 0.12837583 0.19653742 0.09756042 -0.10858277 -0.08097591 -0.16949955
-0.15745838 0.11219493 0.07000749 0.104026765 -0.023671033 -0.06435344 0.059665512 -0.0074363844
-0.12973359 -0.19787751 0.021402325 0.02223135 0.48873475 -0.009050669 0.024651038 0.09006761
0.23324643 -0.006850351 -0.0078077875 0.095509596 0.0050555957 0.020858314 0.3479206 0.18602468
-0.1457422 0.055533633 -0.009797358 0.27279133 0.13597867 0.2885721 0.17673749 0.10732591
0.26316595 0.06292313 0.06133985 -0.19042042 0.1262782 0.12027194 -0.02764399 0.10235868
-0.22710608 -0.08493494 0.05827639 -0.24943219 0.019992556 -0.1142969 -0.02287385 -0.16699824
-0.19490652 0.023359284 -0.083261155 0.0003947956 0.48967856 0.06150231 -0.102991596 0.10544743
0.19510095 0.43642733 0.122543976 0.25154236 0.084099196 0.050819837 0.12798268 0.07540613
-0.34881938 -0.19350637 0.27893716 0.36689982 -0.007364718 0.22965698 -0.20667422 0.3098869
-0.07467146 0.04277126 -0.28174967 0.007082559 0.10876296 -0.09645788 0.18133238 0.14654146
0.0018185275 0.027880704 -0.19287863 0.25387636 0.1607503 0.15388936 0.10644055 -0.04652515
0.17619449 0.1327408 -0.15627205 -0.29801306 0.26407704 0.0021533389 -0.04624073 -0.12142893
0.014556479 0.26421362 0.07379201 0.023736812 0.21172324 -0.24043158 0.003483039 0.01319026
-0.2515458 0.072281525 0.23918895 0.27127472 -0.03511923 -0.025335258 -0.04860688 -0.16698481
0.067245305 0.12804173 -0.16521148 0.206474 0.09274107 -0.16497627 -0.14837629 0.07894327
0.10048137 0.20544352 0.13350834 -0.09191547 -0.011009363 -0.20484148 0.02063032 0.0016118626
00000000: 969e 93bf f976 a1bf 6f65 6bbf 4ea3 78bf
00000010: d590 82bf 419f 76bf 0a3d 89bf 2e37 a6bf
00000020: 080c abbf 048d abbf 83fe 98bf c752 d1bf
00000030: 749c 82bf c3fb 5abf a6bc 9dbf eb75 e1bf
00000040: 16c5 9dbf 097c 92bf a918 76bf f713 a4bf
00000050: 9095 ecbe f23e fc3c cdc8 3abd 0c56 d0bd
00000060: 2198 8ebd 9573 fabe 27a0 3cbe cbb1 52be
00000070: 0b78 62bd 3811 823e 377e 0ebf 567c bebe
00000080: 022c f73c 1bee 15be bbb9 97be 4c01 69be
00000090: 4949 f2bd 5a2c 0b38 29f8 013e a289 81bd
000000a0: 9501 9cbd 049f bfbe 4386 a2be 67b9 4ebe
000000b0: 636b a1be 06b0 ee3c 05cb f53d d44d b43c
000000c0: b0b2 bbbe ff68 90bd 505f 6abe c075 8fbe
000000d0: 8171 53be 70f3 cebd 2725 ecbd 7a61 ee3d
000000e0: 0db2 993d c327 fbbd df92 bfbe a219 3d3e
000000f0: 37f5 773e aa88 d23c cefb ed3d e9dd 1fbe
00000100: 149f 313e 39f1 cfbc 24cd 543d c8f5 09be
00000110: 608c f43d 344a 783d 1dbb 3c3c bc19 b1be
00000120: 1a37 42bd 9f93 4bbd 82fc 993d ab5d 403e
00000130: d0fc 0b3b 7a84 1d3e 9c5b 80bd bb93 94bc
00000140: 7164 143e e0b1 a53e 17b0 153e 8fa4 b53b
00000150: d27b e73e 9dde b53d f980 e6be d19e 8a3c
00000160: 7b41 21be 1e56 9c3b 17c4 8bbe 5895 2abe
00000170: 8ed7 893d 82e9 133e b41c 9f3e 54d1 aabe
00000180: ea66 393d 863b 3fbe 6b7d ac3d 4b8c 9bbd
00000190: 9800 d9be 87af a5be 970c 25bd e108 99be
000001a0: 9fcd a03c 78c0 07bf 586b 72bd 1fcd 43be
000001b0: d5e2 d63d 45ea 283e 5f39 06bf cfc8 8cbe
000001c0: ace4 9cbc 8af7 36be 16b5 a1be 92f2 b6be
000001d0: e91c b43d f95d 1bbe 054b 303e da26 1abe
000001e0: c024 bdbd 32ac 91bd f474 033e 1b41 493e
000001f0: c2cd c73d a560 debd b3d6 a5bd 4a91 2dbe
00000200: c53c 21be 75c6 e53d 1660 8f3d fc0b d53d
00000210: c1e9 c1bc bdcb 83bd d363 743d eaac f3bb
00000220: e2d8 04be 67a0 4abe ee53 af3c 851e b63c
00000230: 713b fa3e 4249 14bc f9f0 c93c 5e75 b83d
00000240: 27d8 6e3e e978 e0bb 78d8 ffbb 899a c33d
00000250: 69a9 a53b 0edf aa3c a622 b23e 417d 3e3e
00000260: 713d 15be 3c77 633d 1985 20bc 4eab 8b3e
00000270: fe3d 0b3e b9bf 933e acfa 343e b0cd db3d
00000280: b0bd 863e d8dd 803d 7f3f 7b3d 92fd 42be
00000290: 134f 013e 2351 f63d a675 e2bc 6da1 d13d
000002a0: 7f8e 68be 5ff2 adbd 39b3 6e3d 276b 7fbe
000002b0: 6ec7 a33c 7e14 eabd f161 bbbc 9601 2bbe
000002c0: 9395 47be f85b bf3c d384 aabd 92fc ce39
000002d0: 26b7 fa3e d9e9 7b3d 42ed d2bd d2f4 d73d
000002e0: 8bc8 473e 6773 df3e 56f8 fa3d 29ca 803e
000002f0: 333c ac3d 7628 503d e40d 033e 876e 9a3d
00000300: 7498 b2be 8926 46be dad0 8e3e 4bda bb3e
00000310: bb53 f1bb 332b 6b3e 68a2 53be 7fa9 9e3e
00000320: 5aed 98bd eb30 2f3d 7e41 90be d014 e83b
00000330: 1dbf de3d b68b c5bd 32af 393e f70e 163e
00000340: a85b ee3a 1366 e43c fa81 45be 15fc 813e
00000350: ba9b 243e 2c95 1d3e 81fd d93d 2891 3ebd
00000360: 546c 343e 34ed 073e c805 20be 2b95 98be
00000370: 1b35 873e 081f 0d3b eb66 3dbd bbaf f8bd
00000380: 4c7e 6e3c 0247 873e 4420 973d b473 c23c
00000390: facd 583e b233 76be b343 643b f61b 583c
000003a0: 9cca 80be 5608 943d f3ed 743e 85e4 8a3e
000003b0: 2fd9 0fbd e38b cfbc 0218 47bd 11fe 2abe
000003c0: e8b7 893d 5f1d 033e 332d 29be ec6d 533e
000003d0: 08ef bd3d 8aef 28be f4ef 17be 02ad a13d
000003e0: 2dc9 cd3d c95f 523e 69b6 083e 2e3e bcbd
000003f0: 9e60 34bc f7c1 51be eb00 a93c 2245 d33a

claim_weight.0.bias f4 [128]
0.9827035 0.018684417 0.059858266 0.052875612 0.07375584 0.06815336 -0.04216168 -0.08672045
0.09870752 -0.1811698 -0.113962345 -0.1356687 -0.0600028 -0.2020428 -0.023355149 0.12930655
0.610723 -0.075788565 -0.021300154 0.077417165 0.04954636 -0.07724022 0.02486173 -0.04955484
-0.08608375 -0.047260564 -0.06410215 -0.05779235 0.5844517 0.11573131 0.084079616 0.801077
-0.2064415 0.15564856 0.5433496 -0.099017136 -0.16348982 0.57209206 0.64003134 -0.08576426
0.55098695 0.83229715 0.5954164 0.011999377 1.021015 -0.14084782 -0.049256913 -0.083995335
-0.16739464 0.002440995 0.19417961 0.10024998 0.022624848 0.76781344 0.60829574 -0.09075268
-0.16089565 -0.04896179 0.013894375 -0.17787169 -0.09400839 0.011006629 0.6701325 -0.017191764
0.29179704 0.022549931 -0.13483457 0.053971577 -0.26657027 -0.079272084 0.014391948 -0.08449345
0.008036748 0.019517915 -0.1252957 -0.0025356142 0.6044896 -0.070314474 -0.024325453 0.5900764
0.015672525 -0.08596347 -0.10519886 -0.006660599 -0.100739025 -0.23111083 -0.052966435 -0.108008556
-0.05930897 -0.05421407 0.10647272 -0.12982255 0.23736754 -0.09202151 0.7201628 -0.15350461
0.11460044 -0.3045282 -0.034277298 -0.1057778 -0.052098706 -0.05190833 -0.11816682 -0.007245389
-0.09854596 -0.06618412 -0.0069895666 -0.08442851 0.33767283 -0.06152794 -0.18117279 0.7913807
-0.19731504 -0.074483305 -0.07939178 -0.032096505 -0.059537917 1.0027807 -0.21484135 -0.10541047
-0.121160015 -0.102180704 -0.088862896 0.6897453 0.7069574 -0.049384873 -0.12495476 -0.14074957
00000000: 7592 7b3f 1010 993c f12d 753d 1994 583d
00000010: 4d0d 973d fd93 8b3d bab1 2cbd 7e9a b1bd
00000020: 2b27 ca3d 9384 39be 1765 e9bd bcec 0abe
00000030: 7fc5 75bd 4fe4 4ebe 4c53 bfbc f068 043e
00000040: 5858 1c3f 0937 9bbd a97d aebc e48c 9e3d
00000050: 20f1 4a3d 1f30 9ebd d4aa cb3c 04fa 4abd
00000060: ad4c b0bd 4b94 41bd fd47 83bd acb7 6cbd
00000070: a09e 153f 8904 ed3d ef31 ac3d 6213 4d3f
00000080: 6765 53be 5662 1f3e f618 0b3f 7fc9 cabd
00000090: e069 27be a074 123f 18d9 233f 2ca5 afbd
000000a0: 7b0d 0d3f 6d11 553f 366d 183f 0999 443c
000000b0: 9fb0 823f 693a 10be 9ec1 49bd bf05 acbd
000000c0: 8069 2bbe 1af9 1f3b 05d7 463e dd4f cd3d
000000d0: bf57 b93c 6c8f 443f 45b9 1b3f 8bdc b9bd
000000e0: d4c1 24be 288c 48bd 3ca5 633c ff23 36be
000000f0: 7987 c0bd 2655 343c ce8d 2b3f bed5 8cbc
00000100: 6c66 953e a2ba b83c 1312 0abe 4d11 5d3d
00000110: e67b 88be 6759 a2bd 34cc 6b3c e70a adbd
00000120: 90ac 033c 09e4 9f3c 844d 00be 8c2c 26bb
00000130: d5bf 1a3f 0901 90bd 2c46 c7bc 3f0f 173f
00000140: ab63 803c 9e0d b0bd 8072 d7bd 2741 dabb
00000150: 4350 cebd 51a8 6cbe 55f3 58bd 9733 ddbd
00000160: f6ed 72bd 930f 5ebd 5f0e da3d 34f0 04be
00000170: 7a10 733e c675 bcbd 975c 383f 5030 1dbe
00000180: a3b3 ea3d 1feb 9bbe 5a66 0cbd 08a2 d8bd
00000190: 7465 55bd d49d 54bd 7201 f2bd ba6a edbb
000001a0: 77d2 c9bd 8a8b 87bd bc08 e5bb dbe8 acbd
000001b0: 74e3 ac3e b904 7cbd 5c85 39be ed97 4a3f
000001c0: f40c 4abe b48a 98bd 2898 a2bd a077 03bd
000001d0: 08de 73bd 1e5b 803f 5fff 5bbe 72e1 d7bd
000001e0: be22 f8bd 1e44 d1bd c0fd b5bd 2693 303f
000001f0: 29fb 343f cb47 4abd 48e8 ffbd a820 10be

claim_weight.2.weight f4 [20, 128]
1.7310852 0.015268579 0.005664709 0.010199585 0.07406236 0.05751281 -0.044322647 0.09083603
-0.048085637 -0.1425512 0.15617548 0.004588511 -0.14163515 -0.12123209 -0.0044390727 -0.18159387
0.6657592 -0.21677668 -0.046991445 0.065473884 0.08165367 0.09088652 0.28802294 -0.023744512
-0.029757543 0.0016047395 -0.040799577 -0.19526564 0.25438905 0.28943413 0.0874114 1.4635158
-0.15132043 -0.019388191 1.1314145 -0.08954028 -0.07058282 1.0682533 1.3870157 -0.04986159
1.2652484 1.5114355 0.12184225 0.14417922 0.775575 -0.08295184 -0.047780536 -0.02693308
-0.048709627 -0.0850528 0.08901963 0.044218197 0.00613452 1.5432599 0.44831923 -0.034185186
-0.13383584 0.09690653 0.023646342 -0.018006865 0.0747558 0.015637143 1.359044 -0.004814266
0.06026196 -0.021204136 -0.09802934 0.023374565 -0.09018365 -0.06862709 0.037343584 -0.04947014
0.012969263 0.15460037 -0.14530478 0.031670224 -0.35706732 -0.017056314 -0.08679953 1.2931304
0.18868057 0.07525709 0.052243914 -0.0046964507 0.030174717 0.14572166 -0.030530032 -0.09448836
0.04542418 -0.078508906 0.28541747 -0.115851365 -0.26478043 -0.031436447 1.2284385 -0.1852301
-0.026443738 0.039355986 -0.043510955 0.083516784 0.17451024 -0.12205798 -0.13205399 0.03003169
-0.036136042 -0.032043755 0.09735527 -0.29946283 0.21772978 0.05330428 -0.18341745 0.6311756
-0.11442867 -0.06459261 -0.17100872 -0.14900552 -0.061495427 1.6710372 0.05436961 -0.11844876
0.044643234 0.066957645 -0.16928446 1.6883618 1.0998785 0.06989389 0.49421275 -0.08329958
2.431819 0.03703661 -0.16344313 0.09634864 -0.09814815 0.026995866 0.032511655 0.06535462
-0.14216876 -0.0463481 -0.14943412 -0.06858355 0.016985403 0.04877826 -0.04085397 0.028646776
0.5139877 -0.08325961 -0.025245773 -0.05998265 0.041044246 -0.13404824 0.0064805816 -0.022251604
0.02149442 -0.045432653 -0.11826106 -0.0063659186 0.52358407 0.2191929 -0.04080277 1.6767704
-0.08339779 -0.037504375 1.1008636 -0.22925246 -0.08803192 1.0541904 -0.008401642 -0.03379344
1.1163477 1.9119015 0.89148575 -0.1982446 1.600088 0.08458352 0.027313026 -0.12743385
-0.04169736 -0.12665223 0.18475142 -0.030484969 0.088263564 2.0266132 0.46564573 -0.13947123
-0.11621911 0.18316053 0.030438675 -0.06581451 0.017990451 -0.027003404 1.3652718 -0.034413114
-0.09127546 0.06895188 -0.06352037 -0.023465503 0.020585759 0.10203298 0.071529776 0.00019173448
-0.063387334 -0.028794453 -0.03783035 -0.05618945 0.60499495 -0.02237801 -0.024919614 1.2188934
-0.024334688 0.06413744 -0.008306738 -0.024957625 0.10478065 0.21835582 0.0072137467 -0.105432734
-0.0048553245 -0.036574475 -0.1279023 0.05926468 0.06508365 -0.0800988 1.3344551 0.031540688
0.018109314 -0.13403988 -0.04776904 -0.017555049 0.027416764 -0.018737389 -0.045359068 -0.08260701
-0.009702422 0.1107511 -0.019402746 0.04597555 0.014222881 0.0756923 0.08903656 0.6550734
-0.031284247 0.05323626 0.1515389 -0.065803565 0.09555703 2.2213705 -0.071811356 -0.061833158
0.039797325 -0.11356474 0.07390335 1.7393515 1.4676381 -0.06766369 0.119309895 -0.12510079
00000000: 3394 dd3f 1029 7a3c 069f b93b 291c 273c
00000010: 02ae 973d 8d92 6b3d aa8b 35bd 3e08 ba3d
00000020: 72f5 44bd f1f8 11be 77ec 1f3e 385b 963b
00000030: ce08 11be 8848 f8bd a475 91bb bef3 39be
00000040: 326f 2a3f b5fa 5dbe 1a7a 40bd 2c17 863d
00000050: 0a3a a73d b622 ba3d be77 933e da83 c2bc
00000060: 17c6 f3bc 1f56 d23a 751d 27bd b7f3 47be
00000070: 483f 823e b630 943e c004 b33d 7c54 bb3f
00000080: bef3 1abe fcd3 9ebc 31d2 903f e560 b7bd
00000090: ba8d 90bd 86bc 883f bb89 b13f ab3b 4cbd
000000a0: a9f3 a13f b876 c13f 6e88 f93d b8a3 133e
000000b0: 158c 463f a7e2 a9bd 86b5 43bd c3a2 dcbc
000000c0: bf83 47bd 2a30 aebd ec4f b63d 241e 353d
000000d0: 1504 c93b 8a89 c53f 198a e53e c405 0cbd
000000e0: 430c 09be ee76 c63d f9b5 c13c 2283 93bc
000000f0: 9219 993d 7719 803c 27f5 ad3f fec0 9dbb
00000100: 3fd5 763d 4cb4 adbc 9bc3 c8bd 047c bf3c
00000110: 35b2 b8bd 5c8c 8cbd 96f5 183d 34a1 4abd
00000120: 087d 543c 8f4f 1e3e c7ca 14be a3b8 013d
00000130: 87d1 b6be afb9 8bbc f4c3 b1bd 4c85 a53f
00000140: 7b35 413e 6420 9a3d b7fd 553d afe4 99bb
00000150: f830 f73c 0f38 153e 1e1a fabc 1d83 c1bd
00000160: b40e 3a3d 47c9 a0bd 3d22 923e 7b43 edbd
00000170: 4d91 87be 81c3 00bd 793d 9d3f f6ac 3dbe
00000180: 8aa0 d8bc be33 213d 8b38 32bd d90a ab3d
00000190: d0b2 323e 89f9 f9bd 2939 07be 0505 f63c
000001a0: 6303 14bd 5040 03bd 3362 c73d 3153 99be
000001b0: 8ef4 5e3e 9755 5a3d c9d1 3bbe b994 213f
000001c0: 9459 eabd 2149 84bd e91c 2fbe e794 18be
000001d0: a1e2 7bbd 8ce4 d53f abb2 5e3d 4395 f2bd
000001e0: d3db 363d 1721 893d e858 2dbe 3d1c d83f
000001f0: d2c8 8c3f 8724 8f3d 7409 fd3e f898 aabd
00000200: eca2 1b40 b3b3 173d a35d 27be 7052 c53d
00000210: e601 c9bd 6f26 dd3c f12a 053d a5d8 853d
00000220: b094 11be 81d7 3dbd 4205 19be 8875 8cbd
00000230: f924 8b3c b6cb 473d 7e56 27bd a5ac ea3c
00000240: b394 033f 0484 aabd 39d0 cebc 5eb0 75bd
00000250: 031e 283d f143 09be 0f5b d43b ff48 b6bc
00000260: 1115 b03c 9717 3abd db32 f2bd 3299 d0bb
00000270: 9b09 063f 1b74 603e ce20 27bd 6aa0 d63f
00000280: 76cc aabd 309e 19bd 19e9 8c3f 28c1 6abe
00000290: 144a b4bd b6ef 863f 0aa7 09bc fd6a 0abd
000002a0: 7be4 8e3f 30b9 f43f 6938 643f a200 4bbe
000002b0: afcf cc3f 203a ad3d 91bf df3c 057e 02be
000002c0: daca 2abd 1fb1 01be 7a2f 3d3e 9dbb f9bc
000002d0: 87c3 b43d 08b4 0140 1e69 ee3e 8cd1 0ebe
000002e0: 4904 eebd 6f8e 3b3e 875a f93c c2c9 86bd
000002f0: b660 933c 3e36 ddbc 3ac1 ae3f c4f4 0cbd
00000300: a1ee babd a536 8d3d f816 82bd ba3a c0bc
00000310: 77a3 a83c abf6 d03d 347e 923d 550c 4939
00000320: 38d1 81bd 58e2 ebbc fff3 1abd e926 66bd
00000330: f3e0 1a3f 1752 b7bc 3824 ccbc b304 9c3f
00000340: 8a59 c7bc 7d5a 833d fc18 08bc ef73 ccbc
00000350: 3d97 d63d ab98 5f3e 4b61 ec3b 1eed d7bd
00000360: 6a19 9fbb 1ecf 15bd d2f8 02be 85bf 723d
00000370: 944a 853d d70a a4bd 6dcf aa3f cf30 013d
00000380: fc59 943c c041 09be 78a9 43bd 9bcf 8fbc
00000390: 1f99 e03c 277f 99bc 6eca 39bd dd2d a9bd
000003a0: e8f6 1ebc 79d1 e23d 82f2 9ebc dc50 3c3d
000003b0: 1607 693c 9104 9b3d cd58 b63d e4b2 273f
000003c0: e923 00bd 440e 5a3d 032d 1b3e 05c4 86bd
000003d0: 67b3 c33d ef2a 0e40 d511 93bd c444 7dbd
000003e0: 8502 233d a194 e8bd a45a 973d 12a3 de3f
000003f0: 91db bb3f 4393 8abd bf58 f43d 6c1a 00be

claim_weight.2.bias f4 [20]
0.1981339 -0.06245657 -0.30301082 -0.16283242 -0.15785636 0.11753108 -0.050833467 -0.21256645
-0.13568039 -0.14350142 -0.096567966 -0.20516257 -0.19282654 0.22206405 -0.0988962 -0.19073659
0.08197592 -0.23138607 -0.18046017 -0.21287622
00000000: 9de3 4a3e 76d2 7fbd 3c24 9bbe 8bbd 26be
00000010: 19a5 21be 23b4 f03d c136 50bd 05ab 59be
00000020: cdef 0abe 09f2 12be 6dc5 c5bd 2316 52be
00000030: 5274 45be c264 633e 178a cabd 7450 43be
00000040: fee2 a73d 78f0 6cbe 8dca 38be 39fc 59be

hos_weight.0.weight f4 [128, 4]
1.1806788 -0.631778 1.2074444 0.44476473 -0.20889187 -0.27108684 0.034216247 0.14151737
-0.26008156 -0.3218075 0.30740523 -0.021265095 -0.30409637 0.28397965 -0.37710428 0.45819443
1.2112032 -0.43469104 0.8893424 0.4336684 -0.3938211 -0.5550022 -0.26498514 0.31488615
0.46478108 0.008736668 0.44975972 -0.17723459 0.5446946 0.27567512 0.40103045 0.08515025
-2.0032945 -2.7908084 -1.7664566 -2.9571187 -2.534713 -3.7069676 -2.0147219 -3.8792477
-0.00927587 0.036795367 0.57985747 -0.15192384 0.21226582 0.18475457 -0.24726455 -0.33700317
0.49473694 -0.23657806 0.36057928 -0.64983225 -2.082661 -2.6626923 -0.28427973 -1.7436491
0.7298512 0.23790409 0.545122 -0.33356574 0.11042061 0.15396525 0.33678052 -0.3072657
-1.5045964 -1.3576106 -0.87718153 -0.6714076 0.7653371 -0.061506256 0.5900439 0.024544552
0.28105322 0.09849768 0.008477745 -0.040316112 -0.15714891 0.5487491 0.20445018 -0.14883777
-0.35654685 0.23275873 -0.34945798 0.6683403 0.3898002 -0.015154605 0.40752628 -0.011363396
-1.4865847 -0.5042511 -0.2512216 -1.0807073 1.1552873 -0.3538263 0.8769095 0.19610266
0.37566507 -1.2014296 -0.324845 -1.2400407 0.38141203 -0.08566282 0.27165344 -0.0066307127
-0.6174728 -0.16500074 0.2888221 0.026360372 0.18145385 0.30227235 -0.24546267 -0.540618
0.12071276 0.014143547 0.41523153 -0.2500699 0.7176983 -0.39684203 -0.05071167 0.40692404
0.6516766 -0.08814894 1.211442 0.07071621 -3.236825 -4.2882247 -1.7632565 -2.774331
-0.0852506 -0.05687153 -0.3865594 -0.06124649 0.5889399 -0.33176157 0.59354264 0.0863772
0.025004102 -0.31153956 -0.3389988 -0.4209563 0.014039422 -0.042505853 -0.31778407 -0.5130329
0.38320088 -0.09801523 0.1050813 -0.15583865 -0.1524833 -0.19434185 -0.05352775 -0.32096747
0.93244576 -0.13771689 0.36157033 0.1269149 -0.0030612794 -0.04757501 -0.60723585 0.18422844
0.18712163 0.34417006 -0.33895147 -0.13612959 0.5294613 0.24662213 0.5919228 -0.3832449
-0.9984355 -1.6364967 -0.76594543 -0.96758926 0.15075967 0.38833892 -0.352468 -0.24197459
-0.27894446 0.21039565 0.107437894 0.10665339 -0.244688 0.27230212 0.31823823 0.28261477
0.6298679 -0.08082494 0.65300447 -0.20170568 0.2935861 0.09407114 -0.41269442 -0.72717875
-0.26754546 0.16547151 0.1098324 0.43549567 -0.30641964 -0.16736703 0.34588635 0.35229892
0.45950967 -0.047272053 0.6322691 -0.09240141 0.09209079 0.31172994 -0.23242453 -0.0002000621
-0.8983403 -0.60016036 -0.2892382 -0.646423 0.52189285 0.3190929 0.6109663 -0.7509792
0.28492138 0.37758547 -0.1093124 -0.4013617 0.008321787 -0.32165954 0.0474452 -0.39557874
-2.3310428 -2.0176978 -1.1873841 -0.536097 0.41970798 -0.21037756 -0.1573141 0.35915044
0.44720423 -0.2795494 0.50258654 0.39027843 -0.538189 0.088207975 0.2644802 0.32385656
-0.6698332 -1.2233663 0.25382107 -1.343094 0.479171 0.049282324 -0.3620285 -0.14091374
-2.1746235 -3.2386804 -0.5502419 -2.0188065 -0.24911563 -0.21592796 -0.03990853 -0.38340348
00000000: 7c20 973f 34bc 21bf 8a8d 9a3f 34b8 e33e
00000010: c0e7 55be e5cb 8abe 5626 0c3d eee9 103e
00000020: 6929 85be f4c3 a4be 3864 9d3e 2334 aebc
00000030: 85b2 9bbe c865 913e d013 c1be 7698 ea3e
00000040: b508 9b3f d38f debe f2ab 633f c909 de3e
00000050: eba2 c9be a014 0ebf 22ac 87be c238 a13e
00000060: c9f7 ed3e 3e24 0f3c e846 e63e fc7c 35be
00000070: 1b71 0b3f 4a25 8d3e dd53 cd3e 4163 ae3d
00000080: fa35 00c0 9b9c 32c0 401b e2bf 6f41 3dc0
00000090: bd38 22c0 f53e 6dc0 34f1 00c0 9845 78c0
000000a0: d2f9 17bc bdb6 163d 8a71 143f ec91 1bbe
000000b0: 365c 593e 4d30 3d3e eb32 7dbe ae8b acbe
000000c0: 294e fd3e 8541 72be d99d b83e 685b 26bf
000000d0: 514a 05c0 8d69 2ac0 1d8d 91be e52f dfbf
000000e0: 87d7 3a3f 219d 733e 1e8d 0b3f 21c9 aabe
000000f0: 3324 e23d 11a9 1d3e 7f6e ac3e ee51 9dbe
00000100: 9d96 c0bf 2fc6 adbf f88e 60bf 5ee1 2bbf
00000110: 22ed 433f fced 7bbd 1e0d 173f a811 c93c
00000120: 35e6 8f3e 27b9 c93d 3de6 0a3c 8222 25bd
00000130: a5eb 20be d27a 0c3f 635b 513e ee68 18be
00000140: 4f8d b6be 4e58 6e3e 28ec b2be 5a18 2b3f
00000150: e493 c73e 054b 78bc 49a7 d03e 8a2d 3abc
00000160: 6848 bebf 9a16 01bf 1ea0 80be 9e54 8abf
00000170: 74e0 933f b928 b5be 247d 603f 23cf 483e
00000180: 2c57 c03e 72c8 99bf 1552 a6be a7b9 9ebf
00000190: 7048 c33e fd6f afbd 2916 8b3e 7346 d9bb
000001a0: b312 1ebf f4f5 28be 7ee0 933e b5f1 d73c
000001b0: 0acf 393e 71c3 9a3e 915a 7bbe f165 0abf
000001c0: 4038 f73d 56ba 673c 3a99 d43e 2909 80be
000001d0: 13bb 373f e12e cbbe 0ab7 4fbd 5958 d03e
000001e0: 47d4 263f 6e87 b4bd 8810 9b3f a9d3 903d
000001f0: 2428 4fc0 2339 89c0 64b2 e1bf a48e 31c0
00000200: de97 aebd 1ff2 68bd 1deb c5be 99dd 7abd
00000210: c4c4 163f a7dc a9be 69f2 173f 88e6 b03d
00000220: 67d5 cc3c 1d82 9fbe 4091 adbe 9687 d7be
00000230: 9b05 663c 9e1a 2ebd 98b4 a2be 2056 03bf
00000240: e832 c43e 35bc c8bd dd34 d73d 2b94 1fbe
00000250: 9524 1cbe 8d01 47be ea3f 5bbd d955 a4be
00000260: c4b4 6e3f a805 0dbe bf1f b93e fbf5 013e
00000270: bf9f 48bb 04de 42bd cf73 1bbf 61a6 3c3e
00000280: d09c 3f3e 0f37 b03e 0c8b adbe 8e65 0bbe
00000290: c78a 073f 838a 7c3e 4188 173f ad38 c4be
000002a0: 7899 7fbf b978 d1bf 0015 44bf eeb3 77bf
000002b0: be60 1a3e 5cd4 c63e b076 b4be 30c8 77be
000002c0: cfd1 8ebe f571 573e 6608 dc3d 186d da3d
000002d0: 7e8f 7abe 2f6b 8b3e 1ff0 a23e e2b2 903e
000002e0: 063f 213f 8c87 a5bd 4d2b 273f ef8b 4ebe
000002f0: eb50 963e 5fa8 c03d af4c d3be 6328 3abf
00000300: b8fb 88be 5d71 293e cfef e03d 4af9 de3e
00000310: 09e3 9cbe 4362 2bbe 0418 b13e 8660 b43e
00000320: da44 eb3e 57a0 41bd 63dc 213f f33c bdbd
00000330: 199a bc3d 119b 9f3e b200 6ebe c3c7 51b9
00000340: a1f9 65bf 1ca4 19bf 0817 94be fa7b 25bf
00000350: c59a 053f 2560 a33e 4a68 1c3f 2c40 40bf
00000360: 37e1 913e e252 c13e 2edf dfbd 487f cdbe
00000370: 1b58 083c 8fb0 a4be e655 423d 4c89 cabe
00000380: ce2f 15c0 f621 01c0 34fc 97bf a73d 09bf
00000390: f7e3 d63e 376d 57be f316 21be 91e2 b73e
000003a0: f4f7 e43e 1921 8fbe 83a9 003f 93d2 c73e
000003b0: c1c6 09bf 62a6 b43d f369 873e 87d0 a53e
000003c0: 307a 2bbf 4497 9cbf d6f4 813e 81ea abbf
000003d0: e755 f53e 43dc 493d cd5b b9be b14b 10be
000003e0: 082d 0bc0 8a46 4fc0 a7dc 0cbf 2034 01c0
000003f0: 2b18 7fbe 381c 5dbe 2077 23bd 764d c4be

hos_weight.0.bias f4 [128]
-1.3532051 -0.012227167 0.11921387 0.120893665 -1.0288004 0.087887496 -0.038436405 -0.05100368
0.44646204 0.55354327 -0.29004306 0.027589643 -0.024899038 0.36082307 -0.59228706 -0.46145386
0.551715 -0.7856878 -0.038477626 0.046386767 0.20836395 -0.045839876 0.27436087 -1.1659784
0.20081715 0.2701317 -0.08586674 -0.079183534 -0.47608268 -0.43654287 0.12916964 0.7634115
0.24971949 0.1820039 0.03908147 0.034391273 -0.24539267 -0.1389554 -0.6382062 0.3121921
-0.04641747 -0.09696395 0.20229498 -0.13079983 0.256359 -0.0940267 -0.67869127 0.08639609
0.03477056 0.057072215 -0.6017009 -0.15366057 -0.013536457 -0.055818327 -0.16984555 -0.033902936
0.5428186 0.11098889 0.27197686 0.16671689 0.21864799 -0.021765083 0.42952573 0.040458135
-0.11641939 0.013189914 0.3450844 0.0017895575 0.54991454 0.4204615 -0.011737246 -0.04373812
0.2709671 0.10473194 0.21277672 -0.02405605 -0.012825716 -0.25956273 0.0551018 -0.81935185
0.19143409 0.46970278 -0.111089334 -0.07239223 0.1489902 0.16101395 -0.17068617 0.25445443
0.25898716 -0.6668693 0.12755065 0.40717053 -0.29540798 -0.14961284 0.22654225 -0.033471905
-0.12381397 -0.15558042 -0.79787177 -0.04258054 0.04178831 0.39446542 0.187354 0.10714413
-0.009450798 -0.15241008 0.15016823 -0.064061925 -0.05389432 0.0072826133 0.3358417 -0.041915525
-0.06770169 0.19264393 0.025138045 0.50101906 0.2977175 0.10078608 0.09736378 0.24504139
-0.28475043 -0.13299963 -0.21274981 -0.58064604 -0.0048990385 0.061813813 -0.07360004 0.09231489
00000000: d335 adbf 7554 48bc 6726 f43d 1997 f73d
00000010: bbaf 83bf 5cfe b33d 7e6f 1dbd 3ce9 50bd
00000020: ac96 e43e 03b5 0d3f 8680 94be ad03 e23c
00000030: 11f9 cbbc cdbd b83e 20a0 17bf ae43 ecbe
00000040: 323d 0d3f d622 49bf b79a 1dbd 0d00 3e3d
00000050: 5c5d 553e 98c2 3bbd 0779 8c3e c83e 95bf
00000060: 03a3 4d3e b44e 8a3e e7da afbd fa2a a2bd
00000070: 1cc1 f3be 8c82 dfbe 0c45 043e f06e 433f
00000080: 77b6 7f3e 3b5f 3a3e e413 203d dddd 0c3d
00000090: 3748 7bbe 534a 0ebe 7b61 23bf a5d7 9f3e
000000a0: 3f20 3ebd 0995 c6bd 6a26 4f3e 64f0 05be
000000b0: 7d41 833e 1291 c0bd b6be 2dbf 6ff0 b03d
000000c0: 936b 0e3d 8ec4 693d 1209 1abf 3259 1dbe
000000d0: 04c8 5dbc c2a1 64bd feeb 2dbe cedd 0abd
000000e0: 29f6 0a3f 254e e33d 8d40 8b3e d5b7 2a3e
000000f0: 42e5 5f3e b04c b2bc ccea db3e 6eb7 253d
00000100: 4a6d eebd 821a 583c e7ae b03e 968f ea3a
00000110: 33c7 0c3f bb46 d73e 944d 40bc be26 33bd
00000120: 33bc 8a3e b37d d63d 24e2 593e 3211 c5bc
00000130: f422 52bc 68e5 84be 6db2 613d 0bc1 51bf
00000140: 4c07 443e e27c f03e ce82 e3bd 6142 94bd
00000150: e390 183e d7e0 243e 5bc8 2ebe da47 823e
00000160: f799 843e f2b7 2abf a39c 023e a878 d03e
00000170: b73f 97be 1c34 19be b1fa 673e d619 09bd
00000180: 2e92 fdbd 7950 1fbe 5341 4cbf ef68 2ebd
00000190: 382a 2b3d 5ff7 c93e bad9 3f3e 626e db3d
000001a0: 85d7 1abc 6311 1cbe b3c5 193e e632 83bd
000001b0: 4ac0 5cbd fda2 ee3b 71f3 ab3e 9daf 2bbd
000001c0: 2fa7 8abd 7344 453e 4dee cd3c c942 003f
000001d0: 6e6e 983e ef68 ce3d a966 c73d 21ec 7a3e
000001e0: cfca 91be 0e31 08be 16db 59be 38a5 14bf
000001f0: 1d88 a0bb 7b30 7d3d 9ebb 96bd 970f bd3d

hos_weight.2.weight f4 [4, 128]
-2.423884 -0.047569867 0.040382475 -0.055177204 -1.8016303 0.08924955 -0.0023021486 -0.060438216
1.3986515 0.7784315 -0.14536257 0.030167582 -0.037512362 0.35161835 -0.5516255 -0.028668126
1.2798632 -0.9481442 0.007317645 0.06646073 0.041296057 -0.0043299193 1.0733573 -1.2185993
0.17025891 -0.00083906564 -0.0018152497 0.005177545 -0.050543543 -0.47308373 -0.12853396 3.3109303
0.06437679 -0.01442609 0.25869787 -0.017528242 -0.32874158 -0.051984437 -0.7412441 0.10115753
-0.026814442 -0.016354196 0.34238702 -0.08434206 0.2627481 0.06646883 -0.41644543 0.09482847
0.057816457 0.03508319 -0.5430179 -0.05582601 0.10275799 4.1066687e-05 -0.05508544 -0.040034268
1.9824924 0.006640393 -0.06905246 0.052222524 0.91460896 0.010867644 1.3254112 0.06173908
0.075655416 -0.004843661 0.96165985 -0.01465255 2.6722975 0.13518806 0.04619609 -0.06431311
0.140747 0.07348937 0.32499248 0.023414837 0.054015994 -0.18558227 0.10142065 -0.69590247
0.20420977 0.8473107 -0.024296172 -0.036281697 0.10623073 0.0926391 -0.031057656 0.095133215
0.09524067 -0.80940145 0.36871573 1.4370009 -0.11201323 -0.09270945 0.110360585 -0.023286032
-0.06441545 0.03331261 -0.7855535 0.03215503 0.06244894 0.4945344 0.0538419 0.06691223
-0.02174221 -0.080701865 0.08740179 -0.10111181 0.0039976034 0.02628403 0.2975923 -0.0013309442
-0.053200368 0.18611866 0.058865983 2.779744 1.658929 0.0144372415 0.062935546 0.17548932
-0.090872325 0.02142774 -0.07390208 -0.5775881 0.0201407 0.026281424 0.0012204411 0.06019543
-0.7280654 0.21707918 -0.28844103 0.010594437 -0.42420903 0.07935665 -0.237582 -0.19443554
2.2499862 1.7600698 -0.061729405 -0.13175456 -0.169213 0.8408329 0.09476485 -0.08791758
1.1140037 -0.13777399 -0.074343376 0.04993615 -0.13105601 -0.20070402 0.6864039 -0.3840019
-0.043066666 -0.2520678 0.1467324 -0.009386415 -0.021502059 -0.002172813 -0.75064886 3.672509
-0.2914239 -0.20669523 -0.010679965 0.088872716 0.07426435 0.019713871 -0.10841792 -0.37359852
0.26911286 -0.10166905 0.80204904 -0.041955397 0.15447603 -0.076697454 -0.19393373 -0.19035032
0.17416272 -0.057733048 -0.04953653 -0.04308497 0.15988992 -0.27642384 0.019877182 -0.07668531
1.6608733 -0.2671466 -0.32644525 -0.17561392 0.09530042 -0.17799082 2.320263 0.18979129
0.1599391 -0.6098168 0.1502275 -0.0029970433 3.0274453 -0.40685752 -0.1833001 0.08516243
-0.36801714 -0.11428865 -0.13077137 -0.07184657 -0.17753886 0.005132498 0.14411579 -0.07535286
0.24758255 1.870201 0.16258408 -0.009269503 -0.15496673 -0.16637087 0.2377751 -0.24011335
-0.31461474 -0.1898138 0.069398515 1.4671768 0.3144522 -0.120045364 -0.30582455 0.16223505
0.2426113 0.30725002 -0.17395519 -0.2178588 -0.100042336 0.20459083 -0.17131986 -0.20633146
0.13656878 0.08511533 -0.1525246 -0.17812528 0.17750421 -0.16281264 0.3637231 0.26337415
-0.11091855 0.21481182 -0.07526503 3.431032 1.5458896 -0.26854238 -0.2149549 -0.21838231
-0.10271763 0.11780524 0.25678712 -0.12292588 -0.06373414 -0.087442935 -0.21461411 -0.2936935
00000000: ea20 1bc0 9fd8 42bd 1868 253d 7e01 62bd
00000010: d29b e6bf 78c8 b63d a5df 16bb 108e 77bd
00000020: 0307 b33f 4947 473f edd9 14be 0122 f73c
00000030: 90a6 19bd 5207 b43e 5437 0dbf 6bd9 eabc
00000040: 8fd2 a33f 94b9 72bf dbc8 ef3b 901c 883d
00000050: 0e26 293d ffe1 8dbb c663 893f 10fb 9bbf
00000060: 5a58 2e3e bef4 5bba aced edba 65a8 a93b
00000070: bf06 4fbd 0838 f2be 689e 03be 48e6 5340
00000080: fad7 833d 685b 6cbc 0c74 843e 6397 8fbc
00000090: d150 a8be a2ed 54bd 2cc2 3dbf ae2b cf3d
000000a0: f6a9 dbbc 3cf9 85bc 5a4d af3e 88bb acbd
000000b0: eb86 863e cf20 883d 5638 d5be 6e35 c23d
000000c0: f3d0 6c3d 64b3 0f3d 3903 0bbf d0a9 64bd
000000d0: c872 d23d 053f 2c38 45a1 61bd f9fa 23bd
000000e0: 50c2 fd3f a797 d93b 606b 8dbd 49e7 553d
000000f0: d023 6a3f 340e 323c 13a7 a93f 1ee2 7c3d
00000100: 3af1 9a3d 93b7 9ebb 572f 763f 4011 70bc
00000110: ec06 2b40 bd6e 0a3e 1c38 3d3d 98b6 83bd
00000120: fb1f 103e 9881 963d 6a65 a63e 79d0 bf3c
00000130: e03f 5d3d 4709 3ebe a1b5 cf3d aa26 32bf
00000140: 5e1c 513e 5be9 583f c408 c7bc 1e9c 14bd
00000150: 7f8f d93d 92b9 bd3d a06c febc 34d5 c23d
00000160: 8a0d c33d ef34 4fbf 4fc8 bc3e a5ef b73f
00000170: 3167 e5bd 74de bdbd bb04 e23d 59c2 bebc
00000180: 3fec 83bd ce72 083d 091a 49bf feb4 033d
00000190: 76ca 7f3d 9d33 fd3e 5389 5c3d 4709 893d
000001a0: b81c b2bc 0547 a5bd b6ff b23d b513 cfbd
000001b0: 54fe 823b 9b51 d73c 055e 983e 1473 aeba
000001c0: a1e8 59bd e495 3e3e 751d 713d 53e7 3140
000001d0: c957 d43f 2e8a 6c3c 5ae4 803d 79b3 333e
000001e0: 451b babd 3a89 af3c f959 97bd d0dc 13bf
000001f0: 1cfe a43c 244c d73c 35f7 9f3a 7c8f 763d
00000200: 7e62 3abf 014a 5e3e 8bae 93be 4a94 2d3c
00000210: ed31 d9be bd85 a23d b248 73be 1c1a 47be
00000220: c6ff 0f40 f849 e13f f9d7 7cbd abea 06be
00000230: 2c46 2dbe d340 573f 1314 c23d 220e b4bd
00000240: ac97 8e3f a014 0dbe 5741 98bd d989 4c3d
00000250: 8c33 06be 5b85 4dbe 2ab8 2f3f e69b c4be
00000260: ac66 30bd 080f 81be 0541 163e 7ac9 19bc
00000270: 1625 b0bc c165 0ebb 862a 40bf 630a 6b40
00000280: 8335 95be eaa7 53be 05fb 2ebc e602 b63d
00000290: e817 983d fc7e a13c 370a debd 4e48 bfbe
000002a0: 29c9 893e dd37 d0bd 1653 4d3f 6cd9 2bbd
000002b0: f72e 1e3e 8e13 9dbd 9096 46be 32eb 42be
000002c0: b657 323e 7d79 6cbd d1e6 4abd de79 30bd
000002d0: 2fba 233e 6d87 8dbe 79d5 a23c 300d 9dbd
000002e0: 7f97 d43f 70c7 88be d523 a7be 23d4 33be
000002f0: de2c c33d 3a43 36be 307f 1440 a658 423e
00000300: 13c7 233e f41c 1cbf 3dd5 193e 0b6a 44bb
00000310: aac1 4140 a14f d0be 05b3 3bbe a469 ae3d
00000320: be6c bcbe 2b10 eabd eee8 05be 4b24 93bd
00000330: bfcc 35be 842e a83b 1793 133e 9a52 9abd
00000340: 4886 7d3e bf62 ef3f 717c 263e 1ddf 17bc
00000350: 99af 1ebe 205d 2abe 517b 733e 46e0 75be
00000360: 2f15 a1be 8c5e 42be cf20 8e3d 73cc bb3f
00000370: e1ff a03e 58da f5bd 0995 9cbe f220 263e
00000380: 196f 783e e04f 9d3e 4f21 32be 6116 5fbe
00000390: ffe2 ccbd 4280 513e 796e 2fbe 8e48 53be
000003a0: b0d8 0b3e f250 ae3d 692f 1cbe 7966 36be
000003b0: aac3 353e 5bb8 26be ea39 ba3e fad8 863e
000003c0: 4429 e3bd a1f7 5b3e 8d24 9abd 0796 5b40
000003d0: b6df c53f 637e 89be 231d 5cbe 9d9f 5fbe
000003e0: 9f5d d2bd e043 f13d 9a79 833e 90c0 fbbd
000003f0: 0b87 82bd 4815 b3bd cdc3 5bbe ff5e 96be

hos_weight.2.bias f4 [4]
0.08574021 -0.31934345 -0.1537287 -0.09512274
00000000: 9098 af3d fc80 a3be 0e6b 1dbe b6cf c2bd

vac_weight.0.weight f4 [128, 17]
-0.032517657 0.04023073 -0.040300645 -0.01271079 -0.038779747 -0.17473713 -0.35932338 0.048684053
-0.05315197 -0.013405188 -0.32236785 -0.41807207 -0.2434088 -0.0029000016 -0.13881108 0.19155443
0.009266991 -0.10990675 -0.04129591 0.15858729 0.16525157 -0.12188454 -0.19670266 0.22319198
-0.14500114 0.08980062 0.17930163 0.072160736 -0.19959415 -0.06898843 -0.33095264 -0.32062286
0.0587865 0.012505311 -0.13605581 -0.03277913 0.17912678 -0.19480771 -0.15069607 -0.1083969
0.047762983 -0.10144271 0.029743481 -0.09555934 -0.015532637 0.07115814 -0.22605377 -0.21851428
0.1409563 0.116469935 0.115138285 0.20470878 -0.21938083 0.064903244 -0.0016945507 0.05901183
-0.08902247 0.22866502 0.10987206 0.20812604 0.1068388 0.17987102 -0.20544852 -0.28434518
0.1377453 0.3408192 -0.029122233 0.13761337 -0.090967014 -0.07255251 -0.25141037 -0.25520098
-0.15729779 -0.29643577 -0.23108366 -0.11726105 -0.24356551 -0.063607484 -0.3750718 -0.24568218
0.09026906 0.41079175 0.3493614 -0.26059616 -0.11563608 0.144741 -0.004721725 -0.15591978
0.19183534 -0.09863626 0.18438692 0.15592086 -0.17896813 0.041987766 -0.0922919 -0.114844754
-0.043494295 -0.09951898 -0.08228606 0.019817676 -0.018805478 -0.1392704 0.13699864 -0.0064573037
0.08238559 -0.23028915 -0.17476317 -0.15669596 0.075328864 0.20594274 -0.05101157 -0.14710268
0.16331336 0.08986722 0.18555892 0.110920005 0.35726646 0.01275224 -0.14378262 0.03486258
-0.022217445 -0.20211455 -0.17567366 0.19987656 -0.00945034 -0.0479252 -0.030374363 0.07970793
-0.1507112 -0.14342749 0.034279212 0.25361508 0.30185303 0.43324935 -0.15927826 0.12177728
0.23904106 0.05838243 -0.16937461 0.06583116 -0.03454674 0.08466445 0.20852555 0.17253225
0.104909 -0.045473527 0.013822004 0.13176994 0.10320086 0.15906847 0.3333357 -0.048496716
0.13387404 -0.042532448 -0.08984964 0.15385641 0.17158487 -0.26077798 -0.28732413 -0.45033616
0.046889912 0.09746549 0.06439624 0.0036692098 -0.27958742 0.10144183 -0.031268686 0.4103187
0.93569726 0.45008597 0.017946646 -0.15234171 -0.19504954 -0.33016235 -0.3406537 -0.089500524
-0.0065819276 -0.14091615 -0.1915196 -0.2716664 -0.37697196 0.07031367 0.2632537 0.0428124
-0.077207044 0.22564182 -0.07755639 0.34523365 0.31125832 0.17929529 -0.45296693 0.29184145
0.313507 -0.027473515 0.047876604 0.16286634 0.15728796 0.4034939 -0.7020875 -0.5664133
-0.34233662 1.3983002 0.80793655 0.970526 -0.3797067 -0.052630454 0.09079846 -0.15115406
-0.079626314 -0.08716369 -0.15296865 -0.22696744 -0.038748644 -0.20013122 -0.1516544 -0.16072868
0.13223504 0.15800135 0.06834545 -0.26449344 0.0020909256 -0.13005123 -0.16338888 -0.23587996
-0.37340873 -0.2402783 0.017279537 -0.09064272 -0.3277849 -0.056478 0.0053109024 -0.11662221
-0.06493579 -0.069717176 0.00471676 -0.4052292 0.02678523 -0.16104421 -0.04102668 -0.020893931
-0.18834025 -0.01731111 -0.09832073 -0.0817398 -0.1074685 0.19310668 -0.2179822 0.0008000057
-0.0008300436 -0.085640356 0.36217424 0.3217084 -0.14551003 -0.15964387 -0.090509035 0.0632882
00000000: 3c31 05bd fac8 243d 4a12 25bd eb40 50bc
00000010: 83d7 1ebd 4aee 32be 3cf9 b7be ee68 473d
00000020: e1b5 59bd 6fa1 5bbc 660d a5be 8b0d d6be
00000030: 2840 79be f40d 3ebb 7e24 0ebe d826 443e
00000040: 94d4 173c ca16 e1bd e625 29bd b564 223e
00000050: b537 293e 9a9e f9bd 6c6c 49be 708c 643e
00000060: 2e7b 14be 63e9 b73d d99a 373e 02c9 933d
00000070: 6962 4cbe ce49 8dbd a072 a9be ae28 a4be
00000080: 1dca 703d 13e3 4c3c 3752 0bbe 6943 06bd
00000090: 036d 373e ac7b 47be 1250 1abe 32ff ddbd
000000a0: 1ea3 433d 32c1 cfbd 9aa8 f33c 9eb4 c3bd
000000b0: 9a7c 7ebc 5cbb 913d a47a 67be 35c2 5fbe
000000c0: d956 103e ca87 ee3d 9fcd eb3d 2e9f 513e
000000d0: 5ea5 60be feeb 843d b01b deba 63b6 713d
000000e0: 6a51 b6bd 2a27 6a3e 9a04 e13d fe1e 553e
000000f0: 4dce da3d 1c30 383e 1961 52be b195 91be
00000100: 1b0d 0d3e db7f ae3e c091 eebc 85ea 0c3e
00000110: ea4c babd 6996 94bd dcb8 80be b4a9 82be
00000120: ac12 21be 6ec6 97be 32a1 6cbe 9026 f0bd
00000130: 3d69 79be a444 82bd 6909 c0be 1c94 7bbe
00000140: fcde b83d 4c53 d23e 7fdf b23e dc6c 85be
00000150: 9cd2 ecbd fc36 143e b3b8 9abb 6fa9 1fbe
00000160: 7c70 443e cf01 cabd edcf 3c3e b8a9 1f3e
00000170: 6c43 37be 5dfb 2b3d 8903 bdbd ba33 ebbd
00000180: 1327 32bd 9bd0 cbbd 9885 a8bd ae58 a23c
00000190: f20d 9abc e69c 0ebe 5f49 0c3e ca97 d3bb
000001a0: c7b9 a83d ebd0 6bbe 1ef5 32be e874 20be
000001b0: 0546 9a3d a7e2 523e 82f1 50bd 16a2 16be
000001c0: 9e3b 273e 4e0c b83d 2803 3e3e 072a e33d
000001d0: a1eb b63e c5ee 503c c03b 13be 11cc 0e3d
000001e0: 5c01 b6bc 1ef7 4ebe cce3 33be 71ac 4c3e
000001f0: 99d5 1abc 374d 44bd a8d3 f8bc e93d a33d
00000200: 0954 1abe a8de 12be 5c68 0c3d d6d9 813e
00000210: 7b8c 9a3e dcd2 dd3e d719 23be 5e66 f93d
00000220: 2ec7 743e 6a22 6f3d 8a70 2dbe 7dd2 863d
00000230: e280 0dbd 8e64 ad3d b987 553e 4bac 303e
00000240: 88da d63d 7342 3abd b075 623c b3ee 063e
00000250: f95a d33d d8e2 223e faaa aa3e 7ea4 46bd
00000260: 4716 093e 8136 2ebd 1703 b8bd 898c 1d3e
00000270: f2b3 2f3e b184 85be 261c 93be 7692 e6be
00000280: a30f 403d fd9b c73d 2de2 833d 2077 703b
00000290: 1526 8fbe bcc0 cf3d 9813 00bd 4b15 d23e
000002a0: db89 6f3f ab71 e63e d804 933c 77ff 1bbe
000002b0: 11bb 47be 0a0b a9be 296a aebe 0d4c b7bd
000002c0: 36ad d7bb 534c 10be b71d 44be dc17 8bbe
000002d0: 7802 c1be 9d00 903d 30c9 863e 0e5c 2f3d
000002e0: ba1e 9ebd a60e 673e e2d5 9ebd 77c2 b03e
000002f0: 405d 9f3e 2f99 373e 48eb e7be 3e6c 953e
00000300: fd83 a03e 2310 e1bc 421a 443d 6fc6 263e
00000310: 1810 213e c196 ce3e 02bc 33bf 7600 11bf
00000320: bf46 afbe 80fb b23f eed4 4e3f 6474 783f
00000330: eb68 c2be 0893 57bd 8bf4 b93d 21c8 1abe
00000340: 1f13 a3bd e082 b2bd d0a3 1cbe 276a 68be
00000350: e6b6 1ebd 33ef 4cbe 4b4b 1bbe 0f96 24be
00000360: 9f68 073e 1bcb 213e b3f8 8b3d af6b 87be
00000370: e907 093b 262c 05be 6a4f 27be 848a 71be
00000380: 6e2f bfbe 840b 76be d18d 8d3c e4a2 b9bd
00000390: 6cd3 a7be 7a55 67bd 1407 ae3b a0d7 eebd
000003a0: 0efd 84bd e1c7 8ebd 0d8f 9a3b 347a cfbe
000003b0: b36c db3c c6e8 24be 980b 28bd c029 abbc
000003c0: 44dc 40be 07d0 8dbc 615c c9bd 3267 a7bd
000003d0: 7218 dcbd c2bd 453e ba36 5fbe 79b7 513a
000003e0: 4897 59ba 3664 afbd e76e b93e f7b6 a43e
000003f0: 9500 15be af79 23be cd5c b9bd 3e9d 813d

vac_weight.0.bias f4 [128]
-0.26222625 -0.11803905 -0.2343638 -0.15271059 -0.0010833723 -0.09324538 0.14742349 0.0017019156
0.1424945 -0.3465018 -0.00012105148 0.418311 0.0148082785 -0.051171746 -0.09238838 -0.35136226
-0.0040199603 -0.13086222 1.3251721 0.0667591 -0.0032993082 -0.33382457 0.0014727036 0.36956096
-0.07539273 -0.15090388 0.0012557744 0.07041833 0.00034235077 -0.018136656 -0.00063306344 0.0946876
0.09854563 -0.15419573 0.049173553 0.065853104 -0.08417033 -0.1512594 -0.10466786 0.039427646
0.65187454 0.04261956 -0.15753438 0.0021393513 0.06408841 0.19699486 -0.00030500916 -0.11184612
0.027309392 0.15195931 -0.23402098 -0.19055435 -0.09268151 -0.18665591 -0.20109418 0.0015016204
-0.1628941 0.044579048 0.004418749 -0.0030656937 0.060323637 -0.26191312 0.18856332 -0.34459758
-0.08070277 0.12501019 1.2798527 -0.11298719 -0.0016196275 -0.06327521 0.042284247 -0.062450763
0.013374839 0.60741216 1.1736503 -0.028261436 -0.13408805 -0.062281467 -0.22726773 1.2716473
-0.22254486 -0.2761855 1.3856245 -0.09257673 -0.1032232 0.08596532 0.1747446 -0.023806185
-0.00044953002 0.016525198 -0.110267125 0.1864709 -0.14781266 -0.20316273 0.06068539 0.17085057
-0.10996942 0.6755251 -0.27720347 1.0464076 0.032304764 -0.10708333 0.17008165 0.18889695
-0.13639271 0.14133279 -0.17009917 -0.09222672 -0.12286182 -0.23511186 -0.11191046 0.048808012
-0.035874404 -0.19452909 -0.18413101 0.017952457 0.024663867 0.055476375 0.11096968 0.15350606
-0.14022103 1.533084 -0.078986965 0.04103129 -0.20939815 -0.0013151325 -0.093108244 -0.28382355
00000000: 8542 86be 75be f1bd 10fd 6fbe 2a60 1cbe
00000010: f1ff 8dba 6ff7 bebd 2ff6 163e d012 df3a
00000020: 14ea 113e af68 b1be 05dd fdb8 dc2c d63e
00000030: 6c9e 723c 7799 51bd 1e36 bdbd c1e5 b3be
00000040: dfb9 83bb bf00 06be 3d9f a93f ffb8 883d
00000050: 3539 58bb 0eeb aabe bc07 c13a 1837 bd3e
00000060: 8167 9abd 8c86 1abe cc98 a43a 7c37 903d
00000070: 8b7d b339 5393 94bc 2bf4 25ba 93eb c13d
00000080: 4bd2 c93d 7ce5 1dbe 356a 493d fedd 863d
00000090: 7e61 acbd bfe3 1abe 1a5c d6bd e27e 213d
000000a0: 40e1 263f d991 2e3d b150 21be 5c34 0c3b
000000b0: c940 833d 05b9 493e a3e9 9fb9 940f e5bd
000000c0: f2b7 df3c 399b 1b3e 32a3 6fbe ae20 43be
000000d0: cecf bdbd ba22 3fbe a2eb 4dbe 05d2 c43a
000000e0: b6cd 26be 8598 363d 27cb 903b cee9 48bb
000000f0: eb15 773d 7a19 86be be16 413e 186f b0be
00000100: 7e47 a5bd ac02 003e 37d2 a33f d465 e7bd
00000110: ae49 d4ba 6f96 81bd 3f32 2d3d 5fcc 7fbd
00000120: 2422 5b3c 5d7f 1b3f 2c3a 963f 8784 e7bc
00000130: 614e 09be da1a 7fbd dfb8 68be 57c5 a23f
00000140: cde2 63be 3068 8dbe 255c b13f de98 bdbd
00000150: af66 d3bd 960e b03d 40f0 323e 3005 c3bc
00000160: e6ae ebb9 da5f 873c bbd3 e1bd 3af2 3e3e
00000170: 345c 17be e409 50be 3e91 783d 74f3 2e3e
00000180: a637 e1bd 37ef 2c3f 9ded 8dbe aff0 853f
00000190: 0052 043d 814e dbbd e229 2e3e 346e 413e
000001a0: 88aa 0bbe 8bb9 103e 7a2e 2ebe 5de1 bcbd
000001b0: fa9e fbbd 2ac1 70be 5031 e5bd e9ea 473d
000001c0: 0af1 12bd a232 47be d78c 3cbe 0811 933c
000001d0: e10b ca3c 323b 633d 1244 e33d b130 1d3e
000001e0: 1a96 0fbe 193c c43f ebc3 a1bd 6d10 283d
000001f0: 786c 56be 8660 acba 89af bebd 5251 91be
