model/hoist.pth (torch, 365664 bytes, 15 tensors)

dynamic_weights.0.0.weight f4 [128, 5]
-0.12957107 0.066686384 -0.16821158 0.22005293 -0.32415617 0.38205975 -0.26395437 -0.2957282
-0.2216238 0.2596354 -0.21495077 0.11893148 -0.42816725 -0.31954497 -0.21433017 -0.011785401
-0.2690183 0.35947743 -0.030931465 0.21406886 0.2914174 0.056852456 0.09560179 0.4086919
-0.2270493 0.19285275 -0.14761552 0.37242508 0.40870103 -0.35691515 0.42438436 0.25806198
0.23864616 0.228491 0.41526726 -0.11231244 -0.43136546 -0.17979228 -0.37387902 -0.02936205
-0.105719216 -0.24947219 -0.0635368 0.4037397 -0.05132028 0.05162139 -0.007885014 0.10543808
0.43316498 0.3330642 0.25652924 0.1987881 0.2064939 0.26942903 0.050081145 -0.4649113
-0.34250167 0.32590616 -0.026982073 -0.41639137 0.057210837 0.3524202 -0.49463794 -0.37443265
-0.18025894 -0.011025101 -0.14529945 -0.07846159 -0.47922975 0.18199219 0.38306156 0.26246715
-0.3018577 -0.3773306 0.2096847 0.091383725 0.24427544 -0.37382326 0.039227787 0.39789256
0.1947181 0.015488225 0.07156224 -0.05100778 -0.23838346 -0.112505086 -0.21184412 0.42464867
0.30309418 0.21726944 -0.27885053 0.40354845 0.20324215 0.36730388 -0.11341002 0.14136586
0.48457763 0.3470036 0.4051964 -0.045572948 0.38755763 -0.3094123 0.087953836 -0.204055
-0.057574905 -0.11703027 0.011811992 0.40086943 0.19906595 -0.019956993 0.37440753 -0.16451865
0.2879601 0.015200476 -0.008520981 0.113215365 -0.27516973 0.122261204 0.21950945 0.4529593
-0.1679575 0.1327792 0.41925555 -0.2210883 0.39657637 -0.17304358 0.26634672 0.17880411
0.15155868 0.37074885 -0.09342769 0.1889586 0.089015946 -0.26237866 -0.019469466 -0.34327722
0.14647214 -0.007410075 -0.00232719 -0.18087775 0.040314294 -0.11059109 0.16788211 0.5049979
0.13081677 -0.23400225 -0.31980047 -0.006193251 -0.37654302 -0.38461554 -0.21272112 -0.06850109
0.114903495 0.38213268 0.2441991 0.39899546 -0.21771993 0.10029014 -0.32865426 0.31540674
0.1589825 0.49720627 -0.25933874 0.41332203 0.43089318 0.4028653 0.10640513 0.44855887
0.3409233 0.37578255 -0.07379155 -0.38952193 -0.050517265 0.037601434 -0.34992242 -0.19841035
-0.36836866 -0.100061685 0.44442365 0.13311242 -0.053632613 -0.004830102 0.25284734 -0.42243764
-0.37259015 -0.10286214 -0.21109875 0.2749215 0.36035758 -0.3884817 -0.39186135 -0.44865575
0.14967261 0.36086887 -0.35672268 -0.19656526 0.16224155 -0.29384443 0.37193346 0.09320349
-0.16731575 -0.015650205 0.0960067 -0.20168132 -0.39028192 0.10151666 0.11110694 0.104909
0.033454243 0.38301614 -0.013321126 0.07168737 0.2911234 -0.15807363 0.23031808 -0.05681563
0.25768322 -0.19959207 0.059789024 0.08653059 -0.31297407 -0.27662805 0.22364324 -0.08206446
0.31853056 -0.5089929 -0.29384694 -0.42365155 0.10661931 -0.074577875 -0.122744605 -0.1154896
-0.3930248 0.09367469 -0.024820609 -0.19204198 0.27607358 0.10272294 -0.3039165 0.34768894
0.20652889 -0.11724218 -0.34783304 -0.016987737 0.30496445 0.3788855 -0.36775288 -0.23178741
0.3173866 0.18842378 0.3214299 -0.17660075 0.4303032 -0.32192004 0.025063878 -0.019186014
00000000: 47ae 04be df92 883d a83f 2cbe 8e55 613e
00000010: ccf7 a5be 569d c33e 0725 87be b069 97be
00000020: 59f1 62be eeee 843e 0e1c 5cbe 5992 f33d
00000030: bd38 dbbe 669b a3be 5e79 5bbe 8e17 41bc
00000040: c4bc 89be 6d0d b83e fc63 fdbc de34 5b3e
00000050: a934 953e 1fde 683d dfca c33d 1140 d13e
00000060: 9d7f 68be 317b 453e 8628 17be 80ae be3e
00000070: 4341 d13e 95bd b6be e848 d93e b320 843e
00000080: a95f 743e 8bf9 693e e99d d43e 1104 e6bd
00000090: efdb dcbe 781b 38be 126d bfbe af88 f0bc
000000a0: 5183 d8bd a375 7fbe 951f 82bd f8b6 ce3e
000000b0: 3735 52bd f370 533d 2530 01bc ecef d73d
000000c0: cdc7 dd3e 6487 aa3e cd57 833e 1c8f 4b3e
000000d0: 2373 533e 9af2 893e e321 4d3d db08 eebe
000000e0: 615c afbe 2cdd a63e 8209 ddbc 4031 d5be
000000f0: e955 6a3d 6c70 b43e 2f41 fdbe a3b5 bfbe
00000100: cd95 38be a0a2 34bc 61c9 14be 78b0 a0bd
00000110: 9a5d f5be 295c 3a3e a520 c43e 1862 863e
00000120: 188d 9abe 7a31 c1be 96b7 563e 6427 bb3d
00000130: 5723 7a3e c365 bfbe 51ad 203d 93b8 cb3e
00000140: 2e64 473e 53c2 7d3c 398f 923d 89ed 50bd
00000150: cb1a 74be 1169 e6bd aaed 58be 8d6b d93e
00000160: 292f 9b3e e17b 5e3e 7fc5 8ebe e79d ce3e
00000170: b61e 503e 410f bc3e 8343 e8bd 36c2 103e
00000180: 8f1a f83e 75aa b13e e775 cf3e b3aa 3abd
00000190: f46d c63e 4a6b 9ebe 2421 b43d cbf3 50be
000001a0: aad3 6bbd 91ad efbd 1687 413c c23e cd3e
000001b0: f2d7 4b3e d97c a3bc 58b2 bf3e 9477 28be
000001c0: 826f 933e 6b0b 793c 969b 0bbc 75dd e73d
000001d0: 0ce3 8cbe 1564 fa3d 16c7 603e 48ea e73e
000001e0: 0dfd 2bbe 45f7 073e aaa8 d63e f964 62be
000001f0: 0f0c cb3e 5632 31be 995e 883e 6d18 373e
00000200: 3332 1b3e cbd2 bd3e 0457 bfbd 5d7e 413e
00000210: fe4d b63d 7f56 86be 6e7e 9fbc 08c2 afbe
00000220: cbfc 153e 37d0 f2bb c583 18bb 0438 39be
00000230: 9a20 253d 957d e2bd 4ae9 2b3e 8b47 013f
00000240: d5f4 053e 499e 6fbe e3bc a3be c1f0 cabb
00000250: 3fca c0be 54ec c4be 91d3 59be 4d4a 8cbd
00000260: 8652 eb3d e5a6 c33e 540f 7a3e 2249 cc3e
00000270: f9f1 5ebe eb64 cd3d 5f45 a8be fe7c a13e
00000280: 4fcc 223e d291 fe3e 0cc8 84be f29e d33e
00000290: 089e dc3e 5c44 ce3e efea d93d 82a9 e53e
000002a0: 808d ae3e 9266 c03e 0620 97bd 6b6f c7be
000002b0: 31eb 4ebd f603 1a3d 0829 b3be 152c 4bbe
000002c0: d19a bcbe 24ed ccbd 7f8b e33e 9f4e 083e
000002d0: dfad 5bbd d545 9ebb 3575 813e bf49 d8be
000002e0: 23c4 bebe 63a9 d2bd 452a 58be 83c2 8c3e
000002f0: ca80 b83e 13e7 c6be 0da2 c8be 35b6 e5be
00000300: c743 193e cec3 b83e 5ba4 b6be 6748 49be
00000310: a622 263e c772 96be 106e be3e 79e1 be3d
00000320: d254 2bbe dc34 80bc 299f c43d 8c85 4ebe
00000330: 08d3 c7be f7e7 cf3d 098c e33d 88da d63d
00000340: 5107 093d b11a c43e da40 5abc d4d0 923d
00000350: 200e 953e 0ede 21be 81d8 6b3e 82b7 68bd
00000360: 0eef 833e dd61 4cbe 56e5 743d f336 b13d
00000370: 233e a0be 31a2 8dbe bc02 653e 6911 a8bd
00000380: 7016 a33e 5c4d 02bf 1b73 96be dbe8 d8be
00000390: 3a5b da3d 49bc 98bd 8661 fbbd d085 ecbd
000003a0: 8c3a c9be 84d8 bf3d 9754 cbbc a7a6 44be
000003b0: 8459 8d3e 6860 d23d f29a 9bbe 4904 b23e
000003c0: 4f7c 533e ab1c f0bd 2c17 b2be de29 8bbc
000003d0: 4d24 9c3e 48fd c13e 1b4a bcbe ae59 6dbe
000003e0: 7f80 a23e 2af2 403e 7692 a43e d4d6 34be
000003f0: b350 dc3e b4d2 a4be c352 cd3c fd2b 9dbc

dynamic_weights.0.0.bias f4 [128]
0.41302463 0.20090695 -0.39961648 0.14364126 -0.08915034 0.23680119 0.29540154 -0.3709261
-0.16668516 0.43396646 -0.22364618 -0.16059756 -0.1743462 -0.13932447 -0.06481328 0.32560563
0.27125052 -0.10280773 0.11224931 -0.36734846 -0.11995703 -0.058137618 0.043265037 0.14948772
-0.0037971456 -0.105444215 0.40497512 -0.19362096 0.4232883 0.22405022 0.067881465 -0.10545117
0.33356282 0.046730734 -0.28848127 0.29859358 0.008252587 0.47401753 -0.44968796 0.10661948
-0.45206398 -0.098435976 0.071616024 0.4059465 -0.13585591 -0.3390123 -0.064363874 0.05293439
-0.3892845 -0.017464152 0.28279984 -0.22120082 -0.25348285 -0.24047913 0.29033375 -0.0023924287
0.34422642 0.03243034 0.06786559 0.41684258 0.19406667 -0.3850723 0.16434175 0.066833295
-0.29873127 0.3583949 0.25173944 -0.15900145 -0.46164498 0.16995144 -0.3213068 0.1478073
-0.28439304 0.06293681 0.15416573 0.2731058 -0.08531331 0.079105385 -0.26583058 -0.009479311
0.10136443 0.4342956 0.46143603 -0.0109781185 -0.10977896 -0.0857113 -0.350079 -0.22349013
-0.2815168 -0.33908185 0.33110908 0.11739817 -0.20051928 -0.46682975 0.20395797 -0.32104123
-0.48646492 -0.46745914 0.22564755 0.15033686 0.079482585 -0.4427442 0.11907082 -0.4291259
0.04132206 0.099394426 -0.2592058 0.05908867 -0.37485456 0.41566953 -0.0835489 0.2579414
-0.43083945 0.19487327 -0.40466627 0.030532792 0.16023605 -0.055508345 0.25335482 0.3955793
-0.35255408 0.29797983 -0.3136062 -0.30808175 -0.14562874 0.394288 0.35385188 -0.05242081
00000000: f777 d33e 8dba 4d3e 889a ccbe b216 133e
00000010: 7494 b6bd 037c 723e df3e 973e 07ea bdbe
00000020: 84af 2abe da30 de3e 8103 65be b073 24be
00000030: cf87 32be 13ab 0ebe d3bc 84bd c8b5 a63e
00000040: 59e1 8a3e dc8c d2bd f7e2 e53d 1915 bcbe
00000050: 08ac f5bd b621 6ebd ae36 313d 4f13 193e
00000060: 88d9 78bb 23f3 d7bd e658 cf3e 9344 46be
00000070: 3eb9 d83e 6c6d 653e 7005 8b3d c8f6 d7bd
00000080: bfc8 aa3e ba68 3f3d d1b3 93be 42e1 983e
00000090: dc35 073c 6db2 f23e 803d e6be 505b da3d
000000a0: ee74 e7be cd98 c9bd 6cab 923d 38d8 cf3e
000000b0: d01d 0bbe 0593 adbe 35d1 83bd bbd1 583d
000000c0: 4c50 c7be fb10 8fbc 24cb 903e 7882 62be
000000d0: 81c8 81be 2940 76be a0a6 943e 4bca 1cbb
000000e0: 723e b03e add5 043d 1dfd 8a3d 646c d53e
000000f0: 6ab9 463e 3228 c5be 3449 283e e5df 883d
00000100: 4ef3 98be 897f b73e fee3 803e 47d1 22be
00000110: bb5c ecbe c007 2e3e 5382 a4be cc5a 173e
00000120: f79b 91be 04e5 803d 9fdd 1d3e 86d4 8b3e
00000130: bfb8 aebd 0102 a23d f21a 88be 1d4f 1bbc
00000140: 2798 cf3d fe5b de3e 5841 ec3e 91dd 33bc
00000150: cbd3 e0bd 6889 afbd 8e3d b3be 99da 64be
00000160: f822 90be 239c adbe 2187 a93e 746e f03d
00000170: ed54 4dbe 4f04 efbe 5cda 503e 845f a4be
00000180: ee11 f9be ce56 efbe 2710 673e e8f1 193e
00000190: c4c7 a23d 5eaf e2be 67db f33d 64b6 dbbe
000001a0: 5241 293d 4e8f cb3d 9fb6 84be f606 723d
000001b0: f0ec bfbe a3d2 d43e b01b abbd e510 843e
000001c0: fd96 dcbe dc8c 473e 6b30 cfbe e81f fa3c
000001d0: eb14 243e b85c 63bd b9b7 813e 5f89 ca3e
000001e0: f881 b4be d090 983e fe90 a0be e4bc 9dbe
000001f0: b31f 15be 1ee0 c93e 132c b53e 34b7 56bd

dynamic_weights.0.2.weight f4 [5, 128]
-0.09486622 -0.07896327 0.002508645 -0.0011860882 -0.03428411 -0.059741694 -0.10890568 0.045215316
0.032636203 0.018209785 -0.07229804 0.12144843 0.016225815 0.10968315 0.016806835 0.03723444
0.011500782 -0.12657343 0.00035303252 -0.10552788 -0.10067793 -0.09526464 -0.08347448 -0.122065365
0.041714698 -0.07562737 0.0070087025 0.11911313 0.018311892 0.10856786 -0.05660988 -0.13676293
0.015932877 -0.111933686 0.061121713 -0.082413204 0.034504034 0.019351857 0.031206872 -0.065445036
0.106188655 -0.105918795 -0.17679992 -0.09668569 -0.054701637 0.10312913 0.10754419 -0.1376573
0.08820349 0.01719346 -0.07451037 -0.01750381 -0.008832169 -0.10060305 -0.09994016 -0.00846031
-0.04250185 -0.060828567 -0.10697684 -0.11808121 -0.05084324 0.074379586 -0.013898729 -0.1393806
0.017897453 -0.092854366 -0.08376702 0.0340577 0.059903644 -0.002614258 -0.13822165 -0.1160446
-0.048969574 0.046624236 -0.12673436 0.0045357184 -0.08439685 -0.12164267 0.117845915 -0.02827787
-0.014712159 -0.059930686 0.02678279 -0.14247203 -0.012820159 0.023011595 0.058568005 0.051899802
0.046625607 0.086450644 0.028154835 0.040416297 0.036844984 0.017383574 -0.025066193 0.085248664
0.034535397 0.07436359 -0.051322635 -0.0013292382 -0.16464339 -0.05687314 -0.060023725 0.113763265
-0.020559229 -0.044524137 -0.069939405 -0.1310247 -0.11271084 -0.11204928 -0.13922295 -0.108704805
0.02349255 0.0431319 -0.012712071 -0.091022484 -0.029131155 -0.009295644 0.021239704 -0.07800848
-0.0007114522 -0.006257802 -0.04713507 0.077663384 0.003887069 0.0044293203 0.031680346 -0.010343947
-0.13311288 -0.07538202 0.115192786 -0.14207615 0.038401764 -0.10946232 -0.05860514 0.101739645
-0.09575367 -0.12133145 -0.10602961 -0.022563815 0.034181137 0.09921071 0.010596574 -0.12287787
-0.05887382 -0.11996874 -0.09963947 -0.0021446433 0.050137788 0.04826178 -0.015745712 -0.109804854
-0.012051768 -0.099198975 -0.13398409 -0.029553464 0.043596968 0.0018191546 0.008960254 -0.122322425
0.03987657 -0.09221584 0.06547379 -0.13671686 -0.05856306 -0.06704802 0.03086543 -0.0749755
0.019208044 -0.09346543 -0.054098893 -0.12490383 -0.035747636 0.07199307 0.031030918 -0.10875663
0.04415878 0.046913333 -0.1268862 0.031200333 -0.050859425 -0.11568725 -0.063051276 0.010563481
-0.068095684 -0.10829923 0.028130863 0.043347094 -0.020873502 0.089367874 0.026457964 -0.06108391
0.054091375 0.0033601117 -0.13155094 0.04428942 0.04809564 -0.0786083 -0.04725068 -0.09930507
-0.071927026 -0.022312239 -0.07048576 -0.112943746 -0.049208958 0.002544765 0.04410236 0.05133064
-0.05485725 -0.09356332 -0.026744321 -0.12639818 -0.039359543 0.04915007 0.12547599 -0.041469887
-0.10765852 0.055312637 0.03147473 -0.020772751 -0.1126819 0.053887762 -0.04545624 0.058342144
0.12327495 -0.0066066943 -0.07214017 -0.03182067 -0.102687396 0.048348527 -0.009168035 0.035388015
0.036217343 -0.07587766 -0.056336727 -0.10889023 0.052109517 -0.05122501 -0.039508566 -0.006121177
0.09809391 -0.06611103 -0.03307225 -0.07367179 -0.12676701 -0.016183598 -0.07737195 -0.12729348
0.080586776 0.04970278 0.039536644 0.043659586 0.09852639 0.03568371 -0.028381541 0.02660953
00000000: 3949 c2bd 7fb7 a1bd 1468 243b 8476 9bba
00000010: 7f6d 0cbd b5b3 74bd f109 dfbd b233 393d
00000020: 8aad 053d b02c 953c ff10 94bd f4b9 f83d
00000030: 00ec 843c 8fa1 e03d 7dae 893c 2483 183d
00000040: c76d 3c3c 779c 01be 3917 b939 001f d8bd
00000050: 3b30 cebd 1c1a c3bd abf4 aabd 68fd f9bd
00000060: 08dd 2a3d 86e2 9abd 42a9 e53b 96f1 f33d
00000070: d202 963c d458 de3d c3df 67bd 950b 0cbe
00000080: aa85 823c 7d3d e5bd c35a 7a3d 41c8 a8bd
00000090: 1a54 0d3d c987 9e3c 8ea5 ff3c 0c08 86bd
000000a0: 7079 d93d f4eb d8bd 0a0b 35be 2603 c6bd
000000b0: d30e 60bd 5e35 d33d 2140 dc3d 09f6 0cbe
000000c0: 08a4 b43d 4dd9 8c3c e598 98bd 2664 8fbc
000000d0: cdb4 10bc f908 cebd 6dad ccbd 1d9d 0abc
000000e0: 6b16 2ebd 6027 79bd ac16 dbbd 90d4 f1bd
000000f0: 0041 50bd 5354 983d 7fb7 63bc cab9 0ebe
00000100: ae9d 923c 6e2a bebd 0b8e abbd 1680 0b3d
00000110: 865d 753d f953 2bbb fa89 0dbe cba8 edbd
00000120: 5294 48bd 0ef9 3e3d a7c6 01be 5da0 943b
00000130: 41d8 acbd cb1f f9bd 3359 f13d fea6 e7bc
00000140: 440b 71bc e179 75bd 9567 db3c 30e4 11be
00000150: a50b 52bc d082 bc3c 01e5 6f3d e394 543d
00000160: 7efa 3e3d 090d b13d f8a4 e63c 8f8b 253d
00000170: c4ea 163d ff67 8e3c 9e57 cdbc da96 ae3d
00000180: fd74 0d3d f04b 983d af37 52bd d539 aeba
00000190: 4798 28be cff3 68bd 70db 75bd b7fc e83d
000001a0: d46b a8bc f15e 36bd 643c 8fbd 572b 06be
000001b0: f1d4 e6bd 187a e5bd 7690 0ebe a0a0 debd
000001c0: 7373 c03c 13ab 303d 4a46 50bc ff69 babd
000001d0: 76a4 eebc c24c 18bc e3fe ad3c e9c2 9fbd
000001e0: c080 3aba 3f0e cdbb b410 41bd fb0d 9f3d
000001f0: 32be 7e3b d523 913b 40c3 013d a979 29bc
00000200: be4e 08be e361 9abd 32ea eb3d 697c 11be
00000210: 2b4b 1d3d c82d e0bd f10b 70bd e05c d03d
00000220: 801a c4bd a07c f8bd 0d26 d9bd c0d7 b8bc
00000230: 8501 0c3d fc2e cb3d 419d 2d3c 65a7 fbbd
00000240: ad25 71bd 2cb2 f5bd c70f ccbd 258d 0cbb
00000250: 485d 4d3d 25ae 453d 27fd 80bc 5ee1 e0bd
00000260: c774 45bc d528 cbbd 2033 09be 1b1a f2bc
00000270: bc92 323d b370 ee3a 07ce 123c 2e84 fabd
00000280: 9d55 233d a9db bcbd 1f17 863d 81ff 0bbe
00000290: d2df 6fbd 7950 89bd 80d9 fc3c c18c 99bd
000002a0: 305a 9d3c ce6a bfbd cd96 5dbd 94cd ffbd
000002b0: 1d6c 12bd 1a71 933d 8d34 fe3c ccbb debd
000002c0: d6df 343d 3228 403d 75ee 01be d797 ff3c
000002d0: f951 50bd 70ed ecbd 0721 81bd 7312 2d3c
000002e0: c075 8bbd fdcb ddbd b272 e63c b98c 313d
000002f0: e8fe aabc 8106 b73d 5fbe d83c 1f33 7abd
00000300: eb8e 5d3d 5235 5c3b 4ab5 06be d368 353d
00000310: efff 443d 63fd a0bd ee89 41bd 7560 cbbd
00000320: 7a4e 93bd 28c8 b6bc d75a 90bd 0d4f e7bd
00000330: 558f 49bd 12c6 263b ada4 343d 1440 523d
00000340: ffb1 60bd 209e bfbd e816 dbbc 866e 01be
00000350: 7937 21bd 9551 493d c77c 003e 54dc 29bd
00000360: 127c dcbd 818f 623d a6eb 003d 9e2b aabc
00000370: c5c5 e6bd 6ab9 5c3d 5330 3abd 2cf8 6e3d
00000380: 9477 fc3d f87c d8bb 3abe 93bd 6456 02bd
00000390: c54d d2bd 1b09 463d 8735 16bc 06f3 103d
000003a0: a358 143d bf65 9bbd 57c1 66bd d701 dfbd
000003b0: ca70 553d 51d1 51bd bcd3 21bd 2894 c8bb
000003c0: 76e5 c83d 3865 87bd c576 07bd 3ce1 96bd
000003d0: 36cf 01be 7793 84bc 2f75 9ebd 3959 02be
000003e0: ae0a a53d 2495 4b3d 2df1 213d 65d4 323d
000003f0: 34c8 c93d 1529 123d 6880 e8bc 3bfc d93c

dynamic_weights.0.2.bias f4 [5]
-0.113780655 -0.078641824 -0.059985533 -0.0910127 0.0074958545
00000000: d505 e9bd f70e a1bd 64b3 75bd de64 babd
00000010: c99f f53b

dynamic_weights.1.0.weight f4 [128, 4]
0.14787197 0.18175636 0.42622823 -0.13109006 0.27441654 0.11421696 -0.35147652 -0.19299243
-0.22778212 0.37496206 -0.2263915 -0.4213298 -0.07122994 -0.2870598 -0.17107534 -0.41079664
0.54518783 0.46617332 -0.4046005 -0.30658337 0.037613455 -0.30703935 -0.1205503 -0.22577406
-0.20190302 0.4876936 0.41489157 -0.46888942 -0.5432991 -0.34065673 0.21938573 -0.4032553
0.41117245 0.06754941 0.2806929 0.28877667 0.4194532 0.3259549 0.5210875 -0.058047432
-0.1537614 0.27744454 0.51709706 -0.03309487 0.45042628 0.3866194 0.15615085 0.40806156
0.056078725 0.29433793 -0.42041254 0.18473853 0.18267487 0.24295202 0.25457817 -0.17792287
0.40315497 0.5456455 -0.2925347 -0.121687315 0.11069783 0.12914412 -0.30484942 -0.07288315
-0.4917555 -0.41772994 0.31116253 0.32215273 0.3404146 -0.045507774 0.37723675 -0.10327749
0.16275494 0.43006736 0.38116404 0.093436316 -0.057488818 0.03796747 0.26549885 0.37032285
-0.5611711 -0.10993464 -0.48195353 -0.23427334 0.06648958 -0.40385306 -0.26207736 -0.5155205
0.22399698 0.15956888 0.09668156 0.1964569 0.15960622 -0.17304824 0.29456556 -0.5731463
-0.3562814 -0.25426525 0.13959236 -0.3365036 0.09858681 0.06645766 -0.38580012 0.5545332
-0.03498179 0.45999855 0.541223 -0.08913865 -0.15524128 0.47511974 0.035589904 0.411491
0.19825676 0.33891007 -0.3483885 -0.019761119 0.32368076 -0.056532536 -0.47245786 0.023344776
0.094067566 0.0033438972 0.3084115 0.24231146 -0.119386084 0.045605827 -0.1858477 0.3628029
-0.36905652 -0.2948576 -0.06674182 0.29372996 0.35175553 -0.4534679 -0.5099534 0.35650113
-0.22332197 -0.47391155 -0.04813401 0.36568365 0.016710587 0.19898802 -0.3930655 0.49652138
0.4190246 0.44286892 0.3566203 -0.15246001 -0.3993841 0.009821477 0.27040532 -0.21664396
0.052985337 -0.08675184 -0.11818275 0.08354872 0.33663955 0.07681992 0.007625443 0.054718442
0.07234017 -0.17107654 -0.073914684 0.10210312 -0.38998517 0.010690444 -0.4863684 -0.44936568
0.05471012 0.11917569 0.1411206 -0.13831581 0.0053679235 0.0072130645 0.050170217 -0.25092945
0.15455313 0.20291583 0.063250355 0.0066282293 0.28995633 0.38922608 0.04208497 -0.33144814
-0.39659917 -0.06358278 -0.5078284 -0.43005982 -0.052428346 -0.13460547 0.0040291655 0.18143947
0.32484984 0.47790185 -0.21160431 -0.5053448 0.37397215 0.47943443 0.52021414 0.15651156
0.2736112 -0.04457709 -0.4008831 -0.4492082 -0.28177777 0.09575079 -0.11158991 0.15018547
0.29569694 -0.16129318 0.16344799 0.6113264 0.27092534 -0.10912469 -0.16421881 -0.24812213
0.21247378 -0.25068775 0.54383856 0.057082698 -0.35870007 -0.24307792 -0.22831903 -0.41207382
-0.2006473 -0.5249137 0.124891885 -0.20717874 0.19449967 -0.17485161 -0.14991014 -0.15319529
0.06925725 -0.292869 -0.36784694 0.1727879 -0.35935235 0.47323665 0.41659012 0.35741532
0.38643697 -0.24623884 0.15161498 0.18184501 0.49300444 -0.37856403 -0.08333784 0.31683534
0.27558678 -0.4539925 0.52981746 0.3740929 0.48035434 -0.11969736 -0.18584004 0.1993915
00000000: c06b 173e 571e 3a3e 963a da3e 793c 06be
00000010: 5380 8c3e 95ea e93d bbf4 b3be cf9f 45be
00000020: b73f 69be 07fb bf3e 2cd3 67be 8ab8 d7be
00000030: 01e1 91bd 81f9 92be 602e 2fbe f053 d2be
00000040: 6e91 0b3f 45ae ee3e cc27 cfbe 7ff8 9cbe
00000050: 9110 1a3d 4334 9dbe 13e3 f6bd 5131 67be
00000060: aabf 4ebe fab2 f93e ab6c d43e 4612 f0be
00000070: a615 0bbf 8f6a aebe a7a6 603e 7b77 cebe
00000080: 3285 d23e 5857 8a3d fbb6 8f3e 89da 933e
00000090: 92c2 d63e 90e3 a63e fe65 053f 25c3 6dbd
000000a0: a173 1dbe 360d 8e3e 7960 043f 7d8e 07bd
000000b0: 469e e63e faf2 c53e 02e6 1f3e 72ed d03e
000000c0: ceb2 653d 76b3 963e 5040 d7be 192c 3d3e
000000d0: 1f0f 3b3e 6ac8 783e 1258 823e 6a31 36be
000000e0: 546a ce3e 6caf 0b3f 1cc7 95be 3337 f9bd
000000f0: 8bb5 e23d 5b3e 043e 3915 9cbe c343 95bd
00000100: 60c7 fbbe b3e0 d5be b250 9f3e 34f1 a43e
00000110: d34a ae3e 5c66 3abd 2d25 c13e 2683 d3bd
00000120: 3ba9 263e ca31 dc3e ef27 c33e 8a5b bf3d
00000130: 6579 6bbd c783 1b3d 77ef 873e f59a bd3e
00000140: e9a8 0fbf 6a25 e1bd 9dc2 f6be 5ae5 6fbe
00000150: b02b 883d d4c5 cebe 012f 86be 27f9 03bf
00000160: 775f 653e 0666 233e fb00 c63d ff2b 493e
00000170: d06f 233e 8f33 31be 4cd1 963e b7b9 12bf
00000180: 846a b6be 0e2f 82be 4df1 0e3e 334a acbe
00000190: e2e7 c93d f41a 883d 9887 c5be e3f5 0d3f
000001a0: 1149 0fbd ee84 eb3e 978d 0a3f 538e b6bd
000001b0: 92f7 1ebe e542 f33e b8c6 113d f3ae d23e
000001c0: d203 4b3e 9f85 ad3e fa5f b2be 12e2 a1bc
000001d0: 7cb9 a53e a98e 67bd ffe5 f1be 8b3d bf3c
000001e0: 7fa6 c03d 4925 5b3b 1de8 9d3e 7f20 783e
000001f0: b180 f4bd 2dcd 3a3d dc4e 3ebe 4dc1 b93e
00000200: faf4 bcbe 93f7 96be efaf 88bd c663 963e
00000210: 4d19 b43e f22c e8be 4e8c 02bf 5187 b63e
00000220: 84ae 64be 89a4 f2be 2b28 45bd e33a bb3e
00000230: a4e4 883c 84c3 4b3e e23f c9be 0d38 fe3e
00000240: 648a d63e b7bf e23e f096 b63e 7a1e 1cbe
00000250: 137c ccbe 43ea 203c 9172 8a3e ead7 5dbe
00000260: 2707 593d f3aa b1bd cc09 f2bd 971b ab3d
00000270: 055c ac3e c353 9d3d dade f93b 7220 603d
00000280: 1527 943d b02e 2fbe 9560 97bd 711b d13d
00000290: 23ac c7be f926 2f3c 4705 f9be 4213 e6be
000002a0: b817 603d 6212 f43d eb81 103e a9a2 0dbe
000002b0: 68e5 af3b 925b ec3b 497f 4d3d d379 80be
000002c0: 2d43 1e3e 2bc9 4f3e 6789 813d 9e31 d93b
000002d0: 2875 943e a448 c73e 4a61 2c3d 92b3 a9be
000002e0: 0c0f cbbe b037 82bd 0b01 02bf cd30 dcbe
000002f0: 1bbf 56bd 04d6 09be 1707 843b 45cb 393e
00000300: b852 a63e 8daf f43e cdae 58be 475e 01bf
00000310: 4779 bf3e 6e78 f53e c12c 053f 9144 203e
00000320: c416 8c3e 7796 36bd 8d40 cdbe 9efe e5be
00000330: 2d45 90be fd18 c43d 4089 e4bd 38ca 193e
00000340: 9765 973e 0a2a 25be e95e 273e e37f 1c3f
00000350: bab6 8a3e c47c dfbd fa28 28be ba13 7ebe
00000360: ba92 593e 255a 80be 0139 0b3f 8ccf 693d
00000370: 89a7 b7be 6be9 78be 77cc 69be 57fb d2be
00000380: 7c76 4dbe bf60 06bf 51c7 ff3d aa26 54be
00000390: ec2a 473e 4d0c 33be 0b82 19be 3adf 1cbe
000003a0: bfd6 8d3d edf2 95be 6f56 bcbe 50ef 303e
000003b0: 08fd b7be 134c f23e 4d4b d53e 24ff b63e
000003c0: 11db c53e 0926 7cbe f540 1b3e 9435 3a3e
000003d0: 146b fc3e 25d3 c1be 08ad aabd 3e38 a23e
000003e0: b619 8d3e b471 e8be 1ea2 073f 1b89 bf3e
000003f0: 01f1 f53e e423 f5bd da4c 3ebe 492d 4c3e

dynamic_weights.1.0.bias f4 [128]
-0.061275322 0.18285123 0.47490248 -0.3119626 0.31875807 0.5688944 -0.22052145 -0.19604012
-0.031519376 0.0968989 -0.13668154 -0.47130418 0.24307147 0.15643051 -0.18378693 0.14342113
0.2826722 0.109023824 0.086548194 0.2513947 -0.5076469 -0.40382913 0.16327834 -0.31169093
0.5555902 -0.097554065 -0.30205473 -0.27070332 0.011998733 -0.26935628 0.2505949 0.1842393
-0.40523228 0.06861051 0.35685414 0.10469592 -0.38312924 0.20849498 -0.55762106 -0.19383591
0.16697446 -0.45466962 0.1935211 0.32934013 0.47534594 0.22958285 -0.09446709 0.24752444
-0.32548633 -0.049698204 -0.36387116 -0.15952297 -0.3227883 -0.33464852 0.0031461813 0.10267218
-0.33519354 0.52808565 0.39844912 0.46706513 0.028861677 -0.055653315 -0.2901243 -0.115271255
-0.008295806 0.25439712 -0.124150574 0.35019583 0.28638235 0.3425707 0.1766896 -0.3683331
0.41984493 0.076607816 0.44712794 0.4758412 0.053486824 0.27662417 -0.3559961 0.5167739
-0.48671317 0.42185995 -0.119068444 0.5564031 0.055316392 -0.22056183 0.30454078 0.04381698
0.24712034 -0.3318663 -0.2522541 0.021267535 -0.09033696 0.39843634 0.2377531 -0.15580954
0.33905238 0.53876936 -0.25407693 0.3163227 -0.18633302 -0.27147716 -0.50936973 0.038467847
0.45912567 -0.53962845 -0.26155677 0.3596311 -0.22300906 0.29746056 -0.11451579 0.43594837
0.03859755 0.42460743 -0.14094841 -0.19422479 -0.12734607 0.4290804 0.021445239 -0.27635998
0.24262248 0.28781775 -0.15553233 0.08466483 -0.46909797 0.041645005 0.14959991 0.51698726
00000000: d5fb 7abd 5a3d 3b3e 6b26 f33e 90b9 9fbe
00000010: 4234 a33e 10a3 113f 60d0 61be bebe 48be
00000020: 761a 01bd ee72 c63d 3ff6 0bbe c84e f1be
00000030: bae7 783e 522f 203e a432 3cbe fddc 123e
00000040: 69ba 903e e247 df3d 2e40 b13d ceb6 803e
00000050: 26f5 01bf b1c2 cebe 7032 273e f495 9fbe
00000060: 293b 0e3f 6dca c7bd eba6 9abe a099 8abe
00000070: 5596 443c 11e9 89be fa4d 803e 3aa9 3c3e
00000080: 9b7a cfbe ab83 8c3d 96b5 b63e d16a d63d
00000090: 8429 c4be b57f 553e 41c0 0ebf ec7c 46be
000000a0: 5afb 2a3e 75ca e8be 652a 463e 459f a83e
000000b0: 8b60 f33e c417 6b3e f677 c1bd 0c77 7d3e
000000c0: 25a6 a6be 5890 4bbd 524d babe fd59 23be
000000d0: 8244 a5be 0d57 abbe 2a30 4e3b cb45 d23d
000000e0: 7d9e abbe 9f30 073f 8601 cc3e 2923 ef3e
000000f0: 536f ec3c bbf4 63bd 2c8b 94be 5613 ecbd
00000100: 22eb 07bc 5740 823e a842 febd de4c b33e
00000110: b5a0 923e 6d65 af3e 1eee 343e 2896 bcbe
00000120: eaf5 d63e 8fe4 9c3d f4ed e43e 75a1 f33e
00000130: 0015 5b3d afa1 8d3e 1f45 b6be 4b4b 043f
00000140: 7832 f9be 07fe d73e 28da f3bd 6f70 0e3f
00000150: 7193 623d f6da 61be c5ec 9b3e 6f79 333d
00000160: 1d0d 7d3e 61ea a9be 7327 81be 4139 ae3c
00000170: 9602 b9bd d9ff cb3e 8c75 733e 898c 1fbe
00000180: 4698 ad3e caec 093f 5f16 82be 0df5 a13e
00000190: 15ce 3ebe 0eff 8abe 0e66 02bf 7690 1d3d
000001a0: 8512 eb3e 1725 0abf c5ea 85be 9121 b83e
000001b0: 7d5c 64be c04c 983e 4187 eabd a034 df3e
000001c0: 7718 1e3d 2566 d93e c854 10be dde2 46be
000001d0: 0267 02be 6db0 db3e edad af3c 0e7f 8dbe
000001e0: 0772 783e d95c 933e de43 1fbe c164 ad3d
000001f0: 9c2d f0be f493 2a3d b830 193e 4759 043f

dynamic_weights.1.2.weight f4 [4, 128]
-0.07603432 -0.0020404377 -0.0771186 0.0059030536 -0.11521158 -0.025562407 0.025870318 -0.010082588
-0.0036200827 -0.053171266 -0.18203549 -0.026918618 -0.12876263 0.0057126256 -0.06518795 0.04934692
-0.03119092 -0.12669842 0.02828484 -0.059726063 -0.021745212 0.121292576 -0.030488946 0.074133135
-0.13030592 -0.08372465 -0.01436516 -0.09648457 -0.12366135 0.10975522 -0.055342335 -0.13161936
0.101183526 -0.0041303746 -0.07972325 -0.07174123 -0.008828178 -0.06380079 0.1104633 0.04753287
0.019937914 0.029799584 -0.083217874 -0.0983285 -0.111001864 -0.0399766 0.09655674 -0.01879829
-0.023507215 -0.12248589 0.08242812 0.01425071 -0.085624 -0.010269201 -0.02998588 0.059546784
0.01670737 -0.07396877 -0.017585231 -0.027716601 0.016765032 -0.10940247 0.04609143 -0.13056692
-0.10590151 -0.057918068 -0.12778777 0.030551136 -0.052078635 -0.022309605 -0.008410373 -0.033112694
0.040049333 -0.011877134 -0.0026401184 -0.12172481 0.08002926 -0.05431893 0.056232404 0.023208268
-0.00245317 -0.05482028 -0.12427896 -0.008649996 -0.066427715 -0.07589731 -0.04018902 -0.030845584
-0.01509275 0.12402763 0.03421746 0.02827853 -0.09152887 -0.122317605 0.020535525 0.11598609
0.008855318 -0.10958983 -0.070307665 0.044367377 -0.11870234 -0.12531595 0.055988804 0.034652725
-0.074447095 0.016027695 -0.11153419 -0.0854738 0.037978422 0.01746996 0.07480221 -0.105479635
-0.03685515 -0.122268215 -0.1371672 -0.006456274 -0.06791818 -0.115174346 -0.030571342 -0.04661542
0.029423378 0.017658468 -0.16008513 -0.016686823 -0.046553504 0.030165821 0.026351606 -0.12034363
-0.04733341 -0.008975107 -0.042406283 -0.04239984 0.04513408 -0.09668088 -0.005821428 0.09552863
-0.12246103 -0.06623243 -0.12384966 0.050107244 -0.07948296 -0.11786404 -0.12753849 -0.04169255
0.042841114 -0.11342518 -0.09421301 -0.120647594 0.124820314 0.08775839 -0.0026080254 0.11309435
-0.037632782 0.001065164 -0.08928616 -0.022425562 -0.10392996 0.02274997 -0.032395195 -0.15620692
-0.00684358 -0.064907715 0.019560179 -0.0076303096 -0.09770089 -0.027879698 0.0023607414 0.028464243
-0.08192593 -0.013704528 0.011292746 -0.12185507 -0.07041341 -0.0026102164 0.015982313 -0.09614523
0.040752504 -0.054476537 0.1242908 0.011503386 -0.15379913 0.1122522 -0.108797215 -0.025816426
0.08625892 -0.10818759 -0.0282392 -0.10167251 0.030594384 -0.0368639 0.027157735 -0.14651255
-0.018646909 -0.04859273 -0.01708009 -0.05626514 0.050968103 0.060003307 0.004938585 -0.09748792
0.030314138 -0.14180683 0.014425836 0.0063342433 0.087890156 -0.015831316 0.11564241 -0.09504659
0.104874104 -0.01590471 -0.06515331 -0.0070789475 -0.055912286 0.023088552 -0.05998439 0.014421866
0.046136905 0.0328651 -0.02794777 -0.05227654 -0.11322315 -0.11270084 -0.013747047 0.04907882
-0.024399897 -0.12801181 0.0133757265 -0.0466254 -0.04885066 -0.112775564 0.05940376 0.008691769
-0.10793767 0.05229145 -0.11665528 0.031670015 0.018540679 -0.09087192 -0.017956054 -0.048672475
0.09209166 -0.0143598365 0.028540652 0.03639658 -0.045415293 -0.01722916 -0.057823222 -0.047223933
0.032714516 -0.03761814 -0.09841238 -0.1140895 0.08650112 0.038906273 0.050348602 -0.0025498923
00000000: e2b7 9bbd ddb8 05bb 5bf0 9dbd 676e c13b
00000010: 0df4 ebbd 4168 d1bc fded d33c 7031 25bc
00000020: e93e 6dbb 1dca 59bd 8367 3abe 6f84 dcbc
00000030: 5ada 03be fa30 bb3b 4381 85bd ff1f 4a3d
00000040: 1a84 ffbc 3bbd 01be 9cb5 e73c 51a3 74bd
00000050: 0423 b2bc 3e68 f83d f4c3 f9bc 1dd3 973d
00000060: ea6e 05be d477 abbd d95b 6bbc b499 c5bd
00000070: 2942 fdbd 58c7 e03d a5ae 62bd 3ac7 06be
00000080: 4f39 cf3d 1858 87bb f145 a3bd 11ed 92bd
00000090: 10a4 10bc fda9 82bd 953a e23d d4b1 423d
000000a0: d654 a33c 421e f43c 226e aabd 7460 c9bd
000000b0: f254 e3bd 81be 23bd 8abf c53d dffe 99bc
000000c0: 3492 c0bc e2d9 fabd 13d0 a83d cf7b 693c
000000d0: a35b afbd 2740 28bc f3a4 f5bc 54e7 733d
000000e0: e5dd 883c f07c 97bd e70e 90bc ed0d e3bc
000000f0: d256 893c 670e e0bd 5eca 3c3d 56b3 05be
00000100: e4e2 d8bd 7f3b 6dbd ccda 02be 6046 fa3c
00000110: 6850 55bd a2c2 b6bc a9cb 09bc 2da1 07bd
00000120: c50a 243d 5098 42bc d605 2dbb db4a f9bd
00000130: 61e6 a33d 877d 5ebd f353 663d 441f be3c
00000140: 5dc5 20bb 3b8b 60bd f885 febd b6b8 0dbc
00000150: 410b 88bd 0d70 9bbd 3e9d 24bd e1af fcbc
00000160: 9547 77bc 3302 fe3d 9b27 0c3d 60a8 e73c
00000170: 7d73 bbbd a781 fabd 1e3a a83c 1d8a ed3d
00000180: e515 113c a270 e0bd 77fd 8fbd 91ba 353d
00000190: 361a f3bd d352 00be 8454 653d 04f0 0d3d
000001a0: b877 98bd 834c 833c 0a6c e4bd e30c afbd
000001b0: 438f 1b3d 291d 8f3c e731 993d b505 d8bd
000001c0: 6df5 16bd c267 fabd 8f75 0cbe 278f d3bb
000001d0: b018 8bbd 87e0 ebbd c070 fabc d0ef 3ebd
000001e0: 4c09 f13c 7ea8 903c 5bed 23be ceb2 88bc
000001f0: e3ae 3ebd 501e f73c 53df d73c b976 f6bd
00000200: ade0 41bd 540c 13bc 36b2 2dbd 74ab 2dbd
00000210: 83de 383d a000 c6bd adc1 bebb 84a4 c33d
00000220: d9cc fabd dea4 87bd e4a4 fdbd 413d 4d3d
00000230: f6c7 a2bd b462 f1bd 7399 02be cfc5 2abd
00000240: 2a7a 2f3d 764b e8bd c0f2 c0bd 1616 f7bd
00000250: cba1 ff3d acba b33d 68eb 2abb 039e e73d
00000260: d524 1abd f99c 8b3a aadb b6bd d0b5 b7bc
00000270: 3bd9 d4bd 255e ba3c d3b0 04bd b5f4 1fbe
00000280: 1c40 e0bb 56ee 84bd ab3c a03c ad07 fabb
00000290: 6717 c8bd f763 e4bc abb6 1a3b d82d e93c
000002a0: c8c8 a7bd f588 60bc 3605 393c 278f f9bd
000002b0: e834 90bd 2a10 2bbb 57ed 823c cae7 c4bd
000002c0: 19ec 263d ca22 5fbd 2d8c fe3d b378 3c3c
000002d0: 857d 1dbe 7be4 e53d 13d1 debd f87c d3bc
000002e0: 84a8 b03d 7591 ddbd e555 e7bc ad39 d0bd
000002f0: 13a1 fa3c 9afe 16bd e679 de3c 6307 16be
00000300: 67c1 98bc 2c09 47bd 8beb 8bbc 4776 66bd
00000310: eec3 503d 07c6 753d dbd3 a13b bfa7 c7bd
00000320: 5b55 f83c cf35 11be 575a 6c3c 7c8f cf3b
00000330: c1ff b33d adb0 81bc eed5 ec3d c9a7 c2bd
00000340: 3cc8 d63d 984a 82bc 196f 85bd 84f6 e7bb
00000350: 4804 65bd 3424 bd3c 31b2 75bd b149 6c3c
00000360: 0dfa 3c3d 8e9d 063d b9f2 e4bc ed1f 56bd
00000370: 8ae1 e7bd b3cf e6bd 4b3b 61bc df06 493d
00000380: 4be2 c7bc 8715 03be dd25 5b3c 47fa 3ebd
00000390: a117 48bd e0f6 e6bd 5b51 733d ec67 0e3c
000003a0: 6d0e ddbd 8f2f 563d f7e8 eebd 6bb8 013d
000003b0: 9fe2 973c 0f1b babd 9318 93bc ca5c 47bd
000003c0: 8d9a bc3d 8545 6bbc 16ce e93c 9514 153d
000003d0: 6305 3abd 2b24 8dbc 0bd8 6cbd e26d 41bd
000003e0: a8ff 053d 7b15 1abd 6e8c c9bd c1a7 e9bd
000003f0: 8027 b13d 2f5c 1f3d 563a 4e3d 181c 27bb

dynamic_weights.1.2.bias f4 [4]
-0.004588705 -0.12132382 -0.12420527 -0.10299971
00000000: d95c 96bb 9f78 f8bd 555f febd 83f1 d2bd

rnn.weight_ih_l0 f4 [512, 9]
-0.03845186 0.07034427 -0.064917736 -0.03923552 -0.067366004 0.06503424 0.04392485 0.07816056
0.07152699 0.022386864 -0.0019939307 -0.028569045 -0.02653095 0.07017834 0.032917425 -0.06586786
-0.07624371 0.022891324 0.05560332 -0.07250979 0.038587816 0.022355765 0.056866065 -0.0049973754
-0.07325715 0.075760566 0.05048615 -0.026481435 -0.06683431 0.047946256 -0.0003779684 -0.049652144
0.062177718 0.026624331 0.047617543 -0.07075234 0.05271303 -0.052681286 0.019868623 0.05859875
0.050436925 -0.061584875 0.08789998 -0.020694194 -0.004276851 -0.07346473 0.07945202 -0.08387674
0.04782612 -0.004773828 -0.0720698 0.016985456 -0.06614476 0.06723324 0.036758307 0.066186115
-0.021860281 -0.031234792 0.05054517 0.03339191 -0.06470366 0.02849748 0.06741172 -0.03592993
-0.06292874 0.01736439 -0.08153343 0.028326122 0.03435493 -0.01766522 0.046698883 0.051795717
0.08474941 -0.054424286 0.017562982 0.033367336 -0.04257809 0.021114403 -0.030919096 -0.013051333
-0.037027266 -0.07864218 0.031383917 0.01609984 -0.031199848 -0.035257455 -0.0021063671 0.047256667
0.024830142 0.04039319 -0.056722555 0.011521564 0.101694405 -0.065607265 0.04609682 -0.02116981
0.024570338 -0.025362648 0.05848762 0.030131616 0.0065206434 0.06699778 -0.025720589 -0.024136642
-0.006696825 -0.043198977 -0.075617276 -0.013873793 0.03456369 -0.04875307 0.040085144 -0.035424393
0.008860355 0.020067137 -0.079384394 0.004821898 0.019099403 -0.07702957 0.0042356243 0.03895842
-0.08075675 -0.021747295 0.04314374 0.068198755 -0.096190475 -0.054331217 -0.0004833536 -0.070078984
-0.056046344 -0.05861944 -0.022353841 0.09190204 0.07386073 0.024572445 -0.0744236 -0.04689608
-0.003928473 0.04027073 0.012610725 0.081775166 0.01807188 0.07647994 0.056480404 0.027479313
0.068079 -0.044269927 -0.078035496 0.09246801 -0.060525324 0.010994239 0.04192398 -0.022564061
0.011711842 -0.045492854 0.07748605 0.03127467 0.05316635 -0.066608526 -0.04871658 0.022900151
0.036889795 -0.02864548 0.12380626 -0.0053301435 0.12804092 -0.040830936 0.06332546 -0.025477076
0.039158262 0.12134923 0.058892764 -0.018468438 0.0008969208 0.04804602 -0.02255207 -0.013643549
0.038767364 -0.049722556 -0.037314355 -0.09306645 0.06693964 0.036526036 -0.05867235 -0.07420469
0.022928806 -0.06662315 0.07549499 0.08601589 -0.031527944 -0.03441946 -0.021156408 -0.052038606
0.05260123 -0.017712964 -0.022993298 -0.05776989 0.053610228 -0.049467262 -0.025076061 0.056704603
-0.037384648 -0.026952922 0.0629945 -0.07058843 -0.08808692 -0.053124204 0.0062580467 0.03443922
0.06108833 0.06070221 0.07245368 -0.049174108 0.0060370797 0.08504979 -0.051549196 -0.078299165
-0.027844314 0.07950158 -0.077547304 -0.052874934 -0.012580376 -0.005402704 -0.0040567354 -0.062051717
-0.079294965 0.0048821485 0.027440941 -0.031330712 0.024406185 -0.06685468 0.030598616 -0.025909819
0.06749015 0.044105515 0.08480853 -0.08170273 0.059531942 0.07324506 -0.07249287 -0.048975382
0.010550563 0.01289409 0.07048224 0.067285195 0.022652028 0.04044118 0.046891082 0.06471525
0.019704755 -0.05693889 -0.042793553 -0.09100198 0.058764394 0.044628073 0.05931774 -0.06680079
00000000: b37f 1dbd a810 903d 97f3 84bd 6db5 20bd
00000010: 30f7 89bd ac30 853d 8bea 333d a512 a03d
00000020: be7c 923d a864 b73c 9bac 02bb a109 eabc
00000030: 6f57 d9bc a9b9 8f3d 6cd4 063d bbe5 86bd
00000040: aa25 9cbd 9686 bb3c 4fc0 633d 0380 94bd
00000050: 420e 1e3d 7023 b73c 64ec 683d 06c1 a3bb
00000060: d807 96bd 5b28 9b3d 91ca 4e3d 98ef d8bc
00000070: 6de0 88bd 4b63 443d 0f2a c6b9 0c60 4bbd
00000080: 10ae 7e3d 451b da3c 9d0a 433d 9ae6 90bd
00000090: 9ee9 573d 55c8 57bd 86c3 a23c 3e05 703d
000000a0: f396 4e3d 6c40 7cbd e804 b43d df86 a9bc
000000b0: d424 8cbb ad74 96bd beb7 a23d 91c7 abbd
000000c0: 52e5 433d c66d 9cbb 5599 93bd 1525 8b3c
000000d0: e776 87bd 95b1 893d e18f 163d 968c 873d
000000e0: 5514 b3bc 1be0 ffbc 7408 4f3d f5c5 083d
000000f0: 5a83 84bd 8c73 e93c 280f 8a3d 432b 13bd
00000100: c9e0 80bd c43f 8e3c 00fb a6bd 2f0c e83c
00000110: c1b7 0c3d a7b6 90bc 5447 3f3d bf27 543d
00000120: 1991 ad3d 00ec 5ebd 3ee0 8f3c 30ac 083d
00000130: 5d66 2ebd 1df8 ac3c 0b4a fdbc 42d5 55bc
00000140: e7a9 17bd 270f a1bd 6c8c 003d d0e3 833c
00000150: d396 ffbc 1f6a 10bd fa0a 0abb 3590 413d
00000160: 9568 cb3c 5473 253d e955 68bd f1c4 3c3c
00000170: 2845 d03d 1a5d 86bd 05d0 3c3d 4f6c adbc
00000180: bc47 c93c 54c5 cfbc b790 6f3d 94d6 f63c
00000190: 1fab d53b 2236 893d fcb3 d2bc 35ba c5bc
000001a0: 0a71 dbbb 69f1 30bd 3bdd 9abd e84e 63bc
000001b0: a892 0d3d 4db1 47bd 5230 243d 2b19 11bd
000001c0: 062b 113c d663 a43c 4994 a2bd 0301 9e3b
000001d0: 5a76 9c3c aec1 9dbd feca 8a3b dd92 1f3d
000001e0: cc63 a5bd 6227 b2bc 7eb7 303d caab 8b3d
000001f0: 83ff c4bd 698a 5ebd 9f6a fdb9 9285 8fbd
00000200: da90 65bd f01a 70bd 671f b7bc 2337 bc3d
00000210: 4b44 973d 274c c93c 676b 98bd 1b16 40bd
00000220: 6cba 80bb ecf2 243d 379d 4e3c bd79 a73d
00000230: 7b0b 943c 84a1 9c3d ff57 673d 4c1c e13c
00000240: 016d 8b3d 6254 35bd 13d1 9fbd de5f bd3d
00000250: 67e9 77bd 2e21 343c 7bb8 2b3d 44d8 b8bc
00000260: 07e3 3f3c b756 3abd 02b1 9e3d de19 003d
00000270: f5c4 593d 0d6a 88bd 098b 47bd 1999 bb3c
00000280: c119 173d eda9 eabc 238e fd3d 7ca8 aebb
00000290: 291d 033e 573e 27bd c7b0 813d 4db5 d0bc
000002a0: 6a64 203d f285 f83d 8a39 713d 1f4b 97bc
000002b0: 561f 6b3a e7cb 443d 1ebf b8bc 3189 5fbc
000002c0: 87ca 1e3d e1a9 4bbd f0d6 18bd 9f99 bebd
000002d0: a617 893d 539c 153d 6b52 70bd a1f8 97bd
000002e0: 31d5 bb3c b871 88bd 1e9d 9a3d 1929 b03d
000002f0: 7223 01bd 6bfb 0cbd 3450 adbc 6f26 55bd
00000300: 6374 573d c71a 91bc 715c bcbc 1fa0 6cbd
00000310: 6696 5b3d 2f9e 4abd 506c cdbc 1643 683d
00000320: a520 19bd 60cc dcbc 4303 813d ab90 90bd
00000330: ea66 b4bd c498 59bd 4d10 cd3b 2410 0d3d
00000340: c237 7a3d e1a2 783d 9862 943d ca6a 49bd
00000350: b2d2 c53b 962e ae3d 4025 53bd 505b a0bd
00000360: c219 e4bc b9d1 a23d 1fd1 9ebd 6393 58bd
00000370: ec1d 4ebc 2a09 b1bb 5dee 84bb f129 7ebd
00000380: 6665 a2bd 6efa 9f3b d3cb e03c a254 00bd
00000390: 7bef c73c 1beb 88bd f3a9 fa3c d440 d4bc
000003a0: 4738 8a3d fca7 343d 18b0 ad3d c353 a7bd
000003b0: c4d7 733d 8201 963d 2477 94bd 699a 48bd
000003c0: 45dc 2c3c bc41 533c fe58 903d d2cc 893d
000003d0: bf90 b93c a7a5 253d dd10 403d 6e89 843d
000003e0: de6b a13c c138 69bd 4b48 2fbd 3f5f babd
000003f0: efb2 703d edcb 363d 29f7 723d dace 88bd

rnn.weight_hh_l0 f4 [512, 128]
0.028505506 0.05830869 -0.040446155 -0.0030733284 -0.057029426 -0.06066089 -0.0074108858 0.041410625
-0.071108535 0.03473968 -0.05511832 -0.042639267 0.043548837 -0.0504875 -0.014385075 -0.06672654
0.061648417 -0.075474925 -0.01264766 -0.035579816 -0.011663426 0.03837744 0.0570599 -0.011089407
0.047845624 -0.06352199 -0.013559026 0.01631282 -0.05709524 0.022397254 -0.068958 -0.07622022
0.06752381 -0.0012747436 -0.07004159 -0.028786734 0.09111607 0.062799685 0.04304562 0.00149737
-0.006225601 -0.025177615 -0.06203106 -0.012390076 -0.07303261 0.039924465 0.07635622 0.036442474
-0.06094347 0.011228749 -0.020561118 -0.02784793 -0.06839255 -0.0068581495 0.016844641 0.041709147
0.022258172 -0.039646696 0.031124054 0.07076567 -0.029963668 0.0110618295 0.044787243 -0.0024459548
0.05132012 0.10133705 0.055778462 -0.033940095 -0.047103412 -0.0027999938 -0.068634085 -0.04041518
-0.056759242 -0.07804319 0.03602882 -0.052129526 -0.07143784 -0.009784687 -0.03354593 0.00036274598
-0.032967754 0.08266552 -0.079156905 0.00027807037 0.0012802122 0.009716214 -0.091546685 0.064402744
0.06841563 0.021889895 0.06505241 -0.07769499 0.064428955 -0.039737485 -0.083427735 0.08186944
-0.012742932 0.05564296 0.05478188 0.02193567 -0.07855033 -0.017736817 0.00042515725 0.080262594
-0.030158902 -0.063696645 0.052063193 0.034974724 -0.015211863 0.062213622 -0.054278042 -0.045757584
0.06273635 0.029441416 -0.08854943 -0.06362073 0.026845403 0.08389723 -0.06101481 -0.0022721111
0.08106834 0.007219801 -0.016586356 0.09967601 0.078445114 -0.09530199 -0.021861931 0.046777986
-0.06548851 0.07208212 0.06200417 0.015670188 -0.06059946 0.063910864 -0.012970796 0.029985342
-0.04927598 0.06039481 -0.0019892592 0.07994952 0.07597934 0.022372873 -0.07224752 -0.05645919
0.024204649 0.046178155 -0.08966321 -0.04080743 -0.011839713 -0.071180604 -0.016346708 0.06717535
-0.04900522 0.061740305 0.03163556 -0.04582287 0.039910626 0.028360743 0.044520322 -0.016652549
0.019560825 -0.032940786 0.029082343 -0.030209828 -0.03737329 -0.010669234 -0.079078615 0.056740392
-0.07682448 -0.026858767 0.07563983 -0.07318095 -0.035272088 0.0169058 -0.046952035 0.07220304
0.060122978 -0.07892364 -0.052695885 -0.02266002 -0.0073823635 -0.009963733 -0.07589656 0.011458931
0.03016735 -0.04759311 0.0027124814 -0.039023545 -0.08418301 -0.032659028 -0.067704424 0.03558794
0.030498926 0.021511419 0.076876014 -0.0722134 -0.008180073 -0.07056857 -0.05764858 0.016209137
-0.07719452 -0.03580501 0.05235485 -0.015997007 -0.020115279 0.0011418025 -0.07589263 -0.024391703
-0.015224507 0.06348824 0.052541904 -0.0366147 -0.06788654 0.037852194 0.051041927 -0.06135508
0.025814146 0.004324973 -0.027030887 -0.020161374 0.042852443 0.0025772755 0.06460155 0.031190697
0.037327208 0.020151595 0.03935103 -0.078355595 -0.09357569 -0.008115492 -0.092357785 0.004301276
-0.029848477 -0.06364256 -0.07213884 -0.07801745 -0.017200118 0.038245205 0.04031258 0.017501844
-0.023114536 -0.03431134 -0.026627308 0.066016406 0.01322397 -0.069660164 0.012877205 -0.025234513
0.03522495 0.011029959 0.006973548 -0.036907163 0.04046682 -0.0036970458 -0.01736089 -0.051273704
00000000: 6184 e93c 18d5 6e3d deaa 25bd e569 49bb
00000010: b097 69bd 8e77 78bd 04d7 f2bb 309e 293d
00000020: 5aa1 91bd 324b 0e3d bfc3 61bd 83a6 2ebd
00000030: 4460 323d fbcb 4ebd 61af 6bbc eda7 88bd
00000040: 0d83 7c3d 9992 9abd 2238 4fbc 24bc 11bd
00000050: f417 3fbc aa31 1d3d a4b7 693d 58b0 35bc
00000060: c6f9 433d d117 82bd ad26 5ebc 77a2 853c
00000070: b3dc 69bd 727a b73c da39 8dbd 5919 9cbd
00000080: ec49 8a3d 4c15 a7ba f771 8fbd 28d2 ebbc
00000090: 109b ba3d 1f9d 803d 9b50 303d 6643 c43a
000000a0: 2000 ccbb 4941 cebc 4814 7ebd bfff 4abc
000000b0: 1f92 95bd d687 233d a660 9c3d b444 153d
000000c0: dc9f 79bd c9f8 373c ca6f a8bc 5821 e4bc
000000d0: 6511 8cbd 54ba e0bb c6fd 893c 36d7 2a3d
000000e0: c556 b63c 9364 22bd dff7 fe3c 97ed 903d
000000f0: 5e76 f5bc ad3c 353c d472 373d 504c 20bb
00000100: 0c35 523d cd89 cf3d f577 643d c504 0bbd
00000110: 82ef 40bd 1a80 37bb 0790 8cbd 638a 25bd
00000120: 617c 68bd 1cd5 9fbd f592 133d c585 55bd
00000130: 014e 92bd f44f 20bc 7567 09bd f12e be39
00000140: 3209 07bd 8a4c a93d 041d a2bd f9c9 9139
00000150: cbcc a73a c130 1f3c d47c bbbd 96e5 833d
00000160: 7e1d 8c3d 7052 b33c 333a 853d 8d1e 9fbd
00000170: 54f3 833d c6c3 22bd 29dc aabd 2aab a73d
00000180: bbc7 50bc dfe9 633d f762 603d 6fb2 b33c
00000190: ffde a0bd cd4c 91bc a4e7 de39 b760 a43d
000001a0: cd0f f7bc 6373 82bd 3740 553d a841 0f3d
000001b0: 2e3b 79bc b6d3 7e3d a752 5ebd 4e6c 3bbd
000001c0: ea7b 803d 202f f13c 6759 b5bd 964b 82bd
000001d0: e4ea db3c 50d2 ab3d aaea 79bd b3e7 14bb
000001e0: 2807 a63d 1594 ec3b 1ce0 87bc f022 cc3d
000001f0: d5a7 a03d b12d c3bd cb17 b3bc 469a 3f3d
00000200: d71e 86bd ca9f 933d 16f8 7d3d c45e 803c
00000210: 2437 78bd b3e3 823d 7683 54bc d2a3 f53c
00000220: 9cd5 49bd 8c60 773d 3b5e 02bb 93bc a33d
00000230: 0e9b 9b3d 5147 b73c 82f6 93bd c041 67bd
00000240: d448 c63c 4e25 3d3d 58a1 b7bd b125 27bd
00000250: 5bfb 41bc 23c7 91bd 88e9 85bc 3b93 893d
00000260: b3b9 48bd 67e3 7c3d 4a94 013d c3b0 3bbd
00000270: 5379 233d ca54 e83c f15a 363d ed6a 88bc
00000280: 063e a03c ebec 06bd 183e ee3c 9a7a f7bc
00000290: bc14 19bd 03ce 2ebc f8f3 a1bd 9d68 683d
000002a0: 2756 9dbd eb06 dcbc 0ee9 9a3d e5df 95bd
000002b0: 7779 10bd 087e 8a3c c750 40bd 30df 933d
000002c0: 8343 763d b8a2 a1bd a4d7 57bd 82a1 b9bc
000002d0: c1e7 f1bb ed3e 23bc a86f 9bbd 3dbe 3b3c
000002e0: 8521 f73c fef0 42bd e3c3 313b 27d7 1fbd
000002f0: 2468 acbd 79c5 05bd 9ea8 8abd a9c4 113d
00000300: e2d8 f93c b738 b03c 2c71 9d3d 9ee4 93bd
00000310: b705 06bc 4186 90bd eb20 6cbd 06c9 843c
00000320: 2918 9ebd 46a8 12bd 0a72 563d 280c 83bc
00000330: ccc8 a4bc 89a8 953a 986d 9bbd 1cd1 c7bc
00000340: 3670 79bc 1f06 823d 2e36 573d 4cf9 15bd
00000350: 1908 8bbd e70a 1b3d 5711 513d 774f 7bbd
00000360: 3078 d33c 81b8 8d3b e16f ddbc 7729 a5bc
00000370: 0b86 2f3d 82e7 283b d14d 843d a283 ff3c
00000380: 6ae4 183d f514 a53c 8c2e 213d e678 a0bd
00000390: 9da4 bfbd d7f6 04bc 1426 bdbd b8f1 8c3b
000003a0: cb84 f4bc 0857 82bd 87bd 93bd 9dc7 9fbd
000003b0: 43e7 8cbc 01a7 1c3d ce1e 253d 0760 8f3c
000003c0: b25a bdbc 0c8a 0cbd 8321 dabc 9c33 873d
000003d0: 5aa9 583c fda9 8ebd eafa 523c 9cb8 cebc
000003e0: 0a48 103d 00b7 343c 5c82 e43b f72b 17bd
000003f0: 89c0 253d 234a 72bb 6d38 8ebc 6004 52bd
