model/hoist_0.pth (torch, 470886 bytes, 22 tensors)

covid_weight.0.weight f4 [128, 1]
000000 5e cd 83 3f eb f5 12 3f fe a2 ab bf e0 26 e5 bf
       1.0297048 0.5740649 -1.3409116 -1.7902489
000010 89 46 12 be bc 60 35 3e 43 43 a2 be e3 56 27 3f
       -0.1428472 0.17712682 -0.31691942 0.65366954
000020 99 d1 15 be 54 60 9a 3e b1 e7 4a bf 44 13 e7 be
       -0.14630736 0.30151618 -0.79259783 -0.45131886
000030 9f a1 c2 bf 8b 92 99 bf 7e 68 cf be ce 67 c7 be
       -1.5205573 -1.1997846 -0.4050941 -0.38946384
000040 43 2a 9c 3f cc b4 b2 3e cc 19 3a bf d6 99 ac c0
       1.2200397 0.34903562 -0.7269561 -5.393779
000050 51 5c 8c 3e 57 05 4e 3f a5 cd 57 bc 1a d5 0b 3f
       0.27414182 0.804769 -0.013171588 0.5462204
000060 f2 9b 14 bf 9a 8f 9e 3e 78 c4 9b 3f 44 a3 9c bf
       -0.58050454 0.30968934 1.2169333 -1.2237325
000070 d8 b4 91 bf 72 db 01 bf c5 eb 39 bf 41 ff 34 3f
       -1.1383314 -0.5072547 -0.7262538 0.70701987
000080 16 3a 30 bf a2 6d 21 c0 70 db ea be 7a 86 96 bf
       -0.6883863 -2.5223165 -0.45870543 -1.1759789
000090 47 d9 ba c0 5a 0e 5c 3f 43 15 e5 3e 67 2d 41 3f
       -5.839023 0.859594 0.44742784 0.75459903
0000a0 29 b1 0e be 8d 1f 20 c0 1d 8d d2 bd a6 1c 64 bf
       -0.13934769 -2.5019257 -0.102808215 -0.89106214
0000b0 e1 73 48 bf e2 99 a8 bf d4 5e 16 3f 54 a5 f8 3e
       -0.7830182 -1.3171961 0.58738446 0.48563635
0000c0 eb 0f 45 c0 36 de 77 3e 15 53 09 3f 59 ba 65 3f
       -3.0790966 0.2420586 0.536424 0.8973747
0000d0 fc ef b4 3e b3 78 19 3e 97 48 76 3f 60 43 05 c0
       0.35339344 0.1498745 0.96204513 -2.0822372
0000e0 c9 1f b8 bb ae 87 dd bf f3 54 87 c0 19 51 dc bf
       -0.0056190235 -1.7307031 -4.22912 -1.7212249
0000f0 1f 69 32 3f fc 36 e7 3e 36 6a 4d bf 3e 7e 46 3e
       0.6969165 0.45159137 -0.8024019 0.19384095
000100 0b b7 0b 3f 85 22 2d be 45 e4 b3 3e ff 24 49 bc
       0.54576176 -0.169077 0.35135093 -0.012276887
000110 94 1f 15 3f b3 9d 51 3f 3a f0 86 bf 74 fb 49 c0
       0.5825131 0.81881255 -1.0542061 -3.1559725
000120 8b 24 9d 3e 24 30 8d 3f 67 f5 50 3f 61 11 6b 3f
       0.30691943 1.1030316 0.81624454 0.91823393
000130 61 3e 21 3c 43 9b d7 bf bf cd 40 3e 33 8f 57 bf
       0.009841532 -1.6844257 0.18828486 -0.8420288
000140 3e 50 d0 bf 12 75 4f 3f 02 2b 1f 3f 8b 0b ac c0
       -1.6274488 0.8103801 0.62175 -5.376409
000150 5d 5a 95 3e e4 3d 8e bd ad 8f 88 be 8a 93 f7 bf
       0.29170504 -0.069453984 -0.26672116 -1.93419
000160 bf d1 f0 3e ee 1a 63 bf df 8a f5 3d d7 f0 ff 3e
       0.47035024 -0.88712966 0.11989378 0.49988434
000170 d5 eb 81 3f 97 52 17 3e 92 e6 14 c0 72 08 47 bf
       1.0150095 0.147776 -2.326573 -0.7774726
000180 02 78 1a 3f 6c a3 f1 3b be dd 75 bf 08 b9 aa c0
       0.6033937 0.0073742177 -0.96041477 -5.335087
000190 d7 51 7c 3f e7 20 d9 3e fe d0 b5 be ba a3 07 bf
       0.9856238 0.42407915 -0.3551101 -0.529842
0001a0 ba 1c 45 c0 6d 7a 65 3e 8d a6 81 bf 71 d0 88 bf
       -3.0798783 0.22409983 -1.0128952 -1.0688611
0001b0 b2 3e 99 be e9 e8 63 bd 32 d3 2e bf 80 c1 65 3f
       -0.29930645 -0.055642042 -0.6829101 0.8974838
0001c0 be 5b 5f bf 43 19 88 3f ed 3c 39 3f 2c 24 95 bf
       -0.8724936 1.0632709 0.7235859 -1.1651664
0001d0 ed cc 16 be f5 58 b7 3e 8c 6e cd 3e f5 ff 10 3f
       -0.1472661 0.35810056 0.40123403 0.5664056
0001e0 4b 3c 92 3e 64 49 fe bc 97 9c 42 bf 64 7a cc 3e
       0.28561625 -0.031040855 -0.7602019 0.39937127
0001f0 7f 3e e1 bf 0f e8 9d c0 b6 9a df be 3a e1 46 bf
       -1.7597197 -4.9345775 -0.43672723 -0.7768742

covid_weight.0.bias f4 [128]
000000 ac ee 46 bf 18 76 0e bf 38 eb 0e 3d 51 9a 07 3e
       -0.77707934 -0.55648947 0.03489229 0.13242461
000010 d9 a7 ce be 6d 22 01 be b6 47 e5 3e ed ce 5c be
       -0.40362433 -0.12610789 0.44781274 -0.21563311
000020 d0 2b f3 bc 2f 3e df bd 2f ae 20 3d d2 c1 a7 3e
       -0.029683977 -0.109005325 0.039228614 0.3276506
000030 bd 86 31 3f 9e 3d c6 3e 44 01 23 3f c0 64 f9 3e
       0.6934622 0.38718885 0.63673806 0.4870968
000040 7a 8f 76 bf ea b2 45 bf 0a 55 db 3e 73 d6 91 3e
       -0.9631268 -0.77226126 0.42838317 0.28483924
000050 f4 3e ac be ca d5 4e bf b0 f9 da be fc 43 21 bf
       -0.3364178 -0.80794966 -0.4276862 -0.6299436
000060 b3 ab fe 3e e6 eb b7 3e ed e8 d7 3e 21 5e 56 bf
       0.4974037 0.35922164 0.42169896 -0.8373738
000070 89 6e b9 3e b4 c1 24 bf fa ef be bd a2 f6 03 bf
       0.36217144 -0.6435807 -0.09323116 -0.51548207
000080 92 43 21 bd a6 f2 9e 3e d8 2f 25 bf 8f 69 0e bf
       -0.03937108 0.310445 -0.6452613 -0.5562982
000090 aa c2 cc 3e 30 2c 8d be 40 58 e6 be c5 06 4a 3e
       0.39992267 -0.27572775 -0.44989204 0.19729145
0000a0 f4 f6 35 bf bf ce 97 3e 1a c0 0d 3f e6 7f 05 be
       -0.71079946 0.29649922 0.5537125 -0.1303707
0000b0 4b 21 1c 3f e0 1a b9 3d c2 6e 79 bf b8 81 83 3e
       0.609883 0.09038329 -0.9743463 0.25684905
0000c0 88 3c 58 3e 61 0b 82 be 5b 61 b8 3e f9 c7 66 bf
       0.21116841 -0.25399306 0.36011776 -0.90148884
0000d0 58 13 f2 bd 5b df 3c be c2 95 16 3f fe f8 da 3d
       -0.11820096 -0.18444578 0.5882226 0.10692023
0000e0 3e bf 3b 3e b8 53 4f 3e 87 50 4c 3e be 8c 07 3f
       0.18334672 0.2024678 0.19952594 0.5294913
0000f0 7f 5f 43 bf 3c 8e e5 3c c9 54 1a 3f 3c 7f 26 3e
       -0.7631759 0.028021924 0.6028562 0.16259474
000100 31 be 1a bf 8e e0 b2 bc 0b 32 fd be 16 93 54 be
       -0.6044646 -0.021835592 -0.49452242 -0.20759234
000110 05 77 1c bf 11 4b 36 3e fa f2 d3 be 32 33 11 3e
       -0.6111911 0.17802073 -0.41396314 0.14179686
000120 f3 d1 d5 bd 3c fe d8 3e e1 16 53 bf b3 98 26 bf
       -0.10440435 0.42381465 -0.82456785 -0.6507675
000130 ac 3a e6 be 53 39 12 3f 07 93 7c be 78 39 24 3f
       -0.44966638 0.5711872 -0.24665461 0.6415019
000140 7e 09 08 3f 62 21 7a 3b e8 a4 3b be ca e1 86 3e
       0.53139484 0.003816687 -0.18324625 0.26344138
000150 1d 24 d6 bd cf 97 9d bc a5 79 36 bc 4a d6 05 3e
       -0.10456107 -0.019237427 -0.011137401 0.13070026
000160 48 67 3a bf 5b 1f d3 be 08 d3 03 3f 14 5a 0b bf
       -0.72813845 -0.4123486 0.51493883 -0.54434323
000170 b2 b4 87 3d 60 f3 18 3f 1b d0 8d 3e 11 f9 c6 bb
       0.06626262 0.5974636 0.27697834 -0.0060721715
000180 66 4e 3e bf 5e 33 56 3e 55 7f 85 be ca 0d 8a 3e
       -0.74338377 0.20918033 -0.2607371 0.26963645
000190 b6 21 a1 be 69 71 9e be b3 68 8d bc 9f c7 e2 3e
       -0.31471032 -0.309459 -0.017261839 0.44292924
0001a0 c0 b2 b9 3e 0a ba 46 3f 00 a0 cb 3e 9f f1 00 bf
       0.36269188 0.77627623 0.39770508 -0.50368685
0001b0 d0 57 71 3e 45 17 12 bf 13 d8 92 be 98 d1 3c 3e
       0.23568654 -0.57066756 -0.28680477 0.18439329
0001c0 7a 31 83 3e 39 00 90 3e 87 5d 72 be e4 e5 6c bc
       0.25623685 0.2812517 -0.2366849 -0.014459107
0001d0 1d 86 a7 3e 09 1f 2d bf 64 e9 1a 3f c3 4c 13 bf
       0.32719508 -0.6762548 0.60512376 -0.57539004
0001e0 54 05 af bd d2 d2 f8 bc 9d bb be be ab 32 a9 ba
       -0.08545938 -0.030373964 -0.37252513 -0.0012908777
0001f0 12 6b 33 3f 44 60 64 3e b0 51 a6 be b3 fc 81 be
       0.7008525 0.22302347 -0.32484198 -0.25388107

covid_weight.2.weight f4 [1, 128]
000000 9e a6 4e bf 44 8f 2d bd 8d e3 54 3e d1 80 8f 3e
       -0.8072299 -0.042372957 0.20789929 0.28027967
000010 07 d4 23 3d d6 dc eb bc 29 af f9 3a a1 4c a2 bd
       0.039997127 -0.028791826 0.0019049394 -0.07924772
000020 bd 5b 3f bc 36 69 e5 bd 60 39 e0 3d 07 de 26 3c
       -0.011679587 -0.11201708 0.109484434 0.010184771
000030 87 72 1f 3e 94 6d cb 3d 29 87 e9 bc 23 f7 ca 3e
       0.15571032 0.0993301 -0.028506832 0.39641675
000040 55 22 df be 5f aa 3a bd f2 61 1b 3c 88 19 b6 40
       -0.4358088 -0.045572635 0.009483801 5.6906166
000050 bd fe ce 3c 26 12 e9 bd fa d8 06 3d 74 57 28 3c
       0.025267953 -0.11380415 0.03292177 0.010274757
000060 aa 9c af 3e c9 14 cb bd 7b 6d 62 be 29 18 4b 3e
       0.34299213 -0.09916074 -0.22112076 0.19833435
000070 fe 4b a2 3d fe c7 15 3e f8 37 24 3e e2 16 4c bd
       0.079246506 0.14627072 0.16036975 -0.04982651
000080 2d b2 f6 3d 40 c7 83 3f 5e 56 73 3d 0a 83 15 3e
       0.12045703 1.0295181 0.059408538 0.14600769
000090 c8 e9 a9 40 42 6e 29 be 77 5a 85 bd cc 6a 1e be
       5.3097878 -0.16545966 -0.065113954 -0.15470427
0000a0 65 34 c4 3d ab b0 86 3f 2e 5d cf bc 9c 98 d9 3d
       0.09580306 1.0522665 -0.025312986 0.10624811
0000b0 0b 5a b3 3b 5c 59 fc 3d 62 c8 c8 bc c8 ab 7f bd
       0.0054733804 0.123217314 -0.024509612 -0.062419683
0000c0 8e 4a f3 3f 1d 87 54 bc a7 6a 85 bd 9a 39 1d bd
       1.9007127 -0.012971667 -0.06514483 -0.03838501
0000d0 50 98 ab bd 67 43 46 bd fb 82 42 be 1f 80 67 3e
       -0.08378661 -0.048404124 -0.18995278 0.22607468
0000e0 e3 cb b4 bc 78 5e 10 3e 75 a4 76 40 78 0a 81 3e
       -0.022069877 0.14098537 3.8537877 0.252033
0000f0 66 e5 c7 3b be b3 24 bd 8c 76 68 3d 59 da ef bc
       0.0061003445 -0.040210478 0.05675368 -0.029278921
000100 7c e7 84 bd 49 a8 f7 bc 19 22 b2 bc d1 30 03 3d
       -0.06489465 -0.030231612 -0.021744775 0.032028977
000110 02 23 10 bd 6a b5 cf bd 79 7d 36 3e 15 c6 83 40
       -0.035189636 -0.10142024 0.17821302 4.11793
000120 62 c8 a7 bd 74 82 29 be 49 af b8 bd c0 66 2f be
       -0.08192517 -0.1655367 -0.09017808 -0.1712904
000130 87 9b af 3d 6b 63 27 3e 5a fd c0 bb 08 55 63 3d
       0.08574586 0.16346519 -0.005889577 0.055501014
000140 0a 5c 82 3e 71 58 fb bd 97 32 e8 bd c8 81 41 40
       0.25460845 -0.12272728 -0.11337774 3.0235462
000150 b9 64 7c bd cb 3e 53 3c 43 7c 08 3e ea b1 de 3e
       -0.061619494 0.012893389 0.13328652 0.43495113
000160 ea f3 d8 bc 34 61 4e 3e f9 74 24 bd f0 9d 73 3c
       -0.026483495 0.20154268 -0.040150616 0.014869198
000170 70 19 a1 be 1d 45 3a bd 16 e6 56 3e c0 ec 31 3e
       -0.3146472 -0.045476068 0.20986208 0.17375469
000180 24 31 5f bd e4 e3 cc bc 85 71 e3 3d 02 8e 4b 40
       -0.054490224 -0.02501101 0.111056365 3.1805425
000190 00 5b 68 be 7a 53 72 bd b6 b6 be 3d 26 dc ef 3b
       -0.22690964 -0.05916164 0.09312193 0.007319945
0001a0 0a e1 81 3f e0 93 06 be 81 db 0d 3d 9d 08 4e 3e
       1.0146801 -0.13142347 0.034633163 0.20120473
0001b0 05 c7 55 3c 87 7b cc 3d dc fa 2c 3e 10 d2 5e be
       0.013047938 0.099844985 0.1689257 -0.2175982
0001c0 7e ac 80 3d c3 f2 e8 bd 5b af 25 be 9a 7c bb 3e
       0.062829 -0.11374428 -0.16180174 0.366185
0001d0 bd 37 21 bd c2 86 0f 3b 5d 2a 16 be 96 c4 ec bc
       -0.039359797 0.002190039 -0.14664598 -0.028902333
0001e0 40 9c 63 bd 4b 5f 95 3c 6b b1 29 3e 29 c5 8f bd
       -0.055568933 0.018233916 0.16571586 -0.07020027
0001f0 21 ef 3d 3e dd ed 2a 40 c0 a1 bb 3d 9c 55 48 3e
       0.18548252 2.670768 0.09161711 0.19563907

claim_weight.0.weight f4 [128, 20]
000000 65 54 58 3f 7d 2c 87 3e 99 cc e9 3d 8c 36 e6 3c
       0.84503776 0.2640113 0.11415977 0.028102182
000010 ec 9c b7 3e bf 01 12 3e 6b e6 7a 3d 3b eb b4 bc
       0.3586191 0.14258479 0.0612549 -0.022084823
000020 ed 9b 70 be d3 9b 4b bd 45 eb d7 3e 63 b1 71 3e
       -0.23496981 -0.049709152 0.42171684 0.23602824
000030 36 8c 09 3c 7c 02 f3 bd 30 9b b6 3e 11 83 ca 3e
       0.008395245 -0.11865708 0.35665274 0.3955312
000040 bc 65 e6 3c cd a8 af 3e c6 a3 cd 3e 61 08 a9 3e
       0.028124683 0.34308472 0.40164012 0.33014205
000050 1f a5 8b be ab e2 03 3e 4c 24 9f 3d 67 c8 62 be
       -0.27274415 0.12879436 0.07770595 -0.2214676
000060 0c 88 d1 bd 3b 68 a5 be 0f 7c 35 be 55 11 01 3c
       -0.10231027 -0.32306084 -0.17723106 0.007877667
000070 f3 69 c4 3d 16 02 a7 be dc 32 2a be 3e 0c 91 3d
       0.09590521 -0.3261878 -0.16620964 0.07082413
000080 aa 3d 02 be be c2 05 3d 1c 76 c9 3e 63 49 f0 bd
       -0.12718835 0.032656424 0.39347923 -0.117327474
000090 d1 07 90 be 10 dd 74 bd 73 1f 0c bc 19 af 88 bd
       -0.28130963 -0.059781134 -0.00855242 -0.06674022
0000a0 d0 bd 04 bf e4 36 1f be d9 6a 62 be ad 19 64 be
       -0.5185213 -0.15548283 -0.22111072 -0.2227542
0000b0 9a 12 83 bd 6b 49 94 be 50 20 66 3d 51 36 48 3e
       -0.06400032 -0.28962263 0.05618316 0.1955197
0000c0 6d b2 cc 3c aa 7e 3b be d2 13 f2 bd 34 4a 5a 3c
       0.024987424 -0.18310037 -0.11820187 0.0133233555
0000d0 f9 fb 10 be 1d 87 86 3d 16 6b 85 be 1b 83 b2 be
       -0.1415862 0.065687396 -0.26058263 -0.3486565
0000e0 40 43 63 be 2e da e8 bd 07 2e 80 bc e0 13 8a be
       -0.22193623 -0.113697395 -0.015646948 -0.26968288
0000f0 1c f1 fa 3e 7c 68 24 be 70 1b cc bd 24 f1 60 bd
       0.49012077 -0.16055483 -0.09966171 -0.05491747
000100 b7 a8 2f be 83 e7 d6 3d 14 3c 8e 3d 72 58 1a 3e
       -0.17154203 0.10493376 0.06945053 0.15072802
000110 77 10 d3 bd 20 a4 88 be 6a 76 50 3e 48 bd e0 bd
       -0.10305875 -0.26687717 0.20357671 -0.109736025
000120 38 18 44 bc 55 21 b7 be b4 49 b8 bd 4b 07 19 be
       -0.011968665 -0.35767618 -0.08998433 -0.14944188
000130 b6 00 96 be af 2e 78 3e 9b 44 57 be 5f d4 e1 3d
       -0.29297417 0.24236558 -0.21022265 0.11026835
000140 a4 1e c8 be 3a 80 f6 bc 18 81 4a bd 4e ab 7f be
       -0.39085877 -0.03009044 -0.04943952 -0.24967691
000150 3d 8c 77 be d3 08 7b bc 4b b2 fb 3d 3a 6a 5f 3d
       -0.2417459 -0.015321928 0.12289866 0.054544665
000160 95 b9 1c bc 23 df 02 bd 04 2d c7 be ec d7 a3 be
       -0.009565731 -0.03195108 -0.38901532 -0.32000673
000170 0a 02 89 3d d5 2b 4c be 42 a4 a7 bd e0 0a d6 be
       0.06689842 -0.19938596 -0.081856266 -0.41805172
000180 07 aa 09 be bc 71 fc be e8 85 18 bd 75 db 80 be
       -0.13443767 -0.49305522 -0.037237078 -0.25167432
000190 11 67 c9 3d c9 8a 60 3d e0 09 1b 3d 90 85 96 bd
       0.098341115 0.054819856 0.037851214 -0.07349694
0001a0 f1 a1 18 be 25 f6 04 be 0f 22 46 bd 1e e7 db 3c
       -0.14905526 -0.12984522 -0.048372325 0.026843604
0001b0 99 00 75 be 74 3a dc 3d e5 a2 d8 bd 11 6b 7e be
       -0.23926009 0.107533365 -0.10577945 -0.2484553
0001c0 59 9e 51 be d4 f8 eb 3d c5 c8 00 3e d9 a4 92 be
       -0.20470561 0.115220696 0.12576587 -0.28641394
0001d0 0c 25 98 3d 21 80 04 3d ed a1 53 3d 9a 4f e4 3d
       0.07428941 0.032348756 0.051668096 0.11147995
0001e0 97 3e 0f bf c1 21 1f 3d f6 48 65 3e b8 b6 cc bd
       -0.5595488 0.03885055 0.22391114 -0.09995788
0001f0 ba 02 48 bd af ff 15 be a7 ba b7 3d e2 27 cf bd
       -0.048830725 -0.14648317 0.08971148 -0.10115029
000200 ed a6 cd bc 3f e0 96 bc f4 e0 8b bd eb 12 57 be
       -0.02510401 -0.018417476 -0.06830016 -0.2100331
000210 0e 80 bb 3c 59 4a ab 3d 31 fc 40 be 6a f0 ee bd
       0.02288821 0.0836379 -0.18846203 -0.11666949
000220 be b0 41 bd 66 44 62 be 10 50 97 be c9 94 a0 be
       -0.047287695 -0.22096404 -0.2955327 -0.31363514
000230 92 23 2b be b9 15 17 3e 76 d6 e6 bd 03 4f 6c bd
       -0.16712788 0.1475438 -0.11271374 -0.05769254
000240 9b a7 29 be a6 83 2c 3e e8 7a 29 3e c1 85 67 be
       -0.16567843 0.16847095 0.16550791 -0.22609617
000250 c8 52 6e be 59 87 60 be 60 d4 5b bd 8a 90 cc bd
       -0.23273766 -0.21926631 -0.053669333 -0.09988506
000260 6c ad 52 be 37 85 05 be 14 43 d6 bb 7b ee 2f be
       -0.20573968 -0.13039099 -0.006538758 -0.17180817
000270 e9 e8 b0 bb f5 73 d5 bd 53 7d 28 be 84 e0 a5 bc
       -0.005398859 -0.10422508 -0.16454057 -0.020248659
000280 33 10 40 3e c8 de 1a be da 58 3f 3c a2 32 ab bd
       0.1875618 -0.15124047 0.011678899 -0.08359267
000290 eb 43 5f 3e f7 84 58 be 08 73 5b be 07 f3 62 3e
       0.21803252 -0.21144472 -0.214306 0.2216302
0002a0 16 bc 0f be 0a 45 25 3d 85 15 a8 bc 8d f2 3d bd
       -0.14036593 0.040349044 -0.020518074 -0.046373893
0002b0 3b c9 4e bd 3c 72 10 3e 47 59 69 3c ba 92 54 be
       -0.050484877 0.14106077 0.014242477 -0.20759097
0002c0 2b 1a 0a be e4 48 9e bd e3 00 de 3d 06 c9 11 be
       -0.13486545 -0.077287465 0.10840013 -0.1423684
0002d0 82 6e a7 3e 71 cb d7 bd d4 62 1a be ba 08 fb 3d
       0.32701498 -0.1053685 -0.15076762 0.12257524
0002e0 8d 08 8a 3d 04 c0 23 3e c4 77 c7 3d 4c c4 e9 bd
       0.06739912 0.15991217 0.0973964 -0.11414394
0002f0 9a c6 61 be 41 92 02 bd c6 00 2c 3e cb 74 ad bd
       -0.22048417 -0.03187776 0.1679717 -0.08469542
000300 35 10 8a be ea 67 2c 3d 0b 8f 3b 3e ed 48 dd bc
       -0.2696549 0.042091288 0.18316285 -0.027012313
000310 82 45 73 be a7 55 3d be 84 f9 d3 3c 8a 2a 65 3c
       -0.23756984 -0.18489705 0.025875814 0.013987193
000320 19 61 7b be 5c 0a a4 bc 50 77 08 bc 77 51 56 3d
       -0.24548759 -0.020024471 -0.008329228 0.052323785
000330 c6 1a 88 bd aa ee 67 be af 2c bf be f6 90 bc be
       -0.06645732 -0.22649637 -0.37338778 -0.36829346
000340 33 9b 3a 3e 84 cc af bc 13 42 ad 3b 47 07 82 be
       0.18223266 -0.021459825 0.0052874177 -0.25396177
000350 21 16 ef 3d 3f 07 3c 3e 68 58 6e 3e b0 fb b4 be
       0.11674143 0.18362139 0.23275912 -0.35348272
000360 4e 2c 4d be 95 d5 8c be a8 87 d1 3d 01 a9 8f be
       -0.20036432 -0.275067 0.102309525 -0.28058627
000370 64 0d 1f be f1 cd 6d 3d 25 cd 26 be aa c0 2f be
       -0.15532452 0.05805773 -0.16289194 -0.1716334
000380 3a 19 a7 bd 44 a1 a9 bd 7b 64 77 be 48 7e 02 3e
       -0.081591085 -0.08282712 -0.24159424 0.12743485
000390 cc bd 29 be ba 57 55 3c 4f 8d 09 3e 49 63 3b 3d
       -0.16576308 0.013021404 0.13432811 0.045748983
0003a0 80 f3 f0 bc ed b4 03 3e dd 39 12 bd 0b 2e 20 be
       -0.029412985 0.12861986 -0.035699714 -0.15642564
0003b0 db 64 1a 3e 6e e9 86 bb 07 ed 8e be b2 38 00 be
       0.15077536 -0.0041171825 -0.27915213 -0.12521628
0003c0 99 02 1f 3e 1d 5a b3 3e 45 0e 65 3a 88 dc c4 bd
       0.15528335 0.35029688 0.0008737783 -0.096123755
0003d0 20 71 79 3e 43 39 88 3e 3a 86 33 3e 61 80 56 3e
       0.2435956 0.26606187 0.17531672 0.2094741
0003e0 3c e9 f5 bc 97 1a 49 3e a3 bc 4d 3e cd f0 33 bd
       -0.030018441 0.1963905 0.2009149 -0.043930817
0003f0 ca f0 00 be 06 00 0a be 81 b6 7b 3e 27 ed ac bc
       -0.12591854 -0.13476571 0.24581338 -0.021109177

claim_weight.0.bias f4 [128]
000000 ce c6 dc bb 3c f4 c1 bd 8b d6 71 3e b5 96 3c bd
       -0.0067375666 -0.09470412 0.23616998 -0.046042163
000010 ee 66 93 bd 88 15 f6 bd 05 c5 87 bd 3a da bd 3d
       -0.07197367 -0.120158255 -0.06629375 0.09270139
000020 c2 b0 2e be a0 9f 30 3e cb 71 15 be 14 ae 90 bd
       -0.17059615 0.17248392 -0.1459419 -0.07064453
000030 12 88 2c bc 33 eb 0a 3f a8 a1 cd bd 30 36 b8 3d
       -0.010530489 0.54265136 -0.10040599 0.089947104
000040 40 16 82 be 0d f1 87 bc f6 bc 24 bd ee 90 53 3c
       -0.254076 -0.016594434 -0.04021927 0.012912972
000050 c0 44 34 3e 7a 45 6b 3d f6 b4 2c bd c3 c6 ab bc
       0.17604351 0.057439305 -0.042164765 -0.0209688
000060 a9 5c 8a 3c 64 22 06 3e 40 48 70 3d 63 09 37 bd
       0.016889887 0.13099056 0.058662653 -0.044686686
000070 73 42 34 3f 69 13 ed bd de c4 19 bd 85 dd 78 3d
       0.70413893 -0.11575968 -0.037541263 0.060758132
000080 f3 71 04 3c 84 94 99 bc 7e 44 51 3b 95 64 21 3d
       0.008083808 -0.018747576 0.0031931694 0.039402563
000090 8b 73 6a 3f e7 fb 63 bd 3d 28 8d be 4c 92 3f be
       0.91582555 -0.055660155 -0.27569762 -0.18708152
0000a0 a8 e0 44 bc 1c 40 4e bc 2c 5f 1a bd d8 8a 20 bc
       -0.012016453 -0.012588527 -0.03768842 -0.009798728
0000b0 9b 89 2d 3e 31 5f ea 3d 19 ba c4 3f f6 c2 d8 3e
       0.16947024 0.114439376 1.5369292 0.42336243
0000c0 46 0f 47 be c0 c8 03 bd d4 1e 2f bd 73 56 2d 3f
       -0.1943942 -0.032173872 -0.04275401 0.67710036
0000d0 ae 8c b8 bd 1c 49 20 bc 07 bd 81 bd ac 99 cd bd
       -0.090112075 -0.009783056 -0.06334882 -0.10039076
0000e0 db 36 a4 bd df 6e 01 be 75 2a d8 3e 6f b7 37 3e
       -0.08018275 -0.1263995 0.42219892 0.17941068
0000f0 62 2f b7 bd a3 93 58 3d cc 7e 29 bc bf 1d ce 3e
       -0.089445844 0.052875172 -0.010345172 0.4025707
000100 7e 17 9b bd ae 4a a6 3d a3 c6 eb bc 90 ab 1c be
       -0.0757284 0.08119713 -0.02878124 -0.15299821
000110 da 2e f4 3d 43 f0 2c bc e6 82 7f 3d 98 0d 7a 3e
       0.11922999 -0.01055533 0.062380694 0.24419248
000120 0a 00 b6 bd b0 89 cb 3c 1c c1 b2 3e fe d7 28 3f
       -0.08886726 0.024845928 0.34912956 0.6595458
000130 ca a6 22 3f 84 aa 22 3f 05 28 09 bd 1e 5a 74 3f
       0.6353575 0.63541436 -0.03348543 0.9545001
000140 4f 7b ff bd e1 70 18 3e 97 6d 28 be bc 96 89 bc
       -0.12474691 0.1488681 -0.16448055 -0.016795509
000150 ba b2 41 bd d5 3d 3b 3e 25 8d 7d bd 56 fa d4 3b
       -0.047289588 0.18285306 -0.061902184 0.006499569
000160 8b 1e 7d bd 21 0d c5 bd 88 80 24 3f d2 9e 0b be
       -0.061796706 -0.09621645 0.64258623 -0.13634804
000170 21 80 68 bd bc 99 dc bc ef 3d bb bd eb 1f c9 bd
       -0.05676282 -0.026928775 -0.09142672 -0.09820541
000180 a0 fc a5 bd 54 35 29 bd 5d 4d e3 bd a2 ee 50 bd
       -0.08104825 -0.041310623 -0.1109874 -0.051008828
000190 b5 15 fc bd 9a 44 93 3e c8 ba 98 bc 94 26 fc bd
       -0.12308828 0.28763276 -0.018643752 -0.12312046
0001a0 fc 39 20 be 08 da 6d bd e5 63 1c 3f 96 f8 35 3f
       -0.1564712 -0.05806926 0.61089927 0.7108244
0001b0 1f 68 61 3f b2 12 64 3d 49 4a 5f bb d5 6e e1 3e
       0.880495 0.05568189 -0.0034071377 0.4402987
0001c0 95 df 7c 3d cf 10 65 bc 04 f7 ac bc 62 38 1a 3e
       0.061736662 -0.013981058 -0.02111388 0.15060571
0001d0 cc fa 26 be c4 2d 1d 3f 33 36 86 bc f8 7e c3 bd
       -0.16306609 0.6139796 -0.016383266 -0.09545702
0001e0 f5 71 40 3f 01 1b c3 3d 53 9d 09 be 2f a9 34 3e
       0.75173885 0.09526635 -0.1343892 0.17642663
0001f0 75 3b 1b 3f 81 e8 6c 3d 07 ae 0a 3f 8c 11 fc 3b
       0.606376 0.05783892 0.54171795 0.0076925214

claim_weight.2.weight f4 [20, 128]
000000 a7 22 c8 3d 08 50 5c be 99 a7 7c be 4f cd d6 bc
       0.097722344 -0.21514904 -0.24673308 -0.026220946
000010 10 0d 2b be 11 10 01 bd 4f fd 59 be 66 70 8d 3c
       -0.16704202 -0.031509463 -0.21288036 0.01726551
000020 fb c4 bf bd 77 90 d1 3d e1 32 29 be 44 be 46 bd
       -0.09363743 0.102326326 -0.16523315 -0.048521295
000030 b7 49 54 3e e9 54 5b 3f 0c 39 d3 bd 9a 45 07 3b
       0.20731245 0.8567644 -0.10313615 0.002064085
000040 cf 5b 86 bd 7b fe bf bd b7 78 dd ba a2 99 90 3b
       -0.0656048 -0.0937471 -0.0016896938 0.0044128457
000050 ba da 9f bd fd 9d 0e be c4 9c 51 bd bc 2a cf bd
       -0.07805391 -0.13927455 -0.051174894 -0.10115573
000060 4e 30 07 bd e3 e0 9c bc 5d 21 a5 3e a6 0d 0c 3e
       -0.03300505 -0.019150203 0.32252017 0.13677081
000070 f8 31 f5 3c bb b9 8c bd da 7a b9 3c 80 ef 0d 3d
       0.029931054 -0.06871363 0.022641588 0.034652233
000080 27 d0 9a 3d 52 15 0a be 73 82 7d 3c e6 74 e8 bc
       0.07559233 -0.13484696 0.015472996 -0.028376054
000090 7e ec 73 3f 55 a6 24 be 0e 0a 5e 3e 63 38 ea bd
       0.95282733 -0.16079076 0.21683523 -0.11436536
0000a0 3b e1 6d bd 19 e6 52 bd 2b 98 77 3c ce 4d 4e bd
       -0.058076125 -0.05148897 0.015111963 -0.05036717
0000b0 c9 d1 ad 3d c1 af 0d 3e de 42 b5 3e 86 7a 89 3f
       0.08487279 0.13836576 0.35402578 1.0740516
0000c0 d6 e7 06 be fe bd 9d be 81 9a ba 3c 2f 72 af 3f
       -0.13174376 -0.30809015 0.022778751 1.3706721
0000d0 97 08 4a bd ea 22 8f 3d c1 2e be bd 57 05 a2 bd
       -0.0493246 0.06989081 -0.09286261 -0.07911175
0000e0 89 77 42 be c3 0d 9a bd 25 a5 d9 3e 19 3b 9c 3e
       -0.18990912 -0.07522156 0.42508808 0.30513838
0000f0 8a b3 90 bd bf a2 c9 3d da 2a bd 3c 04 77 80 3f
       -0.07065494 0.098454945 0.023091722 1.0036321
000100 66 41 fd bd f5 89 61 bd f4 28 42 3c 69 68 d4 bd
       -0.123659894 -0.055063207 0.011850584 -0.10371477
000110 2d bc f2 3d d0 dd 0e 3e 4e 7e 56 3b 0d 7d bb 3d
       0.11852298 0.13951802 0.0032729092 0.09154711
000120 d9 94 d9 3d 52 de d6 3d b9 f3 11 3d 7e fe 8a 3f
       0.106240936 0.10491623 0.035632823 1.0858915
000130 f9 9a d1 3f a4 9a d0 3e 6d ef 46 3d 00 02 8d 3f
       1.6375419 0.4074298 0.048568178 1.1016235
000140 e9 0d 67 be 8c 65 45 3c f1 ba bc bd 13 65 0d bb
       -0.225639 0.012048136 -0.09215344 -0.0021575138
000150 25 a9 ca bd 4a ce 20 3e f6 c2 0b be 80 f0 f9 ba
       -0.09895543 0.15703693 -0.1364859 -0.0019068867
000160 13 87 c3 bc 7e 6a b9 bd a2 a1 d2 3e d2 e2 67 be
       -0.02386812 -0.09053515 0.4113894 -0.22645119
000170 b1 87 38 3e d9 61 43 bd f3 a4 cb bd 56 34 46 bd
       0.18020512 -0.047700737 -0.09943571 -0.048389755
000180 cb 26 8c bc 62 2b 14 be d2 c4 49 be 21 8a cd 3d
       -0.017108342 -0.14469674 -0.19703987 0.100361116
000190 52 cd 40 be 6b 4c 9d 3d 58 f9 f4 bd 68 82 81 bd
       -0.18828323 0.07680591 -0.11961621 -0.06323701
0001a0 93 6b 84 3d e0 cc 9a bc 25 20 4e 3f 77 72 5e 3f
       0.06465831 -0.01889652 0.805178 0.8689341
0001b0 0b 42 d1 3f 98 a1 c1 bd c2 e5 2b bd b8 84 64 3f
       1.634828 -0.0945465 -0.04196716 0.8926501
0001c0 b0 59 03 3d 5c bc 4e 3d 2c bc 00 be 76 dc c7 3c
       0.032067955 0.050472602 -0.12571782 0.024397116
0001d0 af d9 65 be 8b fc 69 3f 30 f4 86 be a6 31 a6 3d
       -0.22446321 0.91400975 -0.26358175 0.081149384
0001e0 1b 1d b6 3f 77 ee ff bb bd b2 67 3d 4a 74 bf 3e
       1.4227632 -0.0078104096 0.056566942 0.3739341
0001f0 98 31 88 3f 51 2d 5c bd 16 d6 f0 3e 42 c1 9b bd
       1.0640135 -0.053754155 0.47038335 -0.076052204
000200 d2 ad 12 bf e0 90 90 bd 25 f6 9e be d2 e3 63 be
       -0.5729648 -0.07058883 -0.31047168 -0.22254875
000210 d6 ce 88 3e f6 93 24 bd 10 e4 7e 3e 53 b2 70 3c
       0.26720303 -0.04018017 0.24891686 0.014690953
000220 12 d3 c1 3d 1c 20 a9 bc 35 bc 7d 3c cb 88 b5 bd
       0.094640866 -0.020645194 0.015486767 -0.08863982
000230 a8 6a 02 bf 50 dd e0 be e2 eb e7 bd e2 00 06 3e
       -0.50943995 -0.43918848 -0.11324288 0.13086274
000240 ea 3b cf 3c 78 ff 5b bb 1b c3 07 bd 91 62 ca bd
       0.025297124 -0.003356902 -0.03314505 -0.09882081
000250 98 33 84 3c bd 06 88 3b 7e 68 11 bd 1f 06 07 be
       0.016137883 0.004151194 -0.035500042 -0.13185929
000260 3b 3d d4 bd 13 97 9a bd 83 b7 6b 3e 25 f2 a4 be
       -0.10363241 -0.07548346 0.23019223 -0.32215992
000270 10 ad 83 3d 4b 9d 1a bb 16 32 98 be 67 51 bf 3b
       0.064294934 -0.002359229 -0.29725713 0.0058385613
000280 28 03 f0 be f3 75 e6 bc 9c a9 8a bd 99 96 37 bd
       -0.46877408 -0.028132414 -0.06770632 -0.044821355
000290 bb 2f d9 3f 8a 80 92 3c b6 bf 24 3e 81 a0 d3 3d
       1.6967691 0.017883558 0.16088757 0.10333348
0002a0 f3 22 da bd 63 6a 3e 3e 6b 2a 98 be 12 d5 6c bb
       -0.10651197 0.18595271 -0.29719862 -0.0036137742
0002b0 bc aa 6a be de ed 12 3d 21 22 04 41 38 6e 01 bf
       -0.22916692 0.03587138 8.258332 -0.50558805
0002c0 0c 3f 8e bc f3 f7 8a 3d 75 43 e5 be 42 85 dc 3f
       -0.017364047 0.06785574 -0.44778028 1.7228167
0002d0 1b b7 bb be e6 11 97 be 26 72 3b be 59 b7 29 3c
       -0.36663136 -0.29505843 -0.18305263 0.010358655
0002e0 e2 19 39 be bf 60 8f be 62 2d 7b be cc 16 8a 3d
       -0.1807628 -0.280035 -0.24529031 0.067426294
0002f0 31 ad a2 be e4 9c bf be d8 07 ee bd 1e fe a4 be
       -0.3177276 -0.37424386 -0.1162259 -0.32225126
000300 b4 7d 18 bc b2 c5 0c be b4 71 a6 3e 1b 0a 0c be
       -0.009307314 -0.1374729 0.32508624 -0.1367573
000310 08 e5 12 3c f4 6b 25 bf 4d 6e 56 bd b0 89 c9 bd
       0.008965738 -0.6461785 -0.052351285 -0.09840715
000320 4c 76 ca be 94 4b 31 be c9 77 62 be 09 c2 b0 3f
       -0.39543378 -0.17313987 -0.22116007 1.3809215
000330 37 40 d5 3f 40 b6 82 be 81 bc dc be 4e ee 16 40
       1.6660222 -0.2552967 -0.43112567 2.358295
000340 8a a1 8e 3d 5e df db bd f9 3b d0 3c 00 4e fc bd
       0.06964405 -0.10735963 0.025419222 -0.12319565
000350 9b c0 93 bd 82 52 8c 3d ff b2 c0 bd 0e f7 95 bb
       -0.07214471 0.068516746 -0.09409141 -0.0045765704
000360 2f 69 95 be 8a 59 dd bd b9 4c 2d bd b6 29 1a 3d
       -0.2918181 -0.10808094 -0.042309497 0.037637435
000370 9c 1e e8 be c0 98 92 3c 3f 82 3e be 23 aa 2c 3a
       -0.45335853 0.017895103 -0.18604372 0.00065866316
000380 59 f3 8a bd e7 15 27 3e 17 8d d7 3e 88 50 fb be
       -0.06784696 0.16316949 0.4209983 -0.49084878
000390 df e4 19 be db 32 a5 be 41 72 c3 bd 13 54 3c bc
       -0.15028714 -0.32265362 -0.095432766 -0.011494654
0003a0 77 98 4b 3e 3f 71 37 bd e0 a3 d4 3e 47 df f2 3f
       0.1988238 -0.044785734 0.41531277 1.8974389
0003b0 fb df 1a 40 c3 c6 92 bd 59 33 bf 3c 0a a5 e5 be
       2.4199207 -0.07166817 0.023339914 -0.44852477
0003c0 12 44 06 3d 25 d2 4d be 57 72 4c 3e a3 00 df bd
       0.03277976 -0.20099695 0.19965492 -0.10888793
0003d0 51 77 8e 3e e8 55 a9 3f 74 99 3d be c4 e2 9b bd
       0.27825406 1.3229342 -0.18515569 -0.076116115
0003e0 d9 96 0e 40 c2 33 eb bb ba bc 1d 3e 55 fc 73 3e
       2.227957 -0.007177801 0.15404025 0.23826726
0003f0 7a 82 53 3f ad d4 0c bd d4 2f a0 bd 21 cf ce bd
       0.82620966 -0.03438251 -0.078216225 -0.100981005

claim_weight.2.bias f4 [20]
000000 b3 44 82 3e 71 46 42 be 38 33 b1 bd 27 32 35 be
       0.25443038 -0.18972184 -0.08652347 -0.17694913
000010 ea a7 43 be ca 4c ec bd 70 e8 05 be 2e ce 42 be
       -0.19107023 -0.11538084 -0.13076949 -0.19023964
000020 39 a6 04 be 80 ae 10 be d0 54 0d be f2 a5 2d be
       -0.12954034 -0.14129066 -0.13801885 -0.16957834
000030 f7 49 b2 bd 97 c9 8d 3d a0 74 dd bc 16 aa 4e be
       -0.08705514 0.06923216 -0.02703315 -0.2018207
000040 24 eb 18 be 92 f5 0c bc ce 63 3e be f9 89 c6 bd
       -0.14933449 -0.00860347 -0.1859276 -0.09694285

hos_weight.0.weight f4 [128, 4]
000000 7a be 5d 3e 62 71 fd b9 f0 75 4f bd 55 6b 87 3e
       0.21654692 -0.00048340397 -0.050649583 0.26449075
000010 1c c9 c6 3e 1e 3e 2c bc 64 07 e3 be b6 7f 43 be
       0.3882531 -0.010512857 -0.44341576 -0.19091687
000020 9e 15 99 3e ef 16 52 3d 13 8b c0 3e ab d3 31 be
       0.29899305 0.051291402 0.37606105 -0.17365901
000030 82 dd 26 bf 34 e6 c8 bf a5 04 82 be c6 6f b2 bf
       -0.65181744 -1.5695252 -0.25394168 -1.394036
000040 5b 05 a4 3e c3 ca 1b 3e 07 97 e9 bb 74 de 1b 3f
       0.32035336 0.15214066 -0.0071285996 0.6088631
000050 ec 8e 81 3e dd d0 33 bf 60 81 1d bf 0e cb de be
       0.25304353 -0.70240575 -0.61525536 -0.43514293
000060 c5 79 41 c0 28 89 39 c0 43 af c6 bf 08 90 dc bf
       -3.0230572 -2.8989964 -1.5522236 -1.7231455
000070 b4 3b 07 3f d2 23 18 3f 18 29 25 be ee 6d 4b 3e
       0.52825475 0.5942966 -0.16128957 0.19866154
000080 9e e8 1f 3d 59 05 75 be 1d 6d b9 be 40 c0 56 be
       0.0390402 -0.23927821 -0.3621606 -0.20971775
000090 e0 a2 66 3e ed 60 0b 3f 7c 4b e5 bd 1f 71 a7 be
       0.2252307 0.5444477 -0.11196038 -0.32703492
0000a0 17 44 c4 3e fb ef 02 3e f2 81 cb 3e e5 f4 0f 3f
       0.38333198 0.12786858 0.39747578 0.56233054
0000b0 41 87 fb 3d ee 74 cd bb 3e 2c 84 3e f8 bc 8e be
       0.12281657 -0.0062700426 0.25815004 -0.27878547
0000c0 7b 54 1e c0 aa c7 77 c0 30 6c 2c bf cb e7 25 c0
       -2.4739063 -3.8715615 -0.6735258 -2.5922725
0000d0 33 27 9c be 92 2d d6 bd 17 ea f7 bd 37 77 7c bd
       -0.30498657 -0.104579106 -0.12105196 -0.06163713
0000e0 4d 2e 5b c0 cc 41 7b c0 77 7d 05 c0 0a 22 38 c0
       -3.424701 -3.925891 -2.0857828 -2.8770776
0000f0 1e d2 b3 3e bb c8 bc be 6e c9 ee bb 4f 06 99 be
       0.35121244 -0.36871895 -0.007287196 -0.29887626
000100 15 08 f8 3e 3e 59 d2 3d 85 5b d2 3d 8f ca 69 3e
       0.48443666 0.10270928 0.10271362 0.22831176
000110 a4 8d e5 be f7 06 41 bf dc e7 3b 3d 0d 38 08 bf
       -0.44834626 -0.7540125 0.045875415 -0.53210527
000120 4a f7 4f 3e d4 1e 0d 3f cc 9d 3a be f2 77 00 3e
       0.20309177 0.55125165 -0.18224257 0.12545756
000130 32 3a 7f 3e 43 8a c7 3d c6 af 80 bc 55 2d 70 be
       0.24924543 0.09743168 -0.015708815 -0.23454793
000140 b8 b6 be be b6 f5 dd be 4a e1 d6 3e 40 fa 9c be
       -0.37248778 -0.43351525 0.41968757 -0.30659676
000150 47 26 05 3f d5 39 51 3f 7c 78 b1 be 96 41 00 3f
       0.5201153 0.8172887 -0.34662235 0.50100076
000160 7c 03 70 3e 1a 43 46 be f1 93 0d bb 06 0b 0b 3d
       0.23438829 -0.19361535 -0.0021603073 0.03394606
000170 d8 61 30 3e 4f 67 81 3f 3e f8 6f be a7 23 23 3f
       0.17224824 1.0109652 -0.2343454 0.63726276
000180 bb 07 4d 3e 8d b6 e0 be d6 17 9a 3e 30 aa 0b bd
       0.2002248 -0.43889275 0.3009631 -0.03409785
000190 1c b5 be 3e 17 16 d5 3e 28 7a fc be af 78 c0 be
       0.3724755 0.41618416 -0.49311948 -0.37592074
0001a0 6e 4c 90 3d 36 41 9d 3e 37 72 52 3d 28 d0 ae be
       0.07045828 0.30713814 0.051378455 -0.34143186
0001b0 d1 fb e6 3d 2f 16 fb bd e3 ab 1d 3c 59 50 c9 3e
       0.11278499 -0.122600906 0.0096235005 0.39319113
0001c0 8d 74 17 be d3 b8 b1 3e a2 b1 8d bc 05 f0 58 be
       -0.14790554 0.34711322 -0.017296616 -0.2118531
0001d0 1d 10 ec bb ff 67 03 3e ba 18 59 3e 77 2c ad be
       -0.0072040693 0.1283264 0.21200839 -0.33822986
0001e0 30 e1 90 3e 52 38 dc be bd af 08 bf e2 ef b9 be
       0.28296804 -0.4301172 -0.53393155 -0.3631583
0001f0 0f 8c e8 be e6 9f c8 3d ff ee 8e 3d 09 a9 ce 3b
       -0.45419356 0.09796123 0.06979179 0.0063067717
000200 60 b8 a6 be b2 f6 36 be 3c ea 2e 3e 5c 23 c2 be
       -0.32562542 -0.17867544 0.17081541 -0.37917602
000210 f7 ac 4f bd 6a f4 98 3d 81 88 d5 be 9f 3b 69 be
       -0.05070206 0.07468493 -0.41705707 -0.2277665
000220 7e 21 a0 bd 75 3a a4 3e 17 a4 7d 3e fd 7c ea be
       -0.07818888 0.3207585 0.24769627 -0.45798483
000230 cf 85 ce 3e fd d7 6b 3d 8b 44 9b bd 97 e6 23 3d
       0.40336463 0.05757903 -0.07581433 0.04001483
000240 7e 44 60 bc f2 57 83 3f f1 4c 16 3e 71 48 cc 3e
       -0.013688205 1.0261214 0.14677788 0.39899018
000250 5c 27 12 be d0 74 4b 3d 17 bf 71 be 24 0b 07 be
       -0.14272827 0.049671948 -0.23608051 -0.13187844
000260 f4 ac 9c 3e a8 9c 2b be 83 ea 12 bd 6a 87 02 bc
       0.30600703 -0.16758978 -0.03586818 -0.007966856
000270 15 0b 28 3e 3f 4f be be 83 f2 e4 3a 18 11 52 be
       0.16410477 -0.37169835 0.0017467294 -0.20514333
000280 97 6a b2 3e 0b 35 5b be 97 c9 e1 be 99 fb 8a be
       0.34846947 -0.21406953 -0.44099113 -0.2714508
000290 fe b3 48 3e 5e 4b 03 3e c2 11 58 bd 4e 8b 7c 3e
       0.19599912 0.12821719 -0.05275131 0.24662516
0002a0 33 ad 3d 3e 27 be 95 be 39 08 64 be 80 2b 0f bf
       0.18523102 -0.29246637 -0.22268762 -0.5592575
0002b0 fb 25 94 3e 15 08 78 3f 7d 10 98 be bc 66 1a 3d
       0.28935227 0.9688733 -0.2970008 0.03769563
0002c0 87 6e f1 bc 3b 0e 0a be 4a 53 8a 3e 70 00 cd bd
       -0.029471649 -0.13481991 0.2701667 -0.10009849
0002d0 e8 6f 6b bd 5f b6 84 bf 17 cb 50 3e 6e 3f 9f be
       -0.05747977 -1.0368155 0.20389973 -0.3110308
0002e0 d4 cb 33 3e d2 40 56 3f d7 dc 3b 3e c2 9f 9f 3e
       0.17558223 0.8369266 0.18345962 0.31176573
0002f0 81 03 52 bd ba 84 18 bd eb 27 f0 3e fb e3 22 3f
       -0.051272873 -0.037235953 0.46905455 0.6362912
000300 6c 7b 85 3d 93 3b ac 3f af 3a 9c 3e 17 50 2b 3f
       0.065176815 1.3455681 0.30513522 0.6691908
000310 8d 3c 54 3e c0 00 48 3e af 78 03 be bd 8d 46 3d
       0.20726223 0.19531536 -0.12839006 0.048475016
000320 c9 ea 1d 3f 23 68 d0 bd 13 a0 bf 3e 0f bc f8 bd
       0.6168638 -0.101761125 0.37426814 -0.12145244
000330 a3 ed 34 3c d1 bf fd 3e b7 e4 92 3e 0e 8b df 3e
       0.011042985 0.49560407 0.2869012 0.43660778
000340 4a 27 99 3d 59 bb 12 be 14 3a 9f 3e b2 fa a9 3e
       0.07478197 -0.1432928 0.31098998 0.33199078
000350 99 96 da 3e 35 82 02 bf 6c 64 8a be 5e 4f 06 bf
       0.42693022 -0.5097993 -0.2702974 -0.52464855
000360 b6 aa 31 be 4c de 0b 3f e0 be 12 bf e1 12 46 3e
       -0.17350277 0.54636073 -0.573225 0.19343139
000370 f2 b7 e1 bc 5f 85 36 bf 85 3f f4 bc c8 de 26 be
       -0.027553532 -0.7129726 -0.029815445 -0.16295922
000380 ec f7 88 be bd 1a 03 bf b8 54 7a 3e 76 7e 6a be
       -0.2675165 -0.51212674 0.2444638 -0.22899804
000390 6d 57 97 be f6 26 f5 be 5f ed 5e be 49 89 eb be
       -0.29558888 -0.47881287 -0.21770237 -0.46003178
0003a0 65 a0 6c bf 6b f2 8b bf 7e 6a 07 bf e0 8d c6 bf
       -0.9243224 -1.0933355 -0.5289687 -1.5512047
0003b0 0b da 9b bf fc a8 d0 bf 5e be 4b bf af 50 cb be
       -1.2175916 -1.630157 -0.7958735 -0.39709994
0003c0 50 3e bb 3e 90 fc 7f be 60 c9 a4 bd d1 e1 0a 3f
       0.36570978 -0.24998689 -0.08046222 0.5425082
0003d0 d8 ba 2a be ba c9 26 bf a0 b1 ac 3e cd 6c c6 bd
       -0.16672838 -0.6515156 0.33729267 -0.09688721
0003e0 6e c8 7f 3d cb 8f 0d 3e 24 13 80 be 1d d2 9f be
       0.062447004 0.13824384 -0.25014603 -0.3121499
0003f0 69 7e 85 3e 1f b3 eb be 7a 2b 31 be 61 a2 ea 3d
       0.26073006 -0.46035096 -0.17301741 0.114567526

hos_weight.0.bias f4 [128]
000000 5a 6b f6 be 48 c9 43 bd 26 a8 fe be 51 a7 0c 3f
       -0.48128778 -0.04779938 -0.49737662 0.54942805
000010 b4 f1 1b bf 2f ba b0 3d bd 7f 46 3f f7 4a bb 3c
       -0.60915685 0.08629262 0.77538663 0.022862894
000020 fe 5e 29 be 3f 0e b6 be 6c 78 b5 3d 08 98 86 be
       -0.16540143 -0.35557744 0.08860859 -0.26287866
000030 14 c6 04 3f 06 3b 28 bd 92 5b 3b 3f aa 0b 88 be
       0.51864743 -0.041071914 0.731866 -0.265714
000040 22 e3 c6 3e bf 1e 06 be 4a ba c5 3d fb ff eb bd
       0.38845164 -0.13097666 0.096546724 -0.11523434
000050 76 81 a2 be 1f 78 42 3d d9 57 4f be a1 b2 f5 3b
       -0.31739396 0.047477838 -0.20248355 0.007498101
000060 10 5a ad be 6b 0c df bd 9d 78 8b be d3 9e 96 3e
       -0.33857775 -0.108910404 -0.27240458 0.29418048
000070 20 4a 63 3e 57 de 56 be cd c8 72 3e 05 90 0d be
       0.22196245 -0.20983253 0.23709412 -0.1382447
000080 1d 46 94 be e7 ea a0 3d 50 b7 ae 3d 21 18 9b 3e
       -0.28959742 0.07857304 0.08531058 0.30291846
000090 7b 1b 15 3d d6 75 a3 be d0 06 bd 3e f9 ed f5 bc
       0.03640316 -0.3192584 0.3691926 -0.0300207
0000a0 21 5f 5d 3d b6 6a 1e be 12 51 80 be 63 c9 da 3d
       0.0540458 -0.15470394 -0.25061852 0.10682943
0000b0 2f ba 10 be 68 36 8c be 1a 11 89 3e ca 11 24 bf
       -0.14133523 -0.2738526 0.2677086 -0.64089644
0000c0 86 4c fd 3c e5 97 45 be 82 81 66 be 28 a9 1f bf
       0.030920278 -0.19296224 -0.22510341 -0.62367487
0000d0 d0 86 c5 be 21 f9 0b be d0 82 30 3e 30 dd 38 3e
       -0.38579416 -0.13669254 0.17237401 0.18053126
0000e0 85 0b b8 3e ab 44 84 3d fa 66 48 3e 8a cf df 3e
       0.3594629 0.0645841 0.19570532 0.43713027
0000f0 87 40 c3 be 13 da 46 be fd fd 89 be 27 53 e6 3d
       -0.38135168 -0.19419126 -0.2695159 0.11246329
000100 a8 7e 09 be d9 ac 9e bc 61 62 1f 3e a0 86 41 bc
       -0.13427222 -0.01936953 0.15564872 -0.011811882
000110 f4 f7 cd 3d b6 f3 a1 bd 4e 96 a7 3c 66 49 3a 3c
       0.10057059 -0.07907812 0.020457413 0.011370039
000120 64 06 6a 3e 7a af 08 be cf 2c 00 bf 5b 67 3d 3e
       0.22854 -0.13348189 -0.5006837 0.18496458
000130 e4 33 33 bf 6b c3 a5 3e ea c5 a9 bd 7f 45 7c bc
       -0.70001054 0.32375655 -0.08289702 -0.015397429
000140 56 8e 9e 3d c2 cb 2f 3d 68 8d 25 3d a3 68 8f be
       0.07741992 0.042918928 0.04041806 -0.2800952
000150 9f df 67 3e 9a 1c 32 3e a7 fb f8 3e ac eb 4e bb
       0.22643898 0.17393723 0.48629496 -0.0031573577
000160 70 1e f4 3c e7 67 80 be 33 57 d2 be 9e c7 a3 bd
       0.02979967 -0.2507927 -0.41082153 -0.07997058
000170 ef 59 04 bf 29 73 a3 3c d6 b7 eb 3d 5e ec 3b 3e
       -0.5169973 0.019952374 0.11509673 0.18351886
000180 11 93 10 bf 4c 82 35 be 55 a4 b6 3e f0 b6 77 be
       -0.56474406 -0.17725486 0.3567225 -0.24190879
000190 b9 1b 06 bd f5 8e 14 3d bb 57 7c 3e 9d 43 9b 3e
       -0.032741282 0.036269147 0.24642842 0.30325022
0001a0 65 ce 4d 3c 59 0f 8c 3e aa 99 a4 bd 02 33 b0 3d
       0.012561415 0.2735546 -0.080371216 0.08603479
0001b0 0c 11 db be 9b b2 e5 be 2f 95 f3 3d 66 c5 e9 be
       -0.42786443 -0.44862828 0.11893689 -0.45658416
0001c0 74 cf 45 3e ec fe 96 3e 63 22 00 3e ff bc a6 3d
       0.19317418 0.29491365 0.12513117 0.08141517
0001d0 c3 b9 42 bd e6 e0 67 3e d0 c5 3f 3e d1 00 25 bd
       -0.047540437 0.22644386 0.18727803 -0.04028398
0001e0 e2 9f 29 be 15 2c 68 3e 93 9c f5 3e d7 28 6f 3e
       -0.16564897 0.22673066 0.4797102 0.23355423
0001f0 1b 34 4a be 4f 72 4e 3d dd ae b4 be d5 82 4f 3f
       -0.19746439 0.050401982 -0.3528966 0.8105901

hos_weight.2.weight f4 [4, 128]
000000 1e 2c 29 bc 24 99 9d bc 99 10 73 bb 06 5b 82 3f
       -0.01032546 -0.019238062 -0.003708875 1.0184028
000010 59 de e0 be 12 bd d4 3d ad 2c 48 40 78 9e ff 3c
       -0.43919638 0.10387625 3.1277268 0.031203493
000020 5c ac c7 bc c1 d4 ad bd 74 ef 48 3d 43 b6 a7 bd
       -0.02437418 -0.08487845 0.049056485 -0.081890605
000030 e5 1d b7 3f b4 17 ac bc b9 ad 1d 40 ad c9 88 3c
       1.4305998 -0.021007396 2.4637282 0.016697729
000040 93 e7 39 3d db ad ce 3c 7a cc 33 3b 73 03 db bb
       0.045386862 0.025229385 0.002743511 -0.006683761
000050 b3 92 46 3d 96 09 ed bc 92 17 b1 bc 04 8c fd bd
       0.048479747 -0.028935235 -0.021617685 -0.123802215
000060 c1 8d ec bd af 9a 67 bd 73 a5 03 bd 77 7c 31 3b
       -0.11550475 -0.056544002 -0.032140207 0.0027082243
000070 ad d0 05 3d ce ae 03 bd 19 de aa 3c ef db be 3d
       0.03266971 -0.03214913 0.020857858 0.09319293
000080 9e 5e bf 3c 73 f4 95 3d e2 04 a9 3d 24 bd 3d 3d
       0.023360547 0.073220156 0.082528844 0.046322957
000090 20 5e de bd d2 cc 2c bd 8f 36 c3 3c 2d 97 ab bc
       -0.10857797 -0.04218752 0.023829727 -0.02094611
0000a0 5d 59 30 3d 7c ed 51 bd 29 63 b7 3c 30 91 60 bc
       0.043053973 -0.051251873 0.02238615 -0.01370649
0000b0 6a 75 ef bd 12 06 b8 3d 42 0b 9b bd e2 31 aa be
       -0.11692317 0.08985533 -0.07570507 -0.33241183
0000c0 9b c5 2a bd 98 ea 80 bd c1 be df 3d f9 2a 8b be
       -0.041692358 -0.06294745 0.10925055 -0.27181223
0000d0 65 cf 91 bd 24 70 9a 3d c2 37 e9 bd 49 21 52 3d
       -0.071196355 0.075409204 -0.11387588 0.051301274
0000e0 54 19 8f 3d bb 8f bd 3d 94 5e 12 3f c2 d0 93 3f
       0.06987253 0.0925593 0.57175565 1.1548083
0000f0 d7 5d 05 be 4c 5f 8d 3c 71 c7 ed bc d7 d4 1f 3d
       -0.13024078 0.017257355 -0.029025765 0.03902134
000100 2e 07 0b 3d 4a 95 f0 ba 9b 34 d2 bd 3d d6 17 3b
       0.033942394 -0.0018355038 -0.1026394 0.0023168467
000110 04 73 af 3b 7f 58 d9 bc cc 0d b9 bb 12 55 13 bd
       0.005354287 -0.026531456 -0.0056473967 -0.0359698
000120 75 c7 3d bc 63 e7 00 bb b5 27 1f 3c 28 28 cd bc
       -0.011583199 -0.0019669167 0.009714057 -0.025043562
000130 d8 2f 1e be bc 56 e2 3c 4b 76 05 be c2 8b 87 bd
       -0.15447938 0.027629249 -0.13033406 -0.066184536
000140 0c f0 b0 3d c9 87 d5 3d 28 a2 dc 3b 77 37 df bd
       0.08639535 0.104262896 0.0067331977 -0.10899251
000150 2e 81 5c 3d 21 da e4 3b 58 ed 04 3f f6 5c 08 bd
       0.053834133 0.006984011 0.5192466 -0.03329178
000160 0b 49 c4 3c 90 af 07 bd f8 74 9d 3d 2e bf a1 ba
       0.02396061 -0.033126414 0.07688326 -0.0012340301
000170 0e b7 50 bd f0 e1 66 bd b9 76 a5 bc 25 fe 03 bd
       -0.050955825 -0.056367815 -0.020198213 -0.032224793
000180 7a 2d 10 be 1d f5 d6 bc c5 1d 4a bd 9d 8d 95 3d
       -0.14079848 -0.026239926 -0.049344797 0.07302401
000190 71 11 16 be b6 46 10 b8 44 8a 6e bd 05 e1 8a 3e
       -0.14655091 -3.439813e-05 -0.05823733 0.271248
0001a0 90 c5 cc 3b b7 28 99 3e 03 15 a3 3b fd da 9a bb
       0.006249137 0.29913875 0.00497687 -0.0047258125
0001b0 4f 8d 8e bd c7 64 90 bc ec d6 7d 3c ac f1 2a bc
       -0.06960546 -0.01762618 0.015493136 -0.010433596
0001c0 d0 5c 07 3d f1 47 2f 3d 78 ce 87 bc b7 19 91 3d
       0.033047497 0.042793218 -0.016577944 0.07084983
0001d0 d5 ac 7a bd 8c e0 48 3e 0b 1d 95 bb 53 28 be bb
       -0.06119998 0.19616908 -0.0045505813 -0.005803147
0001e0 bd 18 4e 3c c2 ef de bc 3d fd 03 3f ee 43 e8 bb
       0.01257914 -0.027213935 0.51558286 -0.007088176
0001f0 33 8f b6 3c 69 02 4b bc 2d 9b 29 be 5b 25 9b 40
       0.02228508 -0.012390711 -0.16563101 4.84831
000200 bf eb c2 3c ee 96 57 bd b1 ce 37 bd 95 5c 35 3f
       0.023794053 -0.052634172 -0.04487485 0.70844394
000210 ae 0d 12 be 8f 84 91 3d 89 39 55 40 4b 91 b8 be
       -0.14263031 0.07105362 3.3316367 -0.3604835
000220 6f 18 b4 3e ce 63 7d 3a 86 87 e1 be 57 53 b4 b8
       0.3517489 0.0009666056 -0.4404871 -8.598592e-05
000230 59 ac 87 40 d8 0f ec 3d f5 59 6e 40 89 c2 1b 3e
       4.2397885 0.115264595 3.7242405 0.15210928
000240 9c da 88 be 1a e0 2f 3e 40 31 04 be c8 5e 18 be
       -0.26729286 0.17175332 -0.12909412 -0.14879906
000250 a4 2e 98 3e 59 be d9 be 9f d6 20 3e 6a 56 c8 be
       0.29723084 -0.42528036 0.15706871 -0.3912843
000260 21 79 b4 3c 14 41 a2 3d 47 53 07 3e a2 35 8c be
       0.022030415 0.07922569 0.13215362 -0.2738467
000270 98 95 e3 bd b5 12 80 3c d1 b3 58 be 3a 7b bd 3d
       -0.11112517 0.01563392 -0.21162345 0.09252019
000280 b8 dd b2 3e b2 73 b9 3d 62 03 e3 bd db 7c 5f be
       0.34934783 0.0905527 -0.110846296 -0.21824972
000290 8e 93 d6 be a3 62 90 3e a8 13 b0 be ff db 6a 3b
       -0.4190945 0.28200254 -0.34389997 0.0035836694
0002a0 49 8e ea bb 9c d5 0b bd 31 a8 29 3e 01 db b2 be
       -0.007158075 -0.03413926 0.16568066 -0.34932712
0002b0 58 1d 85 bc 7a 0d 8c 3e bb da ae be fc d1 4f be
       -0.016249344 0.27354032 -0.34151253 -0.20294946
0002c0 66 cd 94 be c4 bb f1 bd 37 b7 77 3e 7f 68 00 be
       -0.29062957 -0.118033916 0.24190985 -0.12539862
0002d0 2a 6f b7 bd 44 cb 39 3e 01 51 ec bd 10 1d 31 be
       -0.0895675 0.18143946 -0.11538888 -0.17296243
0002e0 f9 90 38 be 9a 7e 3d 3e 54 39 a5 3f 82 fe 3b 3f
       -0.18024053 0.18505326 1.290812 0.73435223
0002f0 59 cc 91 bd 5d 2a 4a 3e 88 13 30 3e 54 83 09 be
       -0.07119054 0.19742723 0.1719495 -0.13429004
000300 a4 be 4b 3e 34 07 d7 3d 19 58 62 be 89 d3 92 3d
       0.19896942 0.10499421 -0.22103919 0.071692534
000310 d8 6b 8a be 17 96 eb 3c 19 9e 4f be c5 bb e5 be
       -0.27035403 0.028758092 -0.20275153 -0.4486982
000320 fd 5e c4 bd f2 37 89 3e 69 05 15 3e 34 4a 80 be
       -0.0958843 0.26800495 0.14552845 -0.25056612
000330 e9 03 27 3e fd 70 50 be 43 63 b6 bd 12 e3 0e be
       0.16310085 -0.20355602 -0.089056514 -0.13953808
000340 f8 e6 35 bc 79 44 01 3e 2d e5 84 be 27 5a c3 3c
       -0.0111024305 0.12623776 -0.25956097 0.023846699
000350 3f cf 39 3e f3 9b 04 be 31 de 09 bf 9a 67 01 bc
       0.18145464 -0.12950115 -0.5385466 -0.007898236
000360 98 69 ce be 59 09 d5 bd 0e b0 c0 3e 5d 57 ad 3d
       -0.40314937 -0.104021735 0.3763432 0.08463929
000370 9d c6 be 3e f1 92 90 be 41 f8 28 be b3 1c 93 be
       0.37260905 -0.28237107 -0.16500951 -0.28732833
000380 b8 4e a1 bd ae 0f 05 3e fe 98 b3 be 22 80 78 3c
       -0.078763425 0.12994263 -0.3507766 0.015167268
000390 b4 ea c8 bd a5 63 57 be 34 86 96 be 6f d3 b3 3e
       -0.09810391 -0.21034105 -0.29399264 0.3512225
0003a0 8b 79 db bd 64 d7 9f 3d c0 72 c3 bd 01 cd 34 be
       -0.10716542 0.078047544 -0.09543371 -0.17656328
0003b0 30 ae 11 3e 5d fe b3 3e a8 ab 01 be 71 b6 0b 3d
       0.14226604 0.35155 -0.12663138 0.034109537
0003c0 a1 2c 9a be 9f 95 98 be 2f 80 f4 bd 99 f0 01 be
       -0.30112174 -0.29801652 -0.119385116 -0.12689437
0003d0 5f 00 4b 3d 31 e8 62 3e 01 7d 51 3e 60 d7 05 3d
       0.0495609 0.22158886 0.20457841 0.0326761
0003e0 2d 1c 39 3e 17 17 ad be bd 44 5f 3e 6a e4 88 be
       0.18077154 -0.3380668 0.21803565 -0.26736766
0003f0 c2 57 2b 3e 77 70 78 bd a7 83 99 3c f5 de bd 40
       0.16732696 -0.06065413 0.018739535 5.9334664

hos_weight.2.bias f4 [4]
000000 4b 8f 91 3d d6 98 8e be 15 48 cf bd e2 0e ea bd
       0.07107409 -0.2785098 -0.101211704 -0.1142862
