model/hoist_2.pth (torch, 470886 bytes, 22 tensors)

covid_weight.0.weight f4 [128, 1]
000000 66 93 22 3e 81 f7 03 bf 0c a5 d4 bc fd 34 f3 be
       0.1587654 -0.51549536 -0.025957607 -0.47501364
000010 9d 09 d2 3e d9 78 f5 3e be 23 e3 be ac dd ab bf
       0.4102296 0.47943762 -0.44363207 -1.3427024
000020 fe c1 07 3f c6 7a 84 bf 93 77 ea 3e d7 2d 85 3d
       0.53030384 -1.0349967 0.45794353 0.06502884
000030 98 07 cc be ec a9 e2 3e 37 80 2c be 44 67 44 3e
       -0.39849544 0.44270265 -0.16845785 0.19180018
000040 a2 bc 06 3f a7 48 bc bf 4c 1a 0c bd 91 36 a1 3f
       0.5263158 -1.4709672 -0.034204766 1.2594777
000050 2c ee fd bf a7 4c a1 3d 9f 67 80 3c 0c 3b c8 3e
       -1.9838309 0.078759484 0.01567441 0.3910755
000060 8a 91 8b be d4 8e 57 3e 95 80 2a be 8d 79 68 be
       -0.27259475 0.21050578 -0.16650613 -0.22702618
000070 e3 eb 4d bf 5a 43 90 c0 9b 62 f1 bf fa 31 21 bf
       -0.8043806 -4.5082216 -1.8858217 -0.62966883
000080 17 85 2b bd ee 89 72 3f e1 83 27 3d ce da 01 bf
       -0.04187497 0.94741714 0.040897254 -0.50724494
000090 d5 51 ba 3e 3e c4 5a be 43 c4 0a bf d1 03 7d bf
       0.36390558 -0.21363923 -0.5420572 -0.9883395
0000a0 ad bc 08 bf ae 60 95 bf 9e b9 c1 3e 6f 0d 52 3e
       -0.53412896 -1.1670129 0.37836927 0.20512937
0000b0 1a 80 8a 3e 5e ef 51 3f 8b 5b 28 3e a1 39 09 bf
       0.2705086 0.8200587 0.16441171 -0.5360356
0000c0 85 80 46 3e cf 60 ef bc 10 c7 32 3e 50 cf 76 3f
       0.19384964 -0.029220967 0.17458749 0.96410084
0000d0 84 46 31 3f 28 a8 e1 3e 47 b9 52 bf b9 36 14 3e
       0.69248223 0.44073606 -0.8231396 0.14474
0000e0 c0 01 07 3e 50 8f 7d 3e 7e 09 d1 3d 56 a8 fa 3e
       0.13184261 0.247617 0.102068886 0.48956555
0000f0 9f b0 54 3f aa b2 9d bf 85 f0 b1 3c ef 83 13 3f
       0.83082 -1.2320149 0.021721134 0.5762319
000100 b0 17 8c 3f 9c f5 30 3e b1 ce 2b 3d d1 f0 8f bf
       1.0944729 0.17281193 0.041945163 -1.1245366
000110 64 94 a2 bf 0e ab ea 3e f7 74 0a c0 ce ac 8a 3f
       -1.2701535 0.4583363 -2.163389 1.0833986
000120 50 bd 21 bf 96 7d c3 3c ae 0d 2d 3e 0b 00 36 3e
       -0.6317949 0.023863595 0.1689975 0.17773454
000130 f1 1a 11 c0 ae 27 ca bf c2 bc 7d 3d e6 46 d0 c0
       -2.2672694 -1.5793359 0.06194759 -6.5086546
000140 a1 17 b9 3e e6 ba 04 3e 42 06 a3 bf 2f 76 74 3e
       0.3615084 0.12961921 -1.2736285 0.23873208
000150 6c 6f b5 3d d8 d3 f2 bd de ba 32 be 37 ad d4 3d
       0.08859143 -0.11856812 -0.17454097 0.103846006
000160 37 8e 05 c0 8a fb c8 be 5b 69 df 3d f3 a4 eb bf
       -2.086805 -0.3925441 0.10908767 -1.8409714
000170 56 ff 55 3f 1a 2a 2b be 01 25 5d 3f 40 86 c3 3e
       0.83592737 -0.16715279 0.8638459 0.38188362
000180 6e 17 bc c0 66 7c 27 bf c2 9a 7b bf 50 59 29 bf
       -5.87786 -0.6542419 -0.98283017 -0.66151905
000190 98 9e 86 bf 2e 73 f2 3d a6 cd 95 bf a0 f8 18 3f
       -1.0517149 0.11838375 -1.1703384 0.5975437
0001a0 53 22 5d 3e a5 64 00 3f b7 5c 03 3f d3 f0 7e 3f
       0.21595125 0.5015357 0.51313347 0.9958622
0001b0 74 09 e6 c0 b3 34 26 bb 28 26 3f 3f 3e e5 d3 be
       -7.188654 -0.0025361 0.74667597 -0.41385835
0001c0 37 17 fd bd 0f dd 18 3d e2 07 a3 be 9b 9d 04 3e
       -0.123579435 0.037320193 -0.31841952 0.12950747
0001d0 a2 37 f5 be 86 73 73 3f 34 11 23 3e 24 73 26 3e
       -0.47894007 0.9509815 0.15924531 0.1625486
0001e0 1c 84 eb 3e c0 53 3a 3f 32 e3 49 bf f7 d8 b4 3e
       0.4599923 0.7278404 -0.788623 0.3532178
0001f0 4e d6 93 3e 93 3b c5 be 48 eb 00 bd 35 7e 93 3e
       0.2887444 -0.38522014 -0.03147438 0.28807226

covid_weight.0.bias f4 [128]
000000 b3 3f f9 be ab 2a 3d bf 16 61 0b bf 43 f7 bb 3d
       -0.4868141 -0.7389323 -0.54445016 0.09178021
000010 0b 47 eb be 99 dd 00 bf 0e d7 95 3d 68 09 dc 3e
       -0.4595264 -0.5033813 0.07316409 0.42975926
000020 22 2f 90 3e 80 35 1d bf c4 c2 5a 3f de c1 a4 bd
       0.2816096 -0.6140976 0.8545344 -0.0804479
000030 3e 3b 34 bf f4 a5 9b be 80 7c 38 3e 89 44 f6 bc
       -0.70402896 -0.3040005 0.18016243 -0.030061977
000040 d9 da 1e bc bc c8 96 3e 07 da 17 bf 87 37 17 3f
       -0.009695732 0.29450023 -0.5931706 0.59069103
000050 07 1a 1d 3f eb 71 b0 bd 61 4d 2b bc b3 f6 c8 be
       0.6136784 -0.08615478 -0.01045546 -0.39250717
000060 b6 49 17 bf b7 1f 14 be 5c 3d 4f be 6d e1 00 bf
       -0.5909685 -0.14465223 -0.2023825 -0.5034397
000070 30 20 12 bf 6c f1 0a 3f d1 3e 1e 3f f1 aa c4 bc
       -0.57080364 0.5427463 0.618146 -0.024007292
000080 cd 66 02 bf 9c 80 11 3f aa c4 32 bd 2e 55 14 bf
       -0.5093811 0.5683687 -0.043644585 -0.57942474
000090 25 14 60 be e8 8b a4 3e 19 1c 03 bf 2f a2 5f 3f
       -0.21882685 0.3213799 -0.5121475 0.8735685
0000a0 22 fd a8 be a7 08 24 bf a7 93 0d bf a2 57 0f be
       -0.33005625 -0.640757 -0.55303425 -0.13998273
0000b0 a8 f9 85 3e 44 69 ef 3d 35 ca 33 bf a4 33 07 3f
       0.26167035 0.1169 -0.7023042 0.5281317
0000c0 ce 1f 7d be 76 69 e2 bc 00 38 e2 3e 65 71 a9 3e
       -0.24719164 -0.027638178 0.4418335 0.33094326
0000d0 20 ef 31 bf 7f e4 ea be 70 ee 78 3e 08 ee c2 3d
       -0.695055 -0.45877454 0.24309707 0.09518057
0000e0 5a 3e 16 bf 00 dc 3f bf 4a 00 e8 be 8a 27 86 3d
       -0.5868889 -0.7494507 -0.4531272 0.0655051
0000f0 1f 02 4b 3f a6 a5 5d 3e b2 7b e9 3b 34 f1 88 bf
       0.7930011 0.21645221 0.0071253413 -1.0698609
000100 6b cc e4 3e 7b 27 1a 3e 16 70 bb be 87 50 91 be
       0.4468721 0.15054123 -0.36608952 -0.2838175
000110 51 e8 82 3d 04 f5 f2 be 37 0e af 3e 36 db 10 3f
       0.06391967 -0.47452557 0.34190533 0.5658449
000120 ad e4 49 be 1e bc f6 be 05 7f 31 be 08 e5 59 be
       -0.19716139 -0.48190397 -0.1733361 -0.21278775
000130 33 cd cf 3d 8f 0c 01 3f 34 2f 6b 3e fd e1 92 3e
       0.101465605 0.5040979 0.22967225 0.2868804
000140 81 91 b9 be 74 46 24 be 7a e3 32 bf b1 31 9c be
       -0.36243823 -0.160425 -0.6987835 -0.30506662
000150 78 19 77 bd ce 91 6b be 98 3f be be 9d e9 1e 3d
       -0.060327023 -0.23004839 -0.37157893 0.03879701
000160 09 92 e2 3d 7c 34 01 be d0 ee d9 3d 47 d6 c0 3e
       0.1106301 -0.12617677 0.10641253 0.3766348
000170 97 a5 3e 3d cf fb 01 bf 64 6f 43 3f 65 ff 2c 3d
       0.046544638 -0.50774854 0.76341844 0.04223575
000180 25 05 9a 3e c3 55 a7 bd ed 07 b4 be 92 17 f6 3e
       0.3008205 -0.081706546 -0.35162297 0.48064858
000190 67 f8 a0 3e c7 56 43 be b2 60 71 bc 8e 9b 0e 3d
       0.31439516 -0.19076072 -0.014732527 0.034816317
0001a0 e6 b4 37 3d 62 ab a8 3c 4c 7e 10 bf 39 1a 96 3d
       0.044850253 0.020589534 -0.56442714 0.0732922
0001b0 7b a1 b8 3e f9 3e e6 bd 6c f4 3f bf 33 f6 08 be
       0.360607 -0.1124248 -0.74982333 -0.13375168
0001c0 76 af 42 be 1b 73 a7 3d 35 94 cb be ed f5 0f bf
       -0.19012246 0.081762515 -0.3976151 -0.5623463
0001d0 68 3b f8 3e 8d 9b 01 3c d4 d0 a9 3e 47 1f 25 3d
       0.48482823 0.007910621 0.33167136 0.04031303
0001e0 d8 63 ec be 11 77 4d bf 13 56 d4 bd bb 8c 78 be
       -0.46169925 -0.80259806 -0.1036798 -0.24272434
0001f0 e5 5c 2c be a6 93 10 bf cb cd d8 be 1c 9b 52 3c
       -0.16832311 -0.56475294 -0.42344508 0.012854364

covid_weight.2.weight f4 [1, 128]
000000 d1 e4 58 3d 7e a7 2a 3e 4d af fc 3d 8c 68 81 3c
       0.05295259 0.16665456 0.123381235 0.015796922
000010 57 9d 00 3d f2 bd cc 3c de 94 c6 3b 53 58 0a 3e
       0.03140005 0.024992917 0.006060227 0.13510256
000020 f6 0d 31 be 54 85 25 3e 3e ca 30 be 43 c7 b2 bc
       -0.17290482 0.16164142 -0.1726465 -0.021823531
000030 ad fb 01 3e 53 9e 93 bd 0d 2e 8b bc 22 ba 50 bc
       0.12693663 -0.07207932 -0.016989732 -0.01273969
000040 6a 9f e8 bd 4a 71 c9 3c 36 12 60 3d 34 8a 64 be
       -0.11358531 0.024590153 0.054704867 -0.22318345
000050 39 5e 5d 3d dc fb 10 3c 8d 11 ef ba e7 de 10 3c
       0.054044936 0.00884911 -0.0018239483 0.008842207
000060 a2 82 e6 3d fa 8b 82 bd e9 6b 95 3d 76 ce 8c 3d
       0.11255385 -0.06374355 0.07295973 0.06875317
000070 a8 1c 31 3e bc 7d 7d 40 01 f8 aa 3d 5b 96 80 bc
       0.17296088 3.9607992 0.08348084 -0.015696695
000080 29 14 e9 3d 88 c7 48 be e7 5d bf bc 36 0d d6 3d
       0.11380798 -0.19607365 -0.023360206 0.104517385
000090 0c 40 ec bd 83 07 28 bd 68 08 48 3e e4 11 24 3f
       -0.115356535 -0.04102279 0.19534457 0.640898
0000a0 90 a5 0e 3e 56 1d 4b 3e 16 e0 63 3b ce 53 13 bd
       0.13930345 0.1983541 0.0034771017 -0.035968594
0000b0 de 97 80 bd cb 3c 9f be 00 05 d1 3d 90 97 da 3e
       -0.06278966 -0.3110107 0.10206032 0.42693758
0000c0 de 8e 95 3c 4c bf 15 bc 23 5d 70 bd a2 c5 58 be
       0.018256601 -0.009139847 -0.058682572 -0.21169141
0000d0 50 a9 a2 3c 15 b4 22 3d c3 0f 5b 3d c5 20 60 bd
       0.019856125 0.03972252 0.05348183 -0.05471875
0000e0 08 60 48 3d 4d 3c 1f 3e 42 6b 15 3e f6 8a 5e bd
       0.048919708 0.15550347 0.14591697 -0.054331742
0000f0 de c3 4d be 7d 3f 25 3d 4a ad 28 bb e8 a7 0e 3e
       -0.20094249 0.04034375 -0.0025738054 0.13931239
000100 a5 1a 31 be 21 8a 82 bd 64 5a 00 3e 6d a5 35 3e
       -0.1729532 -0.06374002 0.12534481 0.17738886
000110 6d c1 0d 3e 22 93 41 3d 6e 0f 2a 3e 2f 00 32 be
       0.13843317 0.047259457 0.16607448 -0.17382883
000120 24 1c a2 3d 38 34 e1 3d 37 60 9e 3c 76 b5 99 3c
       0.07915524 0.10996288 0.019332988 0.018763285
000130 f8 67 2b 40 5b e9 ed 3d 40 5d a9 bd 3a 6b d6 40
       2.6782207 0.11616775 -0.08269739 6.700589
000140 8d 6f 8c 3b 26 e3 a4 3c 00 03 62 3e c6 75 c6 3c
       0.004285759 0.020127844 0.22071457 0.02422608
000150 70 62 99 bc 3c e7 4f 3d a2 16 92 3d 61 18 a4 bc
       -0.018723696 0.05075763 0.07133223 -0.020031156
000160 f2 d7 0d 3f b0 19 5f 3d b1 3d 60 bd 68 63 09 3d
       0.5540763 0.054467857 -0.054746334 0.033542067
000170 f5 3c 56 be d1 9c f0 3d e7 82 34 be 4f 7d d5 bc
       -0.20921691 0.1174866 -0.1762806 -0.026060728
000180 1d 12 00 41 4b 88 79 3d 04 60 6e 3e 93 e7 80 bc
       8.004422 0.060920995 0.23278815 -0.015735423
000190 f5 cc 57 3d 87 ba d9 3c 46 2a c4 3e 2f 9a e1 bd
       0.052685697 0.026578201 0.38313502 -0.11015736
0001a0 1a 68 15 bd 55 74 2f be 02 4b 0c bd 16 bb 85 be
       -0.036476232 -0.17134221 -0.03425122 -0.26119298
0001b0 84 ec e3 40 ef 50 0a 3d ae 22 6e 3c 70 79 fb 3c
       7.1226215 0.03376859 0.0145346355 0.030697554
0001c0 51 8a 44 3d 3c 98 b1 bc b9 be 8c 3d e5 04 51 3d
       0.04798347 -0.021679036 0.06872315 0.05103006
0001d0 48 85 bc bc 46 f0 cb bd a0 d4 b1 bd 45 b5 91 bc
       -0.023012772 -0.09957938 -0.08683133 -0.017786631
0001e0 b8 8b 0c 3c 8c c7 cf bd 34 9c 92 3d 22 48 85 bd
       0.008578233 -0.101454824 0.071587 -0.06507899
0001f0 ce e6 24 bd ab 21 a2 3d 60 e8 5e 3d 92 49 8a bc
       -0.040259175 0.07916578 0.05442083 -0.016880784

claim_weight.0.weight f4 [128, 20]
000000 f6 cd 9b be 5e 94 a7 bd b1 39 37 be 4f 33 d3 bd
       -0.30430573 -0.08182596 -0.17893101 -0.10312521
000010 6c 5b 8e bd b4 0c c2 bd 16 fe cf 3d 49 17 80 be
       -0.06951031 -0.09475079 0.10155885 -0.25017765
000020 97 92 06 bd 7f e1 72 3e 22 7b f5 be d2 df 8f bd
       -0.032854643 0.23718832 -0.47945505 -0.07025112
000030 66 63 88 3e 3b e1 81 3d 2e bb 31 be a0 ea 9d be
       0.26638335 0.063417874 -0.1735656 -0.30843067
000040 27 db d7 3d 09 eb f0 bc 62 13 2f 3e 9f db 91 be
       0.10539847 -0.029408948 0.17097238 -0.2848787
000050 6a 09 d9 3e 6b b3 bd bd f4 86 49 be 72 1a 8e 3e
       0.42389995 -0.09262737 -0.19680387 0.2775455
000060 7c 4b a9 3d 65 99 72 bd b7 ea dd bd 6c 24 a0 bc
       0.082663506 -0.05922832 -0.10835784 -0.019548617
000070 f0 25 ba bd c9 db 20 bc 4f 91 fa 3d e1 5c ce 3d
       -0.09089267 -0.009818026 0.12234747 0.10076309
000080 09 6c e1 3d d3 98 56 be 33 bc c5 bb 27 c8 e3 3e
       0.11006934 -0.20956735 -0.006034398 0.44488642
000090 ba c6 76 be a9 7f 47 3e aa a8 4b bc 3e b2 02 3e
       -0.24099246 0.19482292 -0.012430349 0.12763306
0000a0 27 0e 24 be b9 bc 7e 3d 45 9b 18 bc b4 dc be bd
       -0.16021024 0.0621917 -0.009314363 -0.093194395
0000b0 07 5e 2a 3e 70 f1 78 be 4d a2 26 3e ab bf da 3d
       0.16637431 -0.24310851 0.1627285 0.10681089
0000c0 68 49 a6 bd 22 3f e6 bd 8a c8 13 3e 27 93 ea 3c
       -0.0811947 -0.112425104 0.14431968 0.02863462
0000d0 b2 c6 80 be 4a 6a 5d be 9b 16 84 be 38 55 0a be
       -0.25151592 -0.21622577 -0.25798497 -0.13509071
0000e0 f2 1b a3 bd aa e7 0c 3d ee 76 b8 3d 03 a6 7c be
       -0.079643145 0.03440062 0.09007059 -0.24672703
0000f0 c0 76 2b 3f 0f 38 36 3e b9 b3 d1 3d 69 3a d4 bd
       0.66978073 0.17794822 0.102393575 -0.10362703
000100 67 85 41 be 48 61 80 3d e2 0d 39 3e 47 d5 91 3d
       -0.18898545 0.06268555 0.18071702 0.071207576
000110 37 d4 93 bc f7 da 8d b9 c9 a9 bc 3e 92 3b 8f 3c
       -0.018045528 -0.00027056757 0.36848286 0.01748446
000120 2b b5 81 bb 5d f1 51 bd 99 bf 03 3f ba 1f ef 3e
       -0.0039583645 -0.051255573 0.5146423 0.46703893
000130 1d 79 08 3e e9 59 12 be 79 01 4c bd 67 be 5a 3e
       0.13327451 -0.1429211 -0.049806092 0.21361695
000140 38 cd 03 bf fa 6f 4a bf f3 ef 02 bf 77 44 fe be
       -0.51485014 -0.7907711 -0.51147383 -0.4966161
000150 26 82 62 bf e2 eb 2c bf 7c 06 a2 be 73 dc 51 bf
       -0.8847984 -0.6754743 -0.31645572 -0.81977004
000160 72 47 7c bf ed e4 72 be 2a 69 38 bf 1c d6 76 bf
       -0.98546517 -0.23720141 -0.7203547 -0.96420455
000170 c0 18 5a bf 56 63 d2 bb 1f 5a d2 be 24 a4 d3 be
       -0.85194016 -0.006420533 -0.41084382 -0.41336167
000180 0e 40 00 be d7 13 ab bd 87 28 13 be 3f a8 a1 bf
       -0.12524435 -0.083533935 -0.14370929 -1.262947
000190 a7 9d 9b be 34 ac fb 3d d4 99 2a 3e 12 64 ad bd
       -0.30393717 0.122887045 0.16660243 -0.084663525
0001a0 44 d0 57 3e 6c 42 39 be ac b4 02 3d 83 7f 90 be
       0.21075541 -0.18091744 0.031910583 -0.28222284
0001b0 9a c1 dc bd a5 74 50 be 15 b6 f5 be 56 6c a7 bd
       -0.10779114 -0.20356996 -0.4799048 -0.0817496
0001c0 77 05 ef bd 66 05 0a be cb 6e a7 be 75 47 76 be
       -0.11670964 -0.13478622 -0.32701716 -0.24050696
0001d0 e2 01 88 3e 17 64 a3 3d d7 35 d6 bd bd 89 7a be
       0.26563936 0.07978075 -0.10459488 -0.24466605
0001e0 03 64 0b bf 51 25 6e be ef 74 c7 be 9e 29 43 be
       -0.5444948 -0.23256423 -0.389564 -0.19058844
0001f0 67 6c aa 3e bd b5 a9 3e 0d a2 b1 be cd ad 9c 3e
       0.3328583 0.33146468 -0.34693947 0.3060135
000200 7e e8 c8 be 92 6d d4 bc 3b 64 e2 be a5 a0 68 3e
       -0.39239877 -0.025931153 -0.44217095 0.22717531
000210 72 09 54 3e 66 e6 cc 3e c9 b7 2a be 67 5f cd be
       0.20706728 0.4001953 -0.16671671 -0.4011185
000220 59 c7 76 3e b8 51 9b ba 8d 56 a0 bd 18 99 00 be
       0.24099483 -0.0011849916 -0.07829008 -0.125584
000230 30 67 2e 3d 8b 9c 74 be c3 41 6a be 26 eb 1f 3e
       0.042578876 -0.23887841 -0.22876649 0.15617046
000240 e4 14 50 be 91 67 0a bb a1 fc 33 3e a0 e4 d6 3b
       -0.20320469 -0.002111886 0.17576839 0.006558016
000250 dc 8f 54 bd cd 04 b4 3d 33 6b f8 3d be 8a 1b be
       -0.051895007 0.08789978 0.12129822 -0.15189645
000260 0b 81 d4 3d d7 3b 0b be 79 c6 6a be f6 1c a3 bd
       0.103761755 -0.13597046 -0.22927274 -0.07964508
000270 38 9f e4 3d ac b0 57 be 62 66 ab bd 8d f5 e2 bd
       0.11163181 -0.21063489 -0.08369137 -0.11081991
000280 82 da df 3e 1d ac 16 3e 2f 60 e5 3d 99 29 5e 3e
       0.43721396 0.14714094 0.11199986 0.21695556
000290 3a 04 01 3e f9 bd 74 bd 18 fd 6f 3d ee 3f 53 3e
       0.12599269 -0.059751485 0.05859098 0.20629856
0002a0 61 b8 c1 3d 27 49 43 be 3c 73 7a 3e 8c fa 74 3d
       0.094589956 -0.19070874 0.24458021 0.059809253
0002b0 d6 3e c9 3b c8 3d 39 bd 22 42 de 3d 7f 9d a3 3e
       0.006141524 -0.045224935 0.108524576 0.31956097
0002c0 11 34 0d be 3f 43 30 3e 9c bd 36 be 82 a6 1f be
       -0.13789393 0.17213152 -0.17845768 -0.15590861
0002d0 3b 55 ac 3e cf 1f b2 bc 7d 52 61 bd da 29 28 be
       0.33658776 -0.021743683 -0.055010308 -0.16422215
0002e0 76 99 d1 bc 3e fe 88 be 64 6a 3d 3d b3 cb 7f 3d
       -0.025585871 -0.2675647 0.04624404 0.062450122
0002f0 05 c0 42 be 60 ea ac bd ca e2 6f 3e 4b 3e 9d bd
       -0.19018562 -0.08443141 0.23426357 -0.07677897
000300 b7 1e 81 bd be a7 82 be ba 62 ce 3d 3d a5 75 3e
       -0.063046865 -0.25518602 0.10077424 0.23988815
000310 fc 84 a7 bd 62 a2 73 be 46 33 ca bd 6f 36 16 3e
       -0.08179662 -0.23792413 -0.09873061 0.14669202
000320 02 16 5f bc d4 6b ff 3d 33 68 60 be c7 da 0a be
       -0.013616087 0.124717385 -0.21914749 -0.1356002
000330 65 0c c0 bd 16 15 f3 3d 67 22 6a 3d 18 1b 4c be
       -0.09377364 0.11869256 0.057161715 -0.1993221
000340 29 55 8d bc 7d 37 f6 3d cb 10 6c 3e b0 53 c3 3d
       -0.017252522 0.12022302 0.23053281 0.095374465
000350 a2 67 bf bc 0e db 85 bd 50 26 a5 3d d1 e5 e4 3d
       -0.023364846 -0.06535922 0.08063948 0.111766465
000360 d7 bb 1a 3d a7 e1 ea 3c 3c 9a 65 3e 35 41 4b ba
       0.037776794 0.028672053 0.22422117 -0.0007753552
000370 b1 e6 3e 3f af d9 df bf 74 90 95 bf d6 99 78 bf
       0.7457076 -1.7488307 -1.1684709 -0.97109735
000380 fe 37 c1 bf f9 9d a6 bf af 7b fd bf f1 06 c7 bf
       -1.5095212 -1.301696 -1.980337 -1.5548993
000390 a2 17 01 c0 dd 3a ea bf dd d7 9a bf f8 48 c6 bf
       -2.0170674 -1.8299214 -1.2097126 -1.5491018
0003a0 fb 31 13 c0 c0 81 8e be 77 55 b4 bf e2 9a 00 c0
       -2.2999256 -0.27833366 -1.4088582 -2.0094533
0003b0 e3 93 65 bf d0 f0 bf 3d ac 60 19 bf 78 44 f9 bf
       -0.8967878 0.09372103 -0.59913135 -1.947402
0003c0 08 ac 99 be ed ac 4c be df ae 4a 3e d5 10 bf 3d
       -0.30014062 -0.19987841 0.1979327 0.09329382
0003d0 8f 06 40 3e c3 b1 a3 3d 90 b8 5a 3c e1 74 8c bd
       0.18752502 0.0799289 0.013349667 -0.068582304
0003e0 cf df b0 3d 4c f9 bd 3d 28 2d 31 be 87 55 18 bd
       0.08636438 0.09276065 -0.17302382 -0.03719094
0003f0 20 18 39 be 22 3f a8 3d a3 12 a8 bd 03 44 68 be
       -0.18075609 0.08215167 -0.0820668 -0.22682194

claim_weight.0.bias f4 [128]
000000 f8 1a 23 be a1 a5 7d bd 2b 0a 70 bd fc 9b d5 bd
       -0.15928257 -0.061925534 -0.058603447 -0.10430142
000010 fc 60 0a 3f 31 56 0a be 94 c8 6e bc bf 54 10 bd
       0.54054236 -0.13509442 -0.014574189 -0.03523707
000020 c2 50 91 bc 5f 04 55 bd c6 8f e7 3d fc 80 a4 3f
       -0.017738704 -0.05200612 0.113067195 1.2851863
000030 5c 9b dd bd 16 a1 60 bc ec 4e e0 bd 5c 24 ce bc
       -0.10820648 -0.013710281 -0.10952553 -0.025163822
000040 00 3c 0a 3f ce 33 a9 3e 6d 57 9e bd f8 7c a2 3c
       0.539978 0.33047336 -0.07731519 0.01983498
000050 2f 08 2c bd be 27 14 3f a8 c6 b0 3e f8 57 dd 3e
       -0.041999992 0.5787314 0.34526563 0.43231177
000060 85 84 6c bd d5 39 50 3e 9b 6f 2c 3f 2f 6e 3b 3b
       -0.057743568 0.20334561 0.67357796 0.002859961
000070 57 f7 8d bd 91 19 e3 3e 87 03 31 be bf 23 81 3c
       -0.06931942 0.44355443 -0.17286502 0.015764115
000080 1d 31 12 be 0b 76 61 be 95 5e e8 bd e1 5c 4b be
       -0.14276548 -0.22017686 -0.11346165 -0.19859649
000090 11 73 41 bd 34 27 5e bd 3b 90 c9 3e 66 7d 9b bd
       -0.047228877 -0.054236606 0.39367852 -0.07592277
0000a0 5b ff 99 3c 36 03 92 bd 66 39 7d be 87 e1 f5 bd
       0.01879852 -0.07129519 -0.24728927 -0.120059066
0000b0 b3 20 e4 3e e1 aa da 3e eb 49 0a bd e7 5b 20 bd
       0.44556198 0.42708495 -0.0337619 -0.039150145
0000c0 fc 2e 10 3c af d0 fd 3b d9 dd 60 bc 22 8f 32 3f
       0.008800264 0.0077458243 -0.013724768 0.69749653
0000d0 a2 09 db 3d 74 c0 18 be 61 44 e5 3d 15 04 5a be
       0.10695197 -0.14917165 0.11194683 -0.2129062
0000e0 df c3 c2 bd aa 2b 48 3e e7 44 03 bd e2 65 8e bb
       -0.09510016 0.19547907 -0.032048132 -0.0043456415
0000f0 09 5d 07 3f 06 2e 19 3e 4b a0 06 be fb af c8 bd
       0.52876335 0.14958963 -0.13147084 -0.097991906
000100 ce c2 16 bd f8 df 0f bc 9d 9f e3 be 65 26 66 bd
       -0.036806874 -0.008781426 -0.44457713 -0.05618896
000110 08 f1 3d 3e d6 f1 f1 3e 6f f9 e9 bc df 93 e8 bd
       0.18548977 0.4725482 -0.028561322 -0.11356329
000120 2e 37 87 bd af ad 9b 3d 9b 0a d2 bd af d4 38 be
       -0.066023216 0.07601487 -0.10255929 -0.18049882
000130 32 06 be 3e ea 34 c1 3d 44 34 2c 3f b4 c6 10 be
       0.37114102 0.09433921 0.6726725 -0.14138299
000140 32 45 0d 3f bf e8 15 3f cb 31 13 be 16 30 00 be
       0.5518371 0.5855827 -0.14374463 -0.12518343
000150 3d 97 1a be 10 26 89 bd 2c e8 8f 3e 84 39 7c bc
       -0.15096755 -0.06696713 0.2810682 -0.015394572
000160 d0 50 00 be ec 20 6c bc 32 f9 4e 3e 6e e6 4d 3e
       -0.12530828 -0.014412146 0.20212248 0.20107433
000170 7e b4 78 bd 7e 41 01 3e 08 f9 bf bc 88 ba 98 3f
       -0.060719006 0.1262264 -0.023434177 1.1931925
000180 0f 9c 34 3c 8c 0e f9 3d ea 84 b9 37 8d 77 35 be
       0.011023535 0.12160978 2.2115612e-05 -0.17721386
000190 39 bc d2 3d 9b 24 16 be 59 21 ff bd 06 53 80 bd
       0.10289807 -0.14662401 -0.124575324 -0.062658355
0001a0 51 c3 75 be 78 11 93 3d fd b1 3f 3f e2 d9 5d 3c
       -0.24000289 0.07181066 0.74880964 0.013540717
0001b0 6d 76 2d 3f 42 bb 40 bd 3c e7 c0 3c f5 5b a7 3f
       0.6775883 -0.047053583 0.023547761 1.3074938
0001c0 26 ce a6 3f ad 20 02 3f 20 4e 13 3f 50 50 9c 3d
       1.3031662 0.5083111 0.57541084 0.07632506
0001d0 c2 8d 23 3f 06 4c 0d 3f 76 fd 92 bd e4 1f 10 3f
       0.6388818 0.5519413 -0.0717725 0.5629866
0001e0 c9 c4 f3 bd 38 67 f1 bc 20 2a a9 3d c2 79 3e bd
       -0.11902768 -0.029468164 0.08259988 -0.046502836
0001f0 75 20 f0 bc 62 75 00 be 85 bf 23 bd ea ea f1 bc
       -0.029312352 -0.12544778 -0.03997757 -0.029530961

claim_weight.2.weight f4 [20, 128]
000000 79 c0 a9 bd 00 74 cc bc 30 7a f6 bd c8 bf 92 3d
       -0.08288664 -0.024957657 -0.12035024 0.071654856
000010 15 3f ae 3f fc 54 47 be cb 1f 85 3e 35 51 88 be
       1.3613001 -0.19466013 0.2600082 -0.26624456
000020 36 1b ba 3c 3c 2c d7 bc 46 22 01 3e 83 4e b9 3f
       0.022718053 -0.02626621 0.1261073 1.4477085
000030 12 7a d6 bd c0 62 12 3e 73 63 0f bd 9b 13 d0 3e
       -0.10472502 0.14295483 -0.03500695 0.40639958
000040 d9 ec df bd 8c 2a 78 3f 6d 60 18 3e d2 5b 67 3d
       -0.10933847 0.9693992 0.14880534 0.05648405
000050 8a 1d 50 be c2 1e 0e 3f 42 6c fc 3e da a6 79 3e
       -0.20323768 0.5551568 0.49301344 0.24380055
000060 2a 54 4d be 4c c3 31 be bf cd 8b 3e b2 c8 1a be
       -0.20051637 -0.17359656 0.2730541 -0.15115622
000070 e6 0b 98 be 5d 8c 72 3f 24 b2 75 be 74 15 a0 3e
       -0.29696578 0.9474543 -0.23993737 0.31266367
000080 d4 7f 15 bd b0 f7 0c bd e2 79 35 be 67 f2 d7 3d
       -0.03649886 -0.0344159 -0.17722276 0.105442815
000090 87 c4 05 3e 74 1c 54 bc eb 7a 56 3f 41 ee 07 3d
       0.1306325 -0.012946237 0.8378131 0.0331862
0000a0 1a ef 53 bd 6d 9d 88 bc 34 b0 2d 3c 30 84 d9 3d
       -0.051741697 -0.016676629 0.010601092 0.10620916
0000b0 2f 42 7e 3f ad 74 8e 3f 24 28 11 be f9 e3 e1 3d
       0.9931974 1.1129357 -0.14175469 0.110298105
0000c0 75 da 16 3e 4c 82 03 3c a7 28 07 bd 9a dc 1a bf
       0.14731772 0.008026671 -0.032997753 -0.6049286
0000d0 0c 60 86 3d d5 02 a0 3d 91 36 9a 3e 13 c5 df bd
       0.06561288 0.0781304 0.30119756 -0.10926261
0000e0 e6 c6 9f bd 0e 39 ea 3e 3a f7 fb bd 06 5f d9 bd
       -0.07801609 0.45746654 -0.12303014 -0.106138274
0000f0 97 79 e4 be c9 b2 32 3e f5 db 3e 3d fc 00 82 be
       -0.44624016 0.17451014 0.046596486 -0.25391376
000100 ef 7f 83 bd f3 97 9f 3d 4c 60 1e be 21 fb b5 3d
       -0.06420886 0.07792654 -0.15466422 0.0888579
000110 9f 70 43 3f 0b f8 75 3f e7 f4 9d bd 26 c1 96 bd
       0.7634372 0.9608161 -0.07712727 -0.07361059
000120 89 2c 9e 3d 10 e5 1d 3e 3c 53 9d 3d 3c 2c 2c 3c
       0.07723338 0.15419412 0.07681891 0.010508593
000130 a8 f8 49 3f 3f fe 4b 3e 9a 0b ac 3f af ca d0 be
       0.78895044 0.19921206 1.344104 -0.40779635
000140 d1 2b 8e 3e d9 59 90 3f 7b 83 3e 3b 2b 9d 9e bd
       0.27767804 1.1277419 0.0029070068 -0.07744821
000150 e5 5d b6 bd 39 ac 3f be 42 8e aa 3e 4f da 5d 3c
       -0.08904628 -0.18718041 0.3331166 0.013540818
000160 cc 48 fc bc 08 f3 a4 ba d4 99 a3 bd a5 72 ee 3e
       -0.030796431 -0.0012584636 -0.07988325 0.46571842
000170 0a b3 46 bb 08 59 98 3d ba f4 e8 bd 2f 43 98 3e
       -0.0030319118 0.07438856 -0.11374803 0.29738757
000180 a3 3b 69 3e f4 d1 e8 bc a9 f6 14 be 7a 7b 2b 3b
       0.22776656 -0.028420426 -0.14547218 0.0026166127
000190 fb 92 37 3e 2a 8d d5 be 4e c3 66 be de 83 92 bd
       0.17927162 -0.41709262 -0.2253544 -0.07154058
0001a0 98 63 ac 3e 5e 97 e8 3d ed 3f be be 48 67 22 bd
       0.33669734 0.11356996 -0.37158147 -0.039649278
0001b0 87 55 98 3f d4 4a 26 be 85 79 18 bd 0f 99 78 3f
       1.1901101 -0.16239482 -0.037225265 0.9710855
0001c0 9c 77 e7 3e 7c 31 60 3f 0c b0 d8 3e e6 63 79 3d
       0.45208442 0.8757551 0.42321813 0.060886286
0001d0 d7 b8 6b 3f 8c 42 27 3e af 04 95 bd c2 5b 3b 3f
       0.9207892 0.1633398 -0.07276284 0.73186886
0001e0 06 a7 5b bd 4e 2f 59 3e d7 06 75 3e 57 59 8a 3d
       -0.053626083 0.21209452 0.2392839 0.067553215
0001f0 e0 e4 3c bd 87 5f 39 be 24 1b 18 3e ad 3c 33 3e
       -0.04611671 -0.18102847 0.14854103 0.17503615
000200 30 f0 92 bd 08 50 11 be ae 3b 62 3d 6b 81 8d bd
       -0.071747184 -0.14190686 0.055232696 -0.0690945
000210 fe bf af 3f be 79 28 3c a0 6c d1 bd ee cf e9 bb
       1.3730466 0.010282932 -0.10225797 -0.007135383
000220 a9 99 d4 3c e4 5c ec bc 90 d3 9e bd ec c2 09 40
       0.025952177 -0.028852887 -0.07755196 2.152522
000230 32 b4 29 3e dd dc 49 bc 8b 41 dc 3c 76 d5 2f be
       0.16572645 -0.012320724 0.026886722 -0.17171273
000240 8f 32 8c 3e 44 7b 39 3f ed e2 3d 3d 3b e7 f1 3d
       0.27382323 0.72453713 0.04635899 0.11811682
000250 1b 34 a7 3d e1 f4 5b 3f 31 1b fc 3d 59 db 80 3e
       0.08164235 0.8592053 0.12309874 0.2516735
000260 a6 7a 06 bd 30 fe d4 3d 8b 3e 3d 3f 2d e1 b1 bd
       -0.03283181 0.10400045 0.7392356 -0.08685527
000270 92 3d d8 bd d7 12 19 3c be 48 d0 bb b4 bf 56 3e
       -0.105586186 0.009342871 -0.006356328 0.20971566
000280 54 f4 28 bd 29 dd b2 3e 4e 34 56 bd 15 89 9b 3d
       -0.041248634 0.34934357 -0.052295975 0.07594506
000290 d6 69 1c 3c 5a d3 40 3b b9 e6 59 3f 59 f0 84 3d
       0.009546718 0.002942285 0.8511768 0.06491155
0002a0 ad 94 96 bc 9d 26 91 3e de 3a 51 be 45 02 84 3d
       -0.018381441 0.28349772 -0.20432612 0.064457454
0002b0 a8 a9 54 3f 71 22 09 3d 62 84 77 bd 6f 57 90 3d
       0.83071375 0.03348011 -0.060428984 0.07047927
0002c0 fa 93 b6 3c f5 50 80 bd c7 93 28 bd ea a2 59 3e
       0.022287358 -0.06265441 -0.041156556 0.21253553
0002d0 1d 10 4e 3e e0 01 88 bd d3 98 ac bd ae 8f 7b 3e
       0.20123334 -0.06640983 -0.084275864 0.24566528
0002e0 77 5e a9 3d 7f be 06 3e 07 ff 3d bd c5 a2 03 be
       0.08269971 0.13158606 -0.04638579 -0.1285506
0002f0 05 28 ac 3e a5 d9 b0 3c 65 64 94 3d 18 a5 33 3d
       0.33624282 0.021588156 0.07245711 0.043858618
000300 03 f5 93 bb 6e 09 99 3c 26 7e bf 3e 2c c5 56 bd
       -0.0045152917 0.018681254 0.3740093 -0.05243413
000310 a0 5c a7 bd 02 48 8a 3f 58 db 7d 3d 12 32 a1 3d
       -0.08171964 1.0803225 0.06197676 0.07870878
000320 fb b2 60 bd 9d 12 40 3d e3 87 77 bd 30 ed 08 bc
       -0.05485819 0.04689275 -0.060432326 -0.008357331
000330 13 e4 45 3f ff ba 43 bd 53 e0 c4 3f 4a 00 36 3d
       0.7730114 -0.047785755 1.5380958 0.04443387
000340 af 92 76 3f 32 fa 9f 3f 61 1e db 3d ae 8d e9 bd
       0.9631757 1.2498229 0.10699154 -0.114039764
000350 d6 73 94 3d a7 53 9b bd f2 32 8e 3d 43 c6 43 bd
       0.072486565 -0.07584315 0.06943311 -0.0477965
000360 c9 f3 5a bc d0 32 91 bd 9b 98 cf 3d e8 55 97 3e
       -0.013363787 -0.0708977 0.10136529 0.2955773
000370 38 f2 86 bd 91 40 90 3d 68 a2 4f bd 31 2b 7c 3f
       -0.06589168 0.07043565 -0.050691992 0.98503405
000380 f7 fc ee bd 9d 38 33 ba cd 4a 4f bc 08 50 84 3d
       -0.11669343 -0.0006836744 -0.012652111 0.06460577
000390 b5 60 b4 3d 37 8b 45 be 96 45 e7 3d 9b a6 66 3d
       0.08807508 -0.19291387 0.11292569 0.05631123
0003a0 46 94 1e bd 6f 04 ec 3c a7 1d 14 3f d6 fc c9 3c
       -0.038715623 0.028810708 0.57857746 0.024656694
0003b0 90 a6 ba 3f 90 65 d8 bc 25 7e 6e 3d 9f e9 db 3f
       1.4582081 -0.026415616 0.05822577 1.718067
0003c0 81 3c aa 3f 88 37 51 3f af d3 53 3f 7d 7a 87 3d
       1.3299714 0.8172536 0.8274488 0.0661516
0003d0 0e 21 88 3f 44 94 07 3f d9 81 3e bd 67 2c 5e 3f
       1.0635087 0.5296061 -0.04651055 0.867865
0003e0 1b dd 40 3d a2 a7 88 bd 2d 5a 85 3d 5d 26 b8 3c
       0.047085863 -0.066725984 0.0651134 0.02247923
0003f0 ee 17 60 3d 0a 20 7b bd 41 da 23 3d 05 49 e1 3c
       0.05471032 -0.06130985 0.040003065 0.027500639

claim_weight.2.bias f4 [20]
000000 0f a6 b8 3e 22 b8 33 3d 7a 9a 25 be bb a4 f1 bd
       0.36064193 0.043876775 -0.1617221 -0.11798998
000010 b6 50 81 be 99 19 0e be cc 92 26 be 98 e5 65 be
       -0.2525689 -0.13876952 -0.16266936 -0.22450864
000020 df 22 39 be cc 55 ae bd 27 5d bb bd e0 f4 03 be
       -0.18079709 -0.08512458 -0.09148627 -0.12886381
000030 ea dd 38 be b6 08 15 bd 76 9a 3a be 56 9c 02 be
       -0.18053403 -0.03638526 -0.18222985 -0.1275495
000040 f2 dc 10 3d d6 68 4b be 1a fc 25 be b6 33 7b be
       0.03536696 -0.1986421 -0.1620945 -0.24531445

hos_weight.0.weight f4 [128, 4]
000000 83 a7 8b be 09 4f 5c be 5e 03 8c 3d c9 5a fd 3d
       -0.2727624 -0.21514525 0.0683658 0.123708315
000010 46 91 ab 3e f8 e3 87 3e 0b 29 5d bd d0 3b c9 be
       0.33509272 0.26541114 -0.05399422 -0.39303446
000020 03 ef aa 3e 9a 39 88 3f 9b 13 1f bf 6d 6c 30 3f
       0.33385476 1.0642579 -0.6213929 0.68915445
000030 d4 ca 9e 3e 18 71 fd 3e c1 9f 3f bf de e3 30 be
       0.3101412 0.49500346 -0.7485314 -0.17274424
000040 f4 33 00 3e c3 65 27 3e 67 9a c2 be 55 e6 0e bf
       0.12519819 0.16347413 -0.38008425 -0.5582021
000050 c6 87 94 3d c3 64 37 3f 17 1b 10 bf 72 55 ed 3c
       0.07252459 0.71638125 -0.56291336 0.028971408
000060 98 86 b7 3e b9 83 50 3f d7 50 93 3e 7a e7 8b 3e
       0.35844874 0.8145099 0.28772613 0.2732504
000070 11 12 a7 3e 46 56 4c bf 3e 0e 25 be f2 9c d9 be
       0.3263097 -0.7981914 -0.16118714 -0.42502552
000080 19 9d 74 be f8 d3 10 bf fb d3 4b be 10 c9 77 be
       -0.23888053 -0.5657344 -0.19905083 -0.24197793
000090 f8 f6 da 3e 92 03 e6 be 7f 53 cf 3e ff ac 24 be
       0.42766547 -0.449246 0.4049339 -0.16081618
0000a0 78 22 d2 3d e8 02 26 bf 4d 27 ee 3c 23 8f 48 bf
       0.10260481 -0.64848185 0.029071474 -0.7834341
0000b0 db 2e 1b be fd 6c 4b be 10 0f 29 3e ce 03 d1 bd
       -0.15154593 -0.19865794 0.16509652 -0.10205804
0000c0 40 65 f8 3d 7f c5 e8 be e2 b8 14 3d 0d 8e 9d be
       0.12128687 -0.45463178 0.03630913 -0.3077244
0000d0 4e 8e cc be e7 69 94 3f b7 51 61 bb 35 d9 30 3f
       -0.3995232 1.1594819 -0.0034380981 0.6908143
0000e0 5a e4 c5 3d 84 65 8d 3e 9f f6 b1 3d 79 d7 89 bd
       0.09662695 0.27616513 0.08689617 -0.06730551
0000f0 35 f0 33 be d8 c5 87 bd b9 59 da 3e 42 11 76 3e
       -0.175721 -0.066295326 0.42646578 0.24030021
000100 2b 3a b1 be 9a 81 b2 3e 50 1a 4b be 96 75 14 3f
       -0.3461469 0.34864503 -0.19834256 0.5799192
000110 1d 0e 08 3e 2e 55 84 3e bc db c4 3c 33 8a 5d 3e
       0.13286634 0.25846237 0.024030559 0.2163475
000120 db 7b d5 be b0 81 11 bf c5 06 8a 3e 07 79 f4 be
       -0.41696057 -0.5683851 0.2695829 -0.47748587
000130 db 78 28 3d 0a 2e 05 3f 9c f6 73 3e 38 32 4e 3e
       0.04113088 0.52023375 0.23824543 0.20136344
000140 95 dd 1c bf 2d 10 91 3e bc 2c c4 be 2b 14 c8 bc
       -0.6127561 0.28332654 -0.3831538 -0.02442368
000150 d3 ab 52 3d 43 92 88 bf 53 e7 65 be 7a 2d f4 be
       0.051433396 -1.0669636 -0.22451524 -0.47690946
000160 bd 46 24 bc d1 3d 0e 3f dc 71 41 3e 24 70 12 bf
       -0.010026631 0.55563074 0.1889109 -0.57202363
000170 fe 40 2c c0 44 bc 8d c0 80 c6 01 c0 ae cc 4b c0
       -2.6914668 -4.4292316 -2.0277405 -3.1843677
000180 e2 72 8a be 10 bb 99 be ef a6 f9 bd 14 38 bf 3e
       -0.27040774 -0.3002553 -0.12190043 0.37347472
000190 1a b1 4a 3e 43 89 8d be 71 84 b0 3e 97 6a 86 3d
       0.19794121 -0.27643785 0.34476045 0.06563299
0001a0 e4 e6 05 bf f6 86 ed 3c a3 ee 9d bd 8f 0a 27 bf
       -0.52305436 0.028995018 -0.07711532 -0.65250486
0001b0 a5 c9 e7 bc 84 6a 08 3f 5a 54 25 bf ae c3 1c 3f
       -0.028294394 0.5328753 -0.64581835 0.61236084
0001c0 3a 08 5e 3e df 4d 6d bd 2d 2d 73 be ee 60 a0 bd
       0.21682826 -0.05793559 -0.23747702 -0.07830988
0001d0 b9 3b 19 be 23 bc a6 3f fa 93 0d bf 1c ca 4b 3f
       -0.14964189 1.3026165 -0.5530392 0.7960527
0001e0 58 58 88 3d 4a 45 1c bf d0 fa 00 bf 03 68 2b bf
       0.06657475 -0.61043227 -0.5038271 -0.66955584
0001f0 f6 c8 01 3d 06 65 dd be 5e ad 3d be 24 f1 09 bf
       0.031685792 -0.43241137 -0.18523166 -0.53883576
000200 c3 5a b7 be fc 89 06 bf 17 c4 a4 3e 80 67 46 be
       -0.35811433 -0.525543 0.32180855 -0.1937542
000210 01 f3 e8 bf b2 1a fd bf 61 97 b1 bf 51 3a 67 be
       -1.8199159 -1.9773772 -1.3874322 -0.2258084
000220 a1 c0 72 be 90 54 2c 3f 6f 6f c6 be b2 97 a3 3e
       -0.23706295 0.6731653 -0.38756892 0.31951672
000230 13 67 86 3e 41 ce 9d 3e ba 71 11 bf 3a 38 15 bf
       0.26250514 0.30821422 -0.5681416 -0.5828892
000240 27 ad f5 bc 72 02 6f bf ed 8f 4b be c6 ef 50 bf
       -0.029989792 -0.93363106 -0.19879122 -0.81615865
000250 95 27 6e 3e 2f a4 17 be 07 41 43 3e 4f 86 ea 3c
       0.23257287 -0.14808725 0.19067775 0.028628496
000260 17 3e 26 bd dc 06 89 3e 54 6c 9e 3c 83 62 45 bc
       -0.040586557 0.26763046 0.019338764 -0.012047413
000270 a0 d3 8a bb 9b fb 2a bf 8e 71 cf bd d1 c9 07 bf
       -0.0042366534 -0.6679017 -0.10129081 -0.5304232
000280 f9 a0 09 be 7d 83 78 be a8 e2 4d be a7 b8 a4 be
       -0.13440312 -0.24268909 -0.20105994 -0.3217213
000290 cb d7 8d be 27 42 85 bf e4 f8 61 3e f3 96 e8 be
       -0.277037 -1.0410813 0.220676 -0.45427665
0002a0 81 8a d9 bb f8 05 85 3e 57 f2 c4 3e d0 36 bc 3e
       -0.0066388254 0.25981116 0.3846614 0.3676057
0002b0 21 1b 76 be b2 9e 7f 3f a0 da d9 be 63 ef 1c 3f
       -0.24033786 0.99851525 -0.4254961 0.61302775
0002c0 0c a2 1e be 9a 89 f6 3e fe 88 6e 3e 29 1c 81 be
       -0.15491503 0.48151857 0.23294446 -0.25216797
0002d0 77 ea 19 3e 21 48 08 bf 39 0b ee bd 2c 09 69 be
       0.15030847 -0.5323506 -0.11623234 -0.22757405
0002e0 88 22 32 bc 6b 14 5d 3f 57 a9 c1 bd 30 ad 35 3f
       -0.010872491 0.8635928 -0.09456127 0.7096739
0002f0 63 c7 04 3e 47 85 5b 3e 6b 0d fd 3d 67 63 36 bd
       0.12966685 0.2143756 0.12356075 -0.04452839
000300 69 5f 02 3e ec 4c 59 be 78 b3 cf 3d 6c 1c 5b 3d
       0.12731709 -0.2122075 0.10141653 0.053493902
000310 6b ec 52 be 16 ab 95 be 5d 59 8f 3e 6a 3d ae 3c
       -0.20597999 -0.2923209 0.27997866 0.021269519
000320 7d 94 a0 be 5b 60 92 3d d0 87 07 3f 22 c0 61 be
       -0.31363288 0.071472846 0.5294161 -0.22045949
000330 bc e3 03 3e 61 90 33 bf af f4 09 be 15 6e 5c 3e
       0.12879843 -0.7014218 -0.13472246 0.21526368
000340 35 5a 6f be a5 52 bd be 35 ed da 3d 5a 84 20 3e
       -0.23374255 -0.36977115 0.10689775 0.15675488
000350 46 05 98 be ea 84 0e 3d 83 fa 83 3e c7 c1 fb be
       -0.29691523 0.034794725 0.25777063 -0.49171278
000360 e4 1c 3f c0 7f 65 a2 c0 cf a1 dc bf 71 7d 58 c0
       -2.9861383 -5.0748897 -1.723688 -3.3826563
000370 14 55 c3 be f4 5e 38 be 7f ab 74 be e5 a4 c1 be
       -0.38150847 -0.18004972 -0.23893546 -0.37821117
000380 b1 ca c8 3c 7e 63 9d bf b6 4f 21 be 40 64 25 bf
       0.024510713 -1.2295988 -0.15753064 -0.64606094
000390 13 11 ac bd 6a 7e f0 be af 75 8e 3e 36 2d 3e 3e
       -0.08401694 -0.46971446 0.2782416 0.18571934
0003a0 fe 60 af 3e 56 b7 08 3d 10 b3 7b bc de 36 1e 3f
       0.34253687 0.033377968 -0.015362516 0.6180247
0003b0 77 8d 7d be 39 c3 20 bd ea e0 cf 3e 32 f7 25 3d
       -0.24760996 -0.03924868 0.40601283 0.040518947
0003c0 c2 1f 22 c0 58 69 07 c0 00 ee 4f bf e7 75 53 bf
       -2.5331883 -2.1158047 -0.81222534 -0.8260178
0003d0 f3 4b 86 be 5f 73 a5 3e 4e 3e 99 3e 3c 9e b2 be
       -0.2622982 0.32314584 0.29930347 -0.34886348
0003e0 02 dd 30 c0 b6 08 9f c0 63 46 2d c0 2d a4 a2 c0
       -2.7634892 -4.9698133 -2.707421 -5.082541
0003f0 e8 3b 07 be 7c 7d 69 3d 5d bc e1 be a7 9f ed be
       -0.13206446 0.057004437 -0.44089022 -0.46410868

hos_weight.0.bias f4 [128]
000000 1b bb a5 bd 63 32 82 3c 32 62 a5 3c ee fc b7 3d
       -0.08092328 0.015893167 0.020188425 0.089837894
000010 37 16 a9 3d 95 b4 73 3e 9f a4 92 3e d6 5c 7a be
       0.0825619 0.23799355 0.2864122 -0.24449477
000020 82 99 56 3d 4d 4c c2 be 0b d8 0e bf 58 80 d3 bc
       0.05239249 -0.37948838 -0.55798405 -0.025818035
000030 81 91 46 3e 13 64 9b 3c 9e 3b e8 be 4b 48 be be
       0.19391443 0.018968618 -0.45357984 -0.3716453
000040 c3 cf 91 3e 4a 57 bf 3d 86 d6 69 be 58 d6 81 3e
       0.28478822 0.09342821 -0.2283574 0.25358844
000050 7d 96 30 3d bc 13 eb be 97 4d 3d bc f6 68 15 3f
       0.043112267 -0.45913494 -0.011554143 0.5836328
000060 25 d7 4a bd b3 d4 cc be f3 4b 4e 3e f1 14 96 3d
       -0.049521584 -0.40006027 0.2014616 0.07328213
000070 63 de bb bc d3 6c 1e 3d c4 86 19 3e d9 97 c7 bd
       -0.02293319 0.038678 0.14992815 -0.097457595
000080 a6 dc 2e bd 2a 11 19 3f ae 06 e0 3d e7 b6 32 3d
       -0.042690895 0.59791815 0.10938774 0.04363146
000090 be 88 a5 be eb c3 d2 be 73 50 6e bd c0 85 01 be
       -0.32330889 -0.411651 -0.05818219 -0.12648678
0000a0 37 9f 8f bb e9 20 54 be e1 b5 e5 be 48 d4 8e 3d
       -0.0043829936 -0.20715679 -0.44865325 0.06974083
0000b0 2d 73 49 be 0b 3e ad bd a2 87 1c 3e d4 1e 22 be
       -0.19672842 -0.084590994 0.15286115 -0.15832072
0000c0 50 3a 66 be 06 c7 8f bd 00 3c e1 bd 8d f3 05 be
       -0.22483182 -0.070203826 -0.10997772 -0.13081188
0000d0 6a 1f e3 bc b9 6d a7 bd fa 74 3b 3f 75 6d 80 3d
       -0.02772494 -0.08175225 0.7322537 0.06270877
0000e0 2f 18 df be 96 0c 91 be 2d 86 f0 3d ad 93 2c be
       -0.43573138 -0.28329915 0.11744342 -0.16853209
0000f0 96 e5 00 3f e2 78 b2 3c bb 68 34 3f 86 7d 22 3e
       0.5035032 0.021786157 0.70472306 0.15868196
000100 62 7b f5 bc ed dc b7 be 77 78 14 3e b3 12 57 3d
       -0.02996606 -0.3591074 0.14499079 0.052508067
000110 29 28 98 bc 90 3a 2c 3e 94 13 47 3e 08 c1 b3 be
       -0.018573837 0.16819215 0.19441062 -0.3510821
000120 8e cf 66 bd cc 26 33 3e 4f 28 ca 3d 7b b9 29 bf
       -0.056350283 0.17495269 0.098709695 -0.66298646
000130 79 5c 7f bd 59 0b 73 3c d7 9b 97 bd ad 5e e8 3e
       -0.06234405 0.014834248 -0.07402771 0.45384732
000140 31 f7 a2 3d 45 ef dc be 81 a2 e4 3c 32 3c a3 3e
       0.07957304 -0.43151298 0.02790952 0.31881863
000150 2b e4 3e 3e a3 23 47 3a 5d 80 fb 3e 2c 3f 15 bc
       0.18641727 0.0007596558 0.4912137 -0.0091093
000160 62 a6 b0 be dd 7c d8 be 5e d9 33 be 81 f4 11 bd
       -0.3450194 -0.42282763 -0.17563388 -0.035633568
000170 7c 93 97 be 75 94 e5 be b4 5e 0b 3e 1d 37 ae be
       -0.2960471 -0.44839826 0.13610345 -0.34026423
000180 78 ab 0d 3f 24 ee ae bd 12 7a 2f be 9b 08 66 bc
       0.55339766 -0.085415155 -0.1713641 -0.014040138
000190 ca 14 6b 3c cd e5 d5 bd 2d f4 4c 3e 19 39 44 3e
       0.014348218 -0.10444222 0.2001502 0.19162406
0001a0 58 1d a7 bd c4 d3 fd 3d db ff 97 3d e6 08 dd 3c
       -0.08159894 0.12393907 0.074218474 0.026981782
0001b0 98 53 37 3e 6d 6b 32 3e 51 e3 16 bf d9 d2 7d 3e
       0.17902982 0.17423792 -0.5894061 0.24787463
0001c0 f6 3b 9a be d7 3a 41 3e 8b 39 16 3f a2 22 19 bf
       -0.30123872 0.18870102 0.58681554 -0.5981847
0001d0 27 6f 26 bf 12 eb 11 3e 42 68 10 3f 25 78 b4 be
       -0.65013355 0.14249828 0.56409085 -0.35247913
0001e0 e7 76 da bb ac 32 d7 bd c3 71 24 3e 1c 37 fe 3e
       -0.0066670063 -0.10507712 0.16059022 0.4965142
0001f0 d9 ef 2b be 31 f5 6a be 8c 81 be bd 8b 96 f9 3e
       -0.16790713 -0.22945096 -0.09302053 0.48747668

hos_weight.2.weight f4 [4, 128]
000000 14 0d 19 3d 91 a8 05 3e 3d 4e 85 bd 3a 59 49 3d
       0.037365988 0.13052584 -0.065090634 0.04915736
000010 f0 01 83 3d b1 03 31 3d 3b bd a1 bd f6 5a 75 3d
       0.06396854 0.04321641 -0.07897421 0.0599012
000020 4a b5 be 3d 97 a6 2e 3d d7 a2 c9 3d 33 71 3e bd
       0.09311922 0.04263934 0.09845512 -0.046494674
000030 fc 8f 65 3d 04 65 44 be f4 bd 82 bd 8b cf 05 bd
       0.056045517 -0.1917916 -0.06383887 -0.03266863
000040 0b 92 83 bb 5c 81 9f 3c b7 d7 c8 3c be d1 d4 3a
       -0.0040152124 0.019470863 0.024516923 0.0016236824
000050 f9 42 1a 3e e9 6c d8 bd 8b 29 21 3d a6 1e 5f 40
       0.1506461 -0.10567648 0.03934626 3.4862456
000060 45 81 af 3c 11 5b cb bd 50 e4 e1 3c a1 d2 08 be
       0.021423945 -0.09929479 0.027574688 -0.13361599
000070 06 83 a5 bd 0e b3 82 be b3 de 51 3d cc c7 49 3d
       -0.08081631 -0.25527233 0.051237773 0.049262807
000080 82 11 43 3e 64 0f 12 3f fd 8d e3 bd 3f da 0c 3d
       0.19049647 0.57054734 -0.111110665 0.034387823
000090 7e 71 97 3d 8b 16 70 bd 48 a6 c6 3b 3f fe 1b 3d
       0.07394694 -0.05861525 0.0060623027 0.038084265
0000a0 30 e2 55 3d 49 80 89 3d df 65 01 be ec ca f0 bd
       0.052217662 0.067139216 -0.12636517 -0.11757454
0000b0 05 43 9e bd 36 c4 ea 3c 3c 05 72 bd 3a 71 98 3c
       -0.07727627 0.028658014 -0.059087023 0.018608678
0000c0 90 54 67 3b 17 a0 87 bd 06 74 3f bd 8c 52 65 3b
       0.0035298206 -0.066223316 -0.046741508 0.0034991829
0000d0 45 27 4d bc dd d2 06 bc 3a aa 83 40 c9 93 98 3e
       -0.01252157 -0.008228985 4.1145296 0.2980025
0000e0 19 49 8a 3e 7e 7c d1 bc b5 18 b9 3c 43 bc 30 3d
       0.27008894 -0.025572058 0.022594789 0.04314829
0000f0 91 dc c8 3f 54 c3 81 3a 49 34 2f 40 cd bc a2 3d
       1.5692312 0.0009900131 2.7375662 0.07946167
000100 89 1a 47 3d 3b c8 16 bd 32 1d 9b 3d c5 4b 3a 3d
       0.04860929 -0.03681205 0.07573928 0.045482416
000110 df e8 6f bd 63 f3 1d 3d 8f d0 07 3d ce de f3 bd
       -0.058571693 0.03856219 0.03315788 -0.11907731
000120 c2 a1 df bb 7e 3e db 3c e4 27 87 be ca 08 70 be
       -0.006824703 0.026763197 -0.26397622 -0.23440853
000130 99 f5 af 3d 36 db b4 bd eb 07 63 bc e6 36 74 3f
       0.08591766 -0.08830874 -0.013856868 0.9539627
000140 4c 9f 61 3d 14 4c 6c 3c e3 8b 70 3d 2d 22 3d 3f
       0.055083558 0.014422435 0.058727156 0.73880273
000150 59 f0 cc bd 17 bf 14 3d ff 2c ab 3f de b4 be bd
       -0.1000678 0.03631505 1.3373107 -0.093118414
000160 73 b8 a0 be b3 b5 0a bd 9b b4 1b 3e c8 aa 50 3d
       -0.31390724 -0.033864688 0.15205614 0.05094412
000170 b3 ba 6e be 6f 99 24 3e e0 c3 a0 3c cf 3d 80 bd
       -0.23313408 0.16074155 0.01962465 -0.06261789
000180 f6 5a e9 3f 58 ab 82 3d e5 37 b4 bc 36 9e 17 3d
       1.8230884 0.063803375 -0.021999309 0.037016116
000190 7d a1 df 3c 85 94 cb 3c 36 76 6a 3d 9f 44 d1 3e
       0.027298683 0.024851093 0.05724164 0.40872666
0001a0 9e 2e f3 3d 34 a2 87 bd fe 84 b9 3d 2e 09 2b 3c
       0.11874126 -0.06622735 0.09058569 0.0104392
0001b0 49 46 26 3f 66 fb c9 3d 18 6b 0f 3d fb cf de 3c
       0.64950997 0.098624036 0.035014242 0.027198782
0001c0 99 39 d9 3d d7 93 54 3d 3a 8f 4d 3f e8 ff 68 be
       0.10606689 0.051898804 0.8029667 -0.2275387
0001d0 82 28 92 bd b6 44 03 3f 90 83 ab 3f 8d 40 cd 3d
       -0.071366325 0.5127672 1.3399525 0.10022078
0001e0 1c 61 1b bc bd a8 12 bc 20 57 ee 3c 60 88 b2 3f
       -0.009483602 -0.008951363 0.029094279 1.3947868
0001f0 67 ba 19 bc bf 7c 14 be e1 e3 4b be dc 0c 5a 3f
       -0.009382821 -0.14500712 -0.19911148 0.8517587
000200 1b 44 7f 3e b1 32 38 bf 8c 78 82 bf 98 f5 9f be
       0.24928324 -0.7195235 -1.0193038 -0.3124206
000210 4f 4e 93 bd 44 b4 bb be e6 c7 df be 34 ed 88 3e
       -0.071926706 -0.3666097 -0.43707198 0.26743472
000220 96 8a ac 3e 5b ec bf 3d 16 42 f6 3e dd b5 98 3e
       0.33699483 0.09371253 0.48097295 0.2982625
000230 93 11 54 be 57 4a 14 bf 08 10 d3 3d 73 9c 13 bc
       -0.20709829 -0.57925934 0.10305792 -0.009009468
000240 9e 0e 04 bf 91 cd 98 be ba 94 fb 3e 11 c1 cc be
       -0.51584804 -0.29844335 0.49136907 -0.39991048
000250 b5 fe 37 3d 14 bd be 3e 9c dc 66 be e9 fb 9e 40
       0.044920642 0.3725363 -0.22545093 4.9682508
000260 aa 30 c4 3d 78 d8 55 bd 8e 2f 50 be b4 d7 d0 bd
       0.095795944 -0.052208394 -0.2033064 -0.10197392
000270 22 48 b1 bd 64 e5 01 bf 42 93 94 bd 43 45 a1 3e
       -0.08656336 -0.5074065 -0.0725465 0.31498155
000280 51 87 82 3e cf e8 fe 3e 6c 0c c2 bd 7a bb 11 be
       0.25493863 0.49786994 -0.094750255 -0.14231673
000290 85 13 cb 3e 47 79 a6 bd 7c 85 6b be 43 c7 a0 3e
       0.3966333 -0.081286006 -0.23000139 0.31402025
0002a0 ef b3 a8 bd b3 b5 d7 3e 2e d4 78 be 41 c9 d1 be
       -0.082374446 0.42130813 -0.2429969 -0.40973857
0002b0 bf 38 5e 3d bb d0 50 3e 9d d1 be be 95 24 6f be
       0.054253336 0.20392124 -0.37269297 -0.23353799
0002c0 3d 20 78 3d 6f 55 9c 3e 61 ca a0 3e c6 1a 87 3e
       0.06057762 0.3053393 0.31404403 0.26387614
0002d0 2e ae 56 3e 0f 27 7c 3e 88 f5 8c 40 25 cc af 3e
       0.20964882 0.24624275 4.404972 0.34335437
0002e0 19 9d ca 3e 0f 3e c1 3e c1 b1 f3 be 77 00 5a bc
       0.3957298 0.3774266 -0.47596553 -0.013305775
0002f0 33 48 c4 3f d6 cc 87 3d 29 d9 c6 40 f4 fc 20 be
       1.5334533 0.06630866 6.214009 -0.15721494
000300 bb fb be 3d 53 a1 d4 bc da 33 9d be c3 17 98 be
       0.093253575 -0.025955832 -0.30703622 -0.2970563
000310 02 be c5 be 34 82 9f be 22 4d 60 be 9d da a1 3d
       -0.38621527 -0.31154025 -0.21904424 0.07903025
000320 e5 f7 e0 bd 85 f7 2a be 0a 73 42 bf b1 02 6e 3d
       -0.10984782 -0.16695984 -0.75956786 0.058108035
000330 c4 b0 fa be f5 5a ac be 82 2e 38 3e e5 fe cb 3f
       -0.48962986 -0.33663145 0.17986491 1.5937163
000340 bb 1e 89 be 66 c2 ef 3e 35 59 16 3d ce 94 5a 3e
       -0.26781258 0.46828002 0.03670617 0.21345827
000350 a2 fc b8 be 2e d0 d6 be 94 6f eb 3f 9a 07 3d 3c
       -0.36130244 -0.41955703 1.8393426 0.011537457
000360 e2 af ff ba 0e 4e 99 3e 8e 2d fd 3e c8 0e d3 be
       -0.0019507373 0.29942364 0.49448818 -0.41222215
000370 9c 41 23 be f6 a3 a2 3e 60 a3 1b be 68 ea f3 3d
       -0.15942997 0.31765717 -0.15199041 0.11909944
000380 ce 83 3c 40 eb 2b 6d 3e 62 56 cd bd 56 2d f8 be
       2.9455447 0.23161285 -0.10026242 -0.4847209
000390 68 9e 0f be 88 7f 81 3e 84 40 92 3d 3d 31 e1 be
       -0.14025271 0.2529261 0.07141212 -0.43982878
0003a0 61 31 df 3e 8b 2c a8 be a4 5a 0e bb 71 e2 15 bb
       0.4359236 -0.32846484 -0.0021721506 -0.0022870565
0003b0 c6 24 9d 3e 24 09 13 be 9b bd 78 3d 35 9c a9 be
       0.30692118 -0.14358956 0.060727697 -0.3312699
0003c0 e6 6a 8d 3d d4 07 79 be d4 20 88 3e e9 e9 c6 3e
       0.06905155 -0.24319392 0.26587546 0.38850334
0003d0 0c e0 af 3d 55 03 7b 3e 36 cd 8b 3f 29 4d 72 3e
       0.085876554 0.2451299 1.0922 0.23662247
0003e0 f1 4b 5d bd 6b 6e c9 3e 01 ce a7 be 1e 52 3e 3f
       -0.0540275 0.39342055 -0.32774356 0.7434405
0003f0 78 9f 8d 3e 1c 13 56 bd 2f 24 32 bd 95 94 1c 3f
       0.27660728 -0.052264318 -0.04349154 0.6116422

hos_weight.2.bias f4 [4]
000000 0c bc d4 bd b7 3c f5 be a2 7f 13 be 55 ab 20 be
       -0.103874296 -0.47897884 -0.14404157 -0.15690358
