model/hoist_3.pth (torch, 470886 bytes, 22 tensors)

covid_weight.0.weight f4 [128, 1]
-1.2643672 -3.9100122 -0.83102286 -4.0053296 0.009030395 -0.98760515 -0.005249973 0.24201834
0.15184438 1.0099677 0.035621174 0.6166449 -0.6448403 -0.28671494 -4.0438175 -0.046771795
-0.7150407 1.0962859 0.8965865 0.9974924 0.42941526 -0.4957728 0.8012357 -1.1603515
-2.7905817 -0.9527302 -0.603082 0.5113394 -1.3170087 -5.021718 -0.532914 0.5086388
-0.938292 -4.1466136 -0.8524036 -0.9609275 0.12584144 -0.9176532 -0.901921 -0.057186414
0.24911216 -0.4753299 -0.7855098 -2.9478204 0.741795 -0.23765114 -1.6297684 -0.2597699
-0.51193094 1.0389875 0.6055671 -0.06778089 -0.16251396 1.1348886 0.46057913 -0.16032867
-2.47205 0.8329999 0.61781853 -0.88206077 0.71750087 0.019001672 -1.0457809 -0.60917276
-0.98075664 -4.090437 0.14593932 -0.9727038 0.36970103 0.5894607 0.2239054 0.4486119
-0.4637296 0.16360964 0.6181099 0.015861008 0.17396788 0.93089396 -0.0315725 0.37567848
-1.199123 -1.1010338 -1.1392459 -0.037055857 1.0440555 -3.1987245 0.017757619 -0.5424279
-1.8514855 -0.47908837 -2.0239637 0.10642512 -0.49570197 0.83228123 0.14276053 0.44560358
-0.88072544 0.7394494 -0.40461603 -3.829605 0.1605477 0.23020336 0.059473794 -0.25930086
0.33595508 -0.5210825 -0.34325722 -0.77161604 0.41395596 -2.4878597 0.26904282 0.598707
-4.0404468 -1.3346628 -0.28387108 -6.7302384 0.71889406 0.63262916 -0.09525909 0.58568907
0.26889414 -4.3911576 -1.5690483 -0.5578242 -1.3390396 -0.07324302 0.38363522 0.34703574
00000000: c9d6 a1bf a43d 7ac0 eabd 54bf a92b 80c0
00000010: 39f4 133c b1d3 7cbf f707 acbb a8d3 773e
00000020: 187d 1b3e 9f46 813f 82e7 113d 71dc 1d3f
00000030: 4114 25bf 4dcc 92be f466 81c0 c893 3fbd
00000040: e80c 37bf 1953 8c3f b186 653f a95b 7f3f
00000050: 51dc db3e efd5 fdbe c81d 4d3f 6686 94bf
00000060: e498 32c0 20e6 73bf 9563 1abf 24e7 023f
00000070: be93 a8bf eab1 a0c0 0d6d 08bf 2736 023f
00000080: e833 70bf 0fb1 84c0 1f37 5abf 58ff 75bf
00000090: 94dc 003e 52eb 6abf 4be4 66bf 4d3c 6abd
000000a0: 4217 7f3e 715e f3be 2c17 49bf 17a9 3cc0
000000b0: 47e6 3d3f d25a 73be 409c d0bf 8f00 85be
000000c0: e80d 03bf 8bfd 843f 7206 1b3f b5d0 8abd
000000d0: 0f6a 26be 0844 913f 07d1 eb3e 332d 24be
000000e0: 1136 1ec0 7b3f 553f 5b29 1e3f bcce 61bf
000000f0: 23ae 373f 65a9 9b3c 26dc 85bf bff2 1bbf
00000100: de12 7bbf dce4 82c0 1e71 153e 1e03 79bf
00000110: 7449 bd3e e5e6 163f 7547 653e 75b0 e53e
00000120: f76d edbe 4989 273e 733c 1e3f f2ee 813c
00000130: a324 323e 114f 6e3f 2a52 01bd ee58 c03e
00000140: dd7c 99bf adee 8cbf cfd2 91bf e2c7 17bd
00000150: 9ca3 853f e7b7 4cc0 6d78 913c 8edc 0abf
00000160: 7afd ecbf 124b f5be 9f88 01c0 6af5 d93d
00000170: a6cc fdbe 6210 553f d12f 123e 2726 e43e
00000180: 3977 61bf 8e4c 3d3f d529 cfbe 4018 75c0
00000190: 9e66 243e 6eba 6b3e cb9a 733d 15c3 84be
000001a0: 4e02 ac3e aa65 05bf 69bf afbe a188 45bf
000001b0: 09f2 d33e 1839 1fc0 fbbf 893e dd44 193f
000001c0: 574b 81c0 3bd6 aabf 8d57 91be 1d5e d7c0
000001d0: 7109 383f fcf3 213f 3317 c3bd b8ef 153f
000001e0: 7eac 893e 5d84 8cc0 93d6 c8bf 91cd 0ebf
000001f0: a665 abbf 7000 96bd d66b c43e abae b13e

covid_weight.0.bias f4 [128]
-0.05451368 0.21600062 0.35013768 0.25950134 0.060681563 -0.07419515 -0.37048212 -0.05860857
-0.043817915 0.39342934 -0.24763219 -0.10542324 -0.120982006 -0.008131855 0.26196876 0.0049335123
-0.18027695 -0.013580653 -0.014092814 -1.0042914 0.11627794 0.5513016 -0.8042507 0.2118568
0.1192475 0.235637 0.08497953 -0.4883592 0.43753794 0.2160934 -0.041371416 -0.4476958
-0.5650347 0.17746177 -0.03434482 0.1980252 -0.30147335 -0.17212233 0.28627 -0.00806999
-0.07924368 -0.1900131 0.32538602 0.12710285 -0.7258292 0.030601537 0.6642335 0.03333702
-0.31625825 0.19511391 0.123614386 -0.07752991 0.1947658 -0.00011739986 0.019992737 0.29364666
0.10434161 -0.07493231 0.05537214 0.09403761 -0.7048916 -0.05766527 0.25936246 -0.36106196
-0.35787073 0.23019545 0.03980124 0.17638904 -0.10322168 -0.065290555 -0.2704135 0.26822203
-0.11757157 0.34539 -0.056938093 0.079370156 0.34049237 -0.2620499 0.021309266 -0.34899795
0.2470016 -0.4230798 -0.47773734 -0.24072391 0.6820147 0.13705264 -0.054048 -0.2175149
0.7650408 -0.3177777 0.084374346 -0.028883783 -0.19261687 -0.80207926 -0.1743726 0.18852624
0.14324768 -0.019745257 0.0017267887 0.16378352 0.009598507 -0.4008046 -0.071520425 0.3684074
0.4408472 0.092993975 0.046616353 0.28762606 -0.46787325 0.10449646 -0.07712112 0.13731422
0.1725645 0.5240135 -0.3266976 0.30070883 -0.07860069 0.04500252 0.010168754 0.20530915
-0.28407 0.42810068 0.6311405 0.08444039 0.30728403 -0.3812085 -0.09202826 -0.3794383
00000000: bd49 5fbd 442f 5d3e 3f45 b33e 5cdd 843e
00000010: 3b8d 783d a0f3 97bd d5af bdbe 8a0f 70bd
00000020: 6a7a 33bd 926f c93e 4b93 7dbe 24e8 d7bd
00000030: 6ac5 f7bd 793b 05bc c520 863e 4da9 a13b
00000040: 859a 38be 6381 5ebc 8ce5 66bc 9f8c 80bf
00000050: 2123 ee3d 1a22 0d3f 60e3 4dbf fdf0 583e
00000060: 0938 f43d d34a 713e bf09 ae3d 380a fabe
00000070: f904 e03e 9747 5d3e 1375 29bd 6238 e5be
00000080: 1da6 10bf 8ab8 353e 27ad 0cbd 1ec7 4a3e
00000090: b75a 9abe d640 30be fb91 923e fe37 04bc
000000a0: 834a a2bd cb92 42be ff98 a63e 4027 023e
000000b0: f1cf 39bf 13b0 fa3c 350b 2a3f 668c 083d
000000c0: 9aec a1be f1cb 473e 8a29 fd3d 00c8 9ebd
000000d0: b070 473e 9234 f6b8 cfc7 a33c db58 963e
000000e0: 0eb1 d53d 1c76 99bd e6cd 623d ca96 c03d
000000f0: c773 34bf 6b32 6cbd 28cb 843e 1ddd b8be
00000100: d53a b7be 5bb8 6b3e a006 233d 549f 343e
00000110: e365 d3bd 0eb7 85bd a373 8abe 6654 893e
00000120: 5dc9 f0bd f5d6 b03e eb37 69bd d28c a23d
00000130: 0455 ae3e 682b 86be c590 ae3c dcaf b2be
00000140: fded 7c3e ea9d d8be fd99 f4be 5480 76be
00000150: 8498 2e3f 8757 0c3e 7061 5dbd 3abc 5ebe
00000160: b7d9 433f c2b3 a2be 75cc ac3d af9d ecbc
00000170: 5b3d 45be 1155 4dbf bb8e 32be 060d 413e
00000180: 85af 123e cec0 a1bc 6a55 e23a deb6 273e
00000190: 0e43 1d3c 4336 cdbe 4d79 92bd e59f bc3e
000001a0: b9b6 e13e a073 be3d caf0 3e3d b943 933e
000001b0: 158d efbe 3d02 d63d aef1 9dbd 199c 0c3e
000001c0: c0b4 303e c025 063f e844 a7be 82f6 993e
000001d0: 66f9 a0bd 9054 383d d89a 263c 903c 523e
000001e0: 9f71 91be 0330 db3e 6c92 213f 15ef ac3d
000001f0: 5554 9d3e c32d c3be 5079 bcbd bd45 c2be

covid_weight.2.weight f4 [1, 128]
0.22177957 2.1046243 -0.0028643222 2.728843 -0.016549643 -0.10959563 -0.05128838 -0.01235404
-0.0081951255 -0.20157482 -0.01753281 -0.041141618 0.05160877 0.055251826 2.1635826 0.00053371175
-0.26776412 -0.14646564 -0.09577947 -0.17138202 -0.06927949 -0.06977858 -0.02826312 -0.0037511343
0.78625727 -0.004791525 0.0005764509 0.0018746017 0.042264223 6.29979 -0.013776168 -0.02563087
0.18692504 1.887983 -0.006730938 0.00015022169 0.02975578 0.07043229 0.04430417 0.011254961
-0.042494945 -0.13183428 0.3282357 0.76860523 0.01073399 0.0010549432 0.25757852 0.0009289074
-0.12437746 -0.10367649 -0.06410418 0.019415366 -0.023736881 -0.18079625 -0.022586865 -0.02766089
0.5358999 -0.05823763 -0.09699339 0.00991345 0.007112956 -0.016463447 -0.0039018788 0.12433754
0.19069219 1.8276094 -0.029690322 -0.003768654 -0.033068914 -0.036885045 -0.03435612 -0.050105583
-0.083512604 -0.10288557 -0.029026125 -0.011036456 -0.06714815 -0.15421148 -0.0017071317 0.037137304
-0.0022378038 0.20669407 0.20658362 0.057111047 -0.17756623 0.43983722 -0.0032921622 0.05606633
0.69111603 -0.33199894 0.24431656 -0.0028038926 0.05318334 0.0069240015 -0.05643833 -0.06990279
-0.0013693457 -0.100821234 0.05255204 0.41439033 -0.009663013 0.030553149 -0.022193177 -0.06368586
-0.118923575 -0.0025535494 0.0009149393 -0.006459572 0.04466254 0.54179937 -0.02683888 -0.06489237
0.78543866 0.102214076 0.04985706 10.252201 -0.028601564 -0.039194185 0.0015438317 -0.0566917
0.028176656 3.272979 0.10508053 -5.3724012e-05 -0.0015394472 0.039308373 -0.040424757 0.019961327
00000000: 2f1a 633e 2ab2 0640 5ab7 3bbb 5da5 2e40
00000010: 1e93 87bc ac73 e0bd c413 52bd 9968 4abc
00000020: d944 06bc a169 4ebe f8a0 8fbc 1d84 28bd
00000030: b863 533d bd4f 623d 2378 0a40 cae8 0b3a
00000040: 6118 89be 17fb 15be 0728 c4bd c57e 2fbe
00000050: 68e2 8dbd 12e8 8ebd 0f88 e7bc 97d5 75bb
00000060: 2848 493f 3a02 9dbb f71c 173a 32b5 f53a
00000070: 401d 2d3d e197 c940 70b5 61bc d5f7 d1bc
00000080: 4769 3f3e 6da9 f13f 338f dcbb d484 1d39
00000090: 65c2 f33c ce3e 903d 4a78 353d ba66 383c
000000a0: 2e0f 2ebd 91ff 06be 820e a83e 50c3 443f
000000b0: 9edd 2f3c 0546 8a3a 55e1 833e ec81 733a
000000c0: 9cb9 febd 5754 d4bd 0d49 83bd f90c 9f3c
000000d0: d973 c2bc a722 39be 1708 b9bc 1799 e2bc
000000e0: bc30 093f 958a 6ebd 78a4 c6bd 066c 223c
000000f0: cd13 e93b 5ade 86bc aab6 7fbb aea4 fe3d
00000100: d044 433e 1bef e93f 1e39 f3bc 86fb 76bb
00000110: 4573 07bd c614 17bd 01b9 0cbd 833b 4dbd
00000120: a808 abbd abb5 d2bd 32c8 edbc 40d2 34bc
00000130: f884 89bd 9de9 1dbe d6c1 dfba 491d 183d
00000140: 1ea8 12bb 9ca7 533e a88a 533e 46ed 693d
00000150: ecd3 35be 5832 e13e 51c1 57bb cfa5 653d
00000160: fbec 303f c4fb a9be 1f2e 7a3e 83c1 37bb
00000170: c6d6 593d bce2 e23b e12b 67bd 3229 8fbd
00000180: 9e7b b3ba 5d7b cebd cf40 573d f82a d43e
00000190: 9d51 1ebc 994a fa3c 77ce b5bc bb6d 82bd
000001a0: 348e f3bd 7359 27bb 89d8 6f3a d1aa d3bb
000001b0: 11f0 363d 5db3 0a3f 36dd dbbc 4ae6 84bd
000001c0: 8212 493f 9d55 d13d eb36 4c3d 0409 2441
000001d0: d44d eabc 158a 20bd 655a ca3a 8e35 68bd
000001e0: bbd2 e63c 7d78 5140 7634 d73d b855 61b8
000001f0: 47c7 c9ba d101 213d 6e94 25bd f085 a33c

claim_weight.0.weight f4 [128, 20]
-0.32042915 -0.05754913 -0.33827537 -0.31403622 -0.3828259 0.0609416 -0.04651813 -0.04152819
-0.08916892 0.15437183 -0.14444326 -0.09880879 -0.2539328 -0.26257753 -0.30098554 0.056475952
0.06745107 -0.24594928 -0.08424545 0.07744189 -0.02748382 -0.13199104 -0.18951923 -0.26577482
-0.20436296 0.028701479 0.15431987 -0.09602392 0.1030677 -0.14196363 0.0012361133 0.09144817
-0.2447595 -0.09408446 -0.15318552 -0.1106828 0.1246291 -0.17286503 0.108738095 -0.05280379
-0.05631312 -0.25359625 -0.53390664 -0.18698266 0.58849245 0.05082799 0.047757335 -0.43245238
-0.06373512 0.42722198 -0.43535402 -0.04773472 -0.2268105 0.09878154 -0.53902 0.006625542
-0.096105576 0.0680432 0.11952534 0.53026724 -0.13561511 -1.0599494 -0.9575764 -0.8009949
-1.1192348 -0.35292292 -0.07564171 -1.1233435 -0.9311616 -0.16948831 -0.71792716 -1.3498552
-0.81231046 -0.26588932 -0.26173845 0.3534197 -0.34337655 -0.10128895 -0.37390408 -0.80280185
0.370379 0.24451245 0.39885825 0.21516979 -0.00078486337 -0.14664188 0.16147333 0.045443907
-0.3004909 -0.059738386 0.10299178 -0.19234768 -0.083388776 -0.01688159 0.3843302 0.16314346
-0.1184721 0.16842866 0.29413125 0.08745474 -0.053135168 0.08361133 -0.0652254 -0.24587491
0.047531698 -0.2348691 -0.061449815 0.049782485 -0.2599659 0.055937365 -0.27591366 -0.08325317
0.052983906 0.14121564 0.034371283 -0.008250992 0.062993646 -0.12719548 -0.01879824 -0.13331407
-0.3855112 -1.7170968 -1.8153892 -0.7634786 -1.557887 -0.8910734 -0.41501668 -1.6902016
-1.0109129 -1.1267802 -1.5968271 -0.8079091 -1.4799986 0.376761 -0.28642166 -2.6098332
-0.7119092 -1.6664354 -0.7091546 -2.0027273 0.21218807 0.18583955 0.14180177 0.06503463
-0.30610833 -0.38219714 0.15132555 -0.303475 0.20040987 -0.3820675 0.29846263 -0.12740164
-0.14981687 -0.23957333 0.3281214 0.068161584 0.007963896 -0.13162 0.07020108 -0.17430656
0.73414874 -0.8687264 -0.75243145 -0.6912059 -0.84162414 -0.84331197 -1.0088276 -0.97690666
-0.74187255 -1.1972936 -0.52256703 -1.0223349 -1.0719589 -0.03178651 -0.9335136 -0.76862115
-0.5194959 -0.18106806 -0.47451177 -0.9785546 -0.311372 0.1432884 -0.10029854 -0.068585254
-0.019587755 -0.08952905 -0.14774409 0.087686986 0.08082629 0.2577165 -0.30983064 0.010022432
0.12512189 0.08809005 -0.2797419 -0.098005615 0.31804585 -0.1478906 0.09055447 0.021440048
-0.011917862 -0.007299136 -0.13637583 -0.14486307 -0.032702938 -0.006752881 -0.29063648 0.099497594
-0.058962118 0.03431548 -0.24234624 0.03456742 0.03688591 -0.098564364 0.14020456 -0.055780124
0.054770105 -0.06988174 -0.037167273 -0.039783224 0.40897262 -1.1976686 -1.2899699 -0.6239863
-0.7324825 -0.936479 -1.3015896 -0.88928294 -1.2012635 -1.2623397 -1.2094034 -0.03492781
-1.0577222 -0.22192758 -1.6065966 0.23042455 -1.2008362 -0.44686306 -0.5475756 -1.0879172
-0.05558714 -0.20297451 0.108777 -0.1464632 0.14330277 -0.03610229 0.07068058 0.02963089
-0.015258767 -0.07807497 -0.20671822 -0.21968389 -0.22097464 0.15863478 0.087488234 0.15038845
00000000: 4a0f a4be a3b8 6bbd 6e32 adbe 5bc9 a0be
00000010: c201 c4be e69d 793d cb89 3ebd 7719 2abd
00000020: 329e b6bd a613 1e3e efe8 13be 435c cabd
00000030: 7b03 82be 9070 86be c71a 9abe 5453 673d
00000040: c923 8a3d 21da 7bbe e188 acbd db99 9e3d
00000050: c025 e1bc a928 07be 5411 42be a313 88be
00000060: 8644 51be 5d1f eb3c 0706 1e3e 30a8 c4bd
00000070: 2915 d33d ea5e 11be 1405 a23a 2e49 bb3d
00000080: 3ca2 7abe 5aaf c0bd aadc 1cbe aaad e2bd
00000090: 8b3d ff3d 8803 31be 14b2 de3d c948 58bd
000000a0: 96a8 66bd 5ed7 81be 1bae 08bf 6278 3fbe
000000b0: 71a7 163f 0331 503d 329d 433d 666a ddbe
000000c0: 8f87 82bd d7bc da3e b9e6 debe 7b85 43bd
000000d0: 0341 68be fa4d ca3d 37fd 09bf 131b d93b
000000e0: 00d3 c4bd 3c5a 8b3d b4c9 f43d 98bf 073f
000000f0: b0de 0abe 6cac 87bf ba23 75bf 000e 4dbf
00000100: 1643 8fbf 50b2 b4be 0aea 9abd b8c9 8fbf
00000110: 9b60 6ebf 588e 2dbe 13ca 37bf 0ec8 acbf
00000120: 94f3 4fbf a522 88be 9502 86be 6df3 b43e
00000130: 0dcf afbe 9570 cfbd 5b70 bfbe 6c84 4dbf
00000140: 51a2 bd3e 7961 7a3e 2637 cc3e 7855 5c3e
00000150: 4abf 4dba 4a29 16be 4459 253e 6423 3a3d
00000160: f1d9 99be 3db0 74bd 5bed d23d caf6 44be
00000170: bcc7 aabd 434b 8abc eec6 c43e 140f 273e
00000180: 80a1 f2bd 9078 2c3e 5f98 963e 791b b33d
00000190: 43a4 59bd 6b3c ab3d e594 85bd a2c6 7bbe
000001a0: 99b0 423d 8681 70be cdb2 7bbd b8e8 4b3d
000001b0: 401a 85be 941e 653d 8e44 8dbe a380 aabd
000001c0: a705 593d d59a 103e e7c8 0c3d 2b2f 07bc
000001d0: d002 813d 883f 02be c4fe 99bc 7c83 08be
000001e0: b961 c5be d4c9 dbbf ac5e e8bf 5573 43bf
000001f0: d768 c7bf 631d 64bf 117d d4be 8758 d8bf
00000200: 9865 81bf 553a 90bf d564 ccbf 21d3 4ebf
00000210: 9870 bdbf d1e6 c03e dca5 92be 8207 27c0
00000220: ae3f 36bf c14d d5bf 288b 35bf af2c 00c0
00000230: d447 593e b94c 3e3e 7c34 113e e030 853d
00000240: 3bba 9cbe 58af c3be 16f5 1a3e 1361 9bbe
00000250: 3f38 4d3e 5a9e c3be 18d0 983e 9375 02be
00000260: 9869 19be b652 75be 87ff a73e 4d98 8b3d
00000270: 007b 023c 65c7 06be 95c5 8f3d 6b7d 32be
00000280: 2cf1 3b3f da64 5ebf 599f 40bf dff2 30bf
00000290: ae74 57bf 4be3 57bf 4321 81bf 8e16 7abf
000002a0: 5ceb 3dbf eb40 99bf f4c6 05bf dfdb 82bf
000002b0: f335 89bf 9232 02bd bffa 6ebf 5bc4 44bf
000002c0: affd 04bf e869 39be 35f3 f2be 8e82 7abf
000002d0: 276c 9fbe 32ba 123e 5269 cdbd 6d76 8cbd
000002e0: 8076 a0bc 025b b7bd 3a4a 17be 3c95 b33d
000002f0: 4188 a53d 6bf3 833e 1fa2 9ebe 2035 243c
00000300: f41f 003e 8e68 b43d 553a 8fbe 2bb7 c8bd
00000310: e8d6 a23e a270 17be 9f74 b93d 0aa3 af3c
00000320: 2343 43bc 972d efbb 1ba6 0bbe fc56 14be
00000330: 84f3 05bd 4647 ddbb 4ece 94be 65c5 cb3d
00000340: 4382 71bd 648e 0c3d 9d29 78be 9196 0d3d
00000350: ae15 173d 1ddc c9bd c991 0f3e b379 64bd
00000360: 9e56 603d 281e 8fbd b63c 18bd bcf3 22bd
00000370: dc64 d13e 344d 99bf bc1d a5bf 91bd 1fbf
00000380: f983 3bbf 16bd 6fbf 7d9a a6bf 0ca8 63bf
00000390: 01c3 99bf 5994 a1bf bbcd 9abf 7710 0fbd
000003a0: 7163 87bf fc40 63be f5a4 cdbf 6af4 6b3e
000003b0: 00b5 99bf 3ccb e4be ea2d 0cbf df40 8bbf
000003c0: 57af 63bd 8dd8 4fbe 7ac6 de3d 73fa 15be
000003d0: f6bd 123e ffdf 13bd fbc0 903d 7bbc f23c
000003e0: e8ff 79bc c5e5 9fbd f1ad 53be d0f4 60be
000003f0: 2d47 62be 2871 223e 082d b33d 6eff 193e

claim_weight.0.bias f4 [128]
0.31183586 -0.020383611 -0.08481374 0.5940821 -0.13762304 -0.0024382416 1.0506327 -0.065700985
0.719037 -0.08346396 0.018833248 0.7835378 -0.026976418 -0.10496595 -0.084846936 -0.13793615
-0.07058038 0.028239768 -0.11448205 -0.30774623 0.43656045 -0.055655982 -0.05900877 0.016122824
0.6019292 -0.05817085 0.01359548 0.06903846 -0.12327481 -0.10474051 0.5766944 -0.018350875
0.39045307 -0.15215957 -0.056708794 -0.04454352 -0.039848637 -0.2780265 0.16963255 -0.032198947
0.01641814 0.056245685 -0.2741286 0.6301826 0.62209284 -0.485303 -0.37787032 -0.11851318
-0.072230145 -0.032622036 0.027194995 -0.053846788 -0.060210444 -0.062260892 -0.057569407 -0.059862982
0.3985157 -0.06255687 -0.07367543 -0.100423634 -0.021526992 -0.15869373 -0.09710906 -0.12798685
0.55999976 -0.10370466 -0.05824368 -0.07075609 -0.009298136 0.6799244 0.36732775 0.60229266
-0.17443739 -0.11427595 0.80595356 0.097904205 -0.07689504 0.6294055 0.0378671 -0.024695862
0.54532593 -0.026942957 -0.03951845 -0.121484324 0.27299222 -0.037931725 0.20313989 0.035305623
-0.22294173 0.72425145 -0.21349448 -0.098969445 -0.07250787 -0.14256187 0.017621625 0.5586738
1.2724357 -0.21813881 0.09175807 -0.041658413 -0.203297 -0.048515905 -0.046580862 0.333333
0.50029343 0.55086225 -0.08741308 -0.100943096 0.37909478 -0.10340808 0.64463246 -0.22073086
-0.0074944673 -0.5200478 0.10327388 -0.12757969 -0.22389774 -0.06757974 1.336144 0.0017934638
-0.014423889 -0.0649745 -0.023445021 0.8440945 0.76039153 -0.13478427 0.08719189 -0.13848391
00000000: f3a8 9f3e 88fb a6bc d3b2 adbd c415 183f
00000010: 0eed 0cbe e8ca 1fbb 227b 863f 3d8e 86bd
00000020: cf12 383f 27ef aabd 2f48 9a3c ef95 483f
00000030: a6fd dcbc 63f8 d6bd 3bc4 adbd 223f 0dbe
00000040: 728c 90bd 1657 e73c 9175 eabd ea90 9dbe
00000050: da84 df3e 87f7 63bd 2eb3 71bd 0314 843c
00000060: 0818 1a3f 8f44 6ebd 93bf 5e3c 0964 8d3d
00000070: 8177 fcbd 3182 d6bd 3fa2 133f 9354 96bc
00000080: 77e9 c73e b8cf 1bbe 7b47 68bd 4473 36bd
00000090: 5338 23bd 7d59 8ebe 28b4 2d3e 0be3 03bd
000000a0: 567f 863c e061 663d 955a 8cbe a653 213f
000000b0: 7a41 1f3f a379 f8be 3878 c1be 0ab7 f2bd
000000c0: 66ed 93bd af9e 05bd 0ac8 de3c 738e 5cbd
000000d0: 3a9f 76bd 4705 7fbd e6cd 6bbd e332 75bd
000000e0: 400a cc3e d11d 80bd 25e3 96bd e8aa cdbd
000000f0: 6059 b0bc 9c80 22be 1de1 c6bd fc0e 03be
00000100: 255c 0f3f 1c63 d4bd ed90 6ebd 92e8 90bd
00000110: 3657 18bc 870f 2e3f 6212 bc3e da2f 1a3f
00000120: b79f 32be 8209 eabd f952 4e3f 0082 c83d
00000130: 267b 9dbd b820 213f 881a 1b3d fa4e cabc
00000140: 7b9a 0b3f 7ab7 dcbc 19de 21bd c6cc f8bd
00000150: a3c5 8b3e 4c5e 1bbd e703 503e a19c 103d
00000160: d64a 64be 8b68 393f 4c9e 5abe 7eb0 cabd
00000170: 027f 94bd bdfb 11be 3a5b 903c 3f05 0f3f
00000180: 2cdf a23f c85f 5fbe a8eb bb3d 03a2 2abd
00000190: 172d 50be 9db8 46bd 93cb 3ebd 9faa aa3e
000001a0: 3b13 003f 4f05 0d3f a105 b3bd 41bb cebd
000001b0: b618 c23e 9ec7 d3bd a206 253f 4507 62be
000001c0: 2694 f5bb da21 05bf 4281 d33d 40a4 02be
000001d0: 7345 65be 3f67 8abd c406 ab3f a912 eb3a
000001e0: 2d52 6cbc 5a11 85bd c60f c0bc 9416 583f
000001f0: 05a9 423f e304 0abe a991 b23d bace 0dbe

claim_weight.2.weight f4 [20, 128]
-0.18753283 0.041658476 0.04694318 1.4351418 -0.073413625 0.024018256 1.0467126 -0.15131746
1.3499508 -0.004222224 -0.12502234 1.2960399 -0.05388641 -0.13528937 -0.0012533737 -0.17829911
0.09621487 0.27093515 -0.013032371 -0.2642403 0.48530495 -0.012500991 0.027393186 -0.088734396
1.1518338 0.05501328 -0.100101724 0.013343973 -0.06347196 -0.022246186 1.160018 0.020671561
1.2873492 -0.23555283 0.013283534 -0.035798814 0.15811595 0.012122858 0.11789513 0.17276488
0.0024941857 0.04043165 -0.16976662 -0.008226097 1.6684922 0.0064728716 -0.12550697 -0.00596722
-0.0403424 0.03433112 -0.23329854 -0.17467411 -0.024235334 -0.047531318 -0.035076227 -0.09482799
-0.35913214 -0.13685302 -0.27441844 -0.045326006 -0.057635594 0.055478584 -0.14686917 -0.20778932
1.2516764 -0.017435491 -0.09193483 -0.30942234 -0.015311929 -0.4994826 -0.24600403 0.91012365
-0.059044205 -0.0661723 0.0028070358 1.080286 0.01437509 1.23955 -0.0066416953 -0.012238154
0.8001677 -0.042274628 0.030356407 -0.11182171 0.33348134 -0.16439 1.2635072 0.049622234
-0.100485176 1.1522182 -0.15373361 0.0308165 -0.085687526 -0.15018106 0.008579656 1.4472666
1.1271405 -0.12003656 -0.0592545 -0.02935025 0.033410016 0.025833622 0.32403624 -0.25606254
0.024128424 0.28328162 -0.12093575 -0.024191659 -0.3165409 -0.06124463 1.3700527 -0.050433025
0.0032581107 0.2387467 -0.046968464 -0.100818455 -0.047818605 -0.020464879 1.7707455 0.016411034
-0.12653552 -0.000234964 -0.0006284106 -0.08849146 -0.04872291 -0.11199937 0.29549453 -0.120931886
-0.24446395 -0.03332429 -0.406285 1.2245027 -0.5220481 -0.023416908 2.2814958 -0.10286587
1.5500976 0.16204083 -0.02125758 1.1111845 -0.09556602 -0.4211996 -0.31318614 -0.15693006
0.09507008 -0.088558 0.0439878 0.075142354 -0.9090809 -0.085298926 -0.31656647 -0.0220358
0.8197287 -0.59851664 -0.3206242 0.050599385 -0.3087478 -0.44344163 0.93675977 -0.0961361
0.9986143 -0.21947306 -0.053462822 0.002895481 -0.8024526 -0.3667633 -0.38124618 0.2931856
-0.10830838 0.031924076 -0.07855546 -0.08144783 1.2013385 0.030100968 -0.36956766 0.22786267
-0.18912819 0.34785387 -0.124573246 -0.2040218 -0.28003258 -0.26497266 -0.095766634 -0.09703746
-0.33211637 0.005143632 -0.4667333 -0.0010531012 -0.0799799 -0.4169735 -0.19485265 -0.22813326
1.0400246 -0.07934392 -0.06899658 -0.19022982 -0.074397504 0.8704623 -0.3753346 1.2635977
-0.055555947 -0.251471 0.24929634 0.09819403 -0.528836 1.3264432 -0.0131268725 -0.13896106
0.6536462 -0.1978198 0.018709771 -0.121399544 -0.37550518 -0.018039837 -0.1608494 -0.04840854
-0.20230794 -0.97141826 0.06971395 -0.53593856 -0.68097746 -0.44963112 -0.0673912 1.309221
7.5652895 0.048455216 0.2588546 -0.33309275 -0.00933782 0.35718733 -0.80541533 0.3057794
-0.2954339 -0.42891088 -0.3052028 -0.17026076 0.37924924 -0.2132359 1.1556029 -0.0023153643
0.010776704 -0.32515562 -0.30431464 -0.46161014 -0.067166544 -0.36957204 8.037874 0.04188675
-0.048232038 -0.8486137 0.0007367143 -0.06569135 -0.2068448 -0.4790484 0.047237024 -0.28159478
00000000: 9b08 40be 14a2 2a3d 7e47 403d bab2 b73f
00000010: e259 96bd efc1 c43c aefa 853f f7f2 1abe
00000020: 30cb ac3f 955a 8abb db05 00be a3e4 a53f
00000030: ffb7 5cbd 4c89 0abe 3e48 a4ba 0b94 36be
00000040: 4d0c c53d 03b8 8a3e ba85 55bc 814a 87be
00000050: e479 f83e f5d0 4cbc ad67 e03c 61ba b5bd
00000060: 4a6f 933f 9b55 613d 2202 cdbd aea0 5a3c
00000070: 96fd 81bd a23d b6bc 787b 943f 6857 a93c
00000080: dcc7 a43f c334 71be 2ea3 593c c7a1 12bd
00000090: 26e9 213e f49e 463c 0073 f13d 47e9 303e
000000a0: 7e75 233b a89b 253d 4dd7 2dbe c0c6 06bc
000000b0: 2791 d53f 621a d43b e684 00be ab88 c3bb
000000c0: 133e 25bd ca9e 0c3d d0e5 6ebe c5dd 32be
000000d0: 2e89 c6bc 33b0 42bd 17ac 0fbd 2d35 c2bd
000000e0: 2be0 b7be 3323 0cbe 9380 8cbe c3a7 39bd
000000f0: 4d13 6cbd 833d 633d df64 16be b9c6 54be
00000100: ef36 a03f e0d4 8ebc 5448 bcbd 9b6c 9ebe
00000110: e3de 7abc 2fbc ffbe 7be8 7bbe ddfd 683f
00000120: 56d8 71bd 5885 87bd 3ff6 373b d046 8a3f
00000130: 7f85 6b3c 93a9 9e3f 94a2 d9bb 8a82 48bc
00000140: cad7 4c3f 2928 2dbd 00ae f83c c802 e5bd
00000150: 11be aa3e da55 28be 9bba a13f af40 4b3d
00000160: 2ccb cdbd e37b 933f 586c 1dbe e272 fc3c
00000170: f17c afbd 10c9 19be af91 0c3c 0840 b93f
00000180: 2446 903f bad5 f5bd d9b4 72bd ef6f f0bc
00000190: f1d8 083d 08a1 d33c 14e8 a53e a11a 83be
000001a0: f9a8 c53c 4a0a 913e 2aad f7bd 962d c6bc
000001b0: a611 a2be a6db 7abd e35d af3f dc92 4ebd
000001c0: 0786 553b 047a 743e 0162 40bd e879 cebd
000001d0: 71dd 43bd f6a5 a7bc caa7 e23f 6f70 863c
000001e0: 8792 01be ab60 76b9 ecbb 24ba 033b b5bd
000001f0: ad91 47bd ed5f e5bd 0f4b 973e 23ab f7bd
00000200: c254 7abe 0d7f 08bd 9604 d0be 81bc 9c3f
00000210: f2a4 05bf d1d4 bfbc 0704 1240 57ab d2bd
00000220: 9969 c63f 08ee 253e 6024 aebc 4b3b 8e3f
00000230: 1eb8 c3bd 79a7 d7be ef59 a0be 46b2 20be
00000240: 1ab4 c23d e65d b5bd 8d2c 343d 3ce4 993d
00000250: 87b9 68bf 34b1 aebd 0015 a2be 6c84 b4bc
00000260: bdd9 513f 6338 19bf db28 a4be 4d41 4f3d
00000270: 3114 9ebe c80a e3be 7dcf 6f3f 01e3 c4bd
00000280: 30a5 7f3f 8cbd 60be d5fb 5abd 1cc2 3d3b
00000290: 896d 4dbf 66c8 bbbe b332 c3be 6c1c 963e
000002a0: c9d0 ddbd d2c2 023d afe1 a0bd 1fce a6bd
000002b0: 76c5 993f 4e96 f63c f937 bdbe d554 693e
000002c0: d2aa 41be e719 b23e 4220 ffbd 17eb 50be
000002d0: 6e60 8fbe 7faa 87be 4c21 c4bd 93bb c6bd
000002e0: 280b aabe ea8b a83b abf7 eebe 3608 8aba
000002f0: 80cc a3bd 8d7d d5be 7487 47be c49b 69be
00000300: 871f 853f 117f a2bd 144e 8dbd 9bcb 42be
00000310: b85d 98bd 9ed6 5e3f db2b c0be 92bd a13f
00000320: a28e 63bd cfc0 80be 8a47 7f3e f419 c93d
00000330: cc61 07bf e4c8 a93f 1812 57bc cf4b 0ebe
00000340: 5b55 273f 4691 4abe 3c45 993c 53a0 f8bd
00000350: 3742 c0be 48c8 93bc b5b5 24be 0948 46bd
00000360: d029 4fbe deae 78bf 30c6 8e3d 4533 09bf
00000370: 8a54 2ebf 0d36 e6be 6604 8abd 8e94 a73f
00000380: da16 f240 fa78 463d 9788 843e 228b aabe
00000390: a8fd 18bc 42e1 b63e b32f 4ebf 1e8f 9c3e
000003a0: 1d43 97be 359a dbbe 8b43 9cbe d658 2ebe
000003b0: f52c c23e 835a 5abe ccea 933f 5ebd 17bb
000003c0: c690 303c cc7a a6be 21cf 9bbe 2a58 ecbe
000003d0: 9d8e 89bd 8c38 bdbe 229b 0041 7191 2b3d
000003e0: f58e 45bd bf3e 59bf 0f20 413a 3089 86bd
000003f0: 20cf 53be d545 f5be 9c7b 413d 312d 90be

claim_weight.2.bias f4 [20]
0.029616728 -0.25666794 0.30179766 -0.18821904 -0.22430386 -0.030936018 -0.19930822 -0.3011096
-0.16147478 -0.08233746 -0.17353864 -0.09245658 -0.17916268 -0.18191464 -0.1905457 -0.26735923
0.004297382 -0.15639395 -0.21060589 -0.11404735
00000000: c89e f23c fb69 83be 3985 9a3e 7ebc 40be
00000010: e9af 65be 886d fdbc 7417 4cbe 0a2b 9abe
00000020: a559 25be 8ba0 a8bd 1db4 31be e059 bdbd
00000030: 6c76 37be d547 3abe 691e 43be 4fe3 88be
00000040: 0ed1 8c3b bc25 20be 12a9 57be a891 e9bd

hos_weight.0.weight f4 [128, 4]
0.047776397 -0.40619224 -0.30333203 -0.120639816 -0.30304396 0.29624027 -0.22407849 0.08102331
-0.9571444 -2.0759397 -0.44756138 -0.6032087 0.034956537 -0.37106037 0.038809415 -0.0013347167
0.124124065 0.21103281 0.3619357 -0.41949192 0.102687836 -0.70754385 -0.18913954 -0.578414
0.23399927 0.5605524 0.27206096 1.0025586 0.2327884 -0.41121593 0.1817155 0.2648095
0.15408301 0.7323101 -0.5703628 0.48161194 -3.1389337 -2.508843 -1.1915352 -0.89764565
-0.17997682 -0.028175358 0.103232026 -0.025136001 0.285425 -0.24571618 0.06434204 -0.061263643
-1.7155731 -1.9790318 -1.6703393 -1.8163478 -0.6312801 -0.99979347 -0.6805628 0.64515966
-0.004553426 -0.33870235 -0.30640638 0.4245508 0.23084225 0.39205384 -0.6965148 -0.010045822
0.28537232 0.17546518 -0.08714416 -0.067652725 -0.23551342 0.087858185 0.2842426 0.3148624
0.14104788 0.10395387 -0.413865 0.1429954 0.61117697 1.4625498 -0.092693985 0.829148
0.113258004 -0.6325118 -0.07782216 0.33424202 -2.232974 -2.1627026 -2.0062459 -0.63844734
0.9931654 -0.06361267 0.55487555 0.13244008 0.042929325 -0.20797451 -0.06668139 -0.10549621
-0.043259896 0.53700256 0.47370863 -0.3195164 -0.15149973 -0.08645473 -0.14966352 0.13205478
-0.017722968 -0.48195204 -0.041359983 0.32992402 0.5987345 0.5522473 0.6161353 0.58081174
0.37583348 -0.30214608 0.28558472 0.48323256 -0.64155865 -0.66249347 0.21923381 -0.7938947
-0.18304339 -0.49296546 -0.34675157 0.47374228 -0.08749802 0.2616161 0.22124097 0.42693755
-1.1710781 -1.715616 -0.23320763 -0.78702545 0.036140148 0.016913993 0.4353796 -0.39735982
0.2000302 -0.4854062 -0.23522794 0.08446896 -0.36719224 -0.39639708 -0.2148992 0.1984425
0.059570037 0.63551927 -0.18032436 -0.3612672 0.17253901 0.006178932 0.008903905 -0.010401539
0.32895687 -0.21187977 -0.07777342 -0.0045340355 -1.0175982 -0.8513456 -0.58533823 1.3375117
-0.41409352 0.09245515 -0.052154444 -0.08860632 0.45135137 -0.36600953 -0.06837137 -0.19429888
-0.04771558 -0.4603773 -0.47025034 -0.45098373 0.15319172 -0.7106039 -0.56800735 -0.00505164
-0.07409214 -0.2882109 0.3082957 -0.20754433 0.31958324 0.0023982136 0.024859402 0.9398168
0.46553335 -0.029044254 -0.37472594 -0.069506206 0.24774407 0.23010287 -0.5390854 0.4234023
0.01221545 0.3433764 -0.04114547 -0.12456352 0.20831032 0.10696452 -0.09127483 -0.5555033
0.41884983 -0.16109316 -0.01759052 0.2376973 -0.23611303 -0.14102866 -0.13929902 -0.49469268
-0.47960785 0.38413778 -0.038350876 -0.07121459 0.39438614 -0.5716902 -0.035551038 -0.5966774
0.5189744 -0.3869338 -0.38387308 0.29494002 -0.335796 -0.13949801 0.04791723 -0.23441903
0.21076219 -0.08158027 0.4516201 -0.80203366 -0.66142756 0.34606943 -0.01646995 0.22543666
-0.86261237 -1.5259234 -0.46619776 -1.2745463 0.08888329 0.31181815 0.14197516 -0.4440154
0.2119388 -0.24843208 -0.16415633 -0.36693674 0.442757 1.6433175 -0.5239658 0.7801208
-0.33229434 -0.22919749 0.41286433 0.1525267 0.24016987 0.070190586 -0.29901907 -0.030591872
00000000: 2fb1 433d 6ef8 cfbe 564e 9bbe 0212 f7bd
00000010: 9428 9bbe ceac 973e d574 65be 8def a53d
00000020: 6a07 75bf 32dc 04c0 c426 e5be e36b 1abf
00000030: 962e 0f3d a0fb bdbe 9ff6 1e3d a9f1 aeba
00000040: c234 fe3d fc18 583e a34f b93e a5c7 d6be
00000050: 004e d23d 9821 35bf ccad 41be f112 14bf
00000060: 819d 6f3e 5d80 0f3f 934b 8b3e d753 803f
00000070: 1560 6e3e e58a d2be a113 3a3e 1c95 873e
00000080: f0c7 1d3e ad78 3b3f 4c03 12bf d795 f63e
00000090: 4ae4 48c0 e290 20c0 3a84 98bf 1bcc 65bf
000000a0: d84b 38be 02d0 e6bc 506b d33d 04ea cdbc
000000b0: 3a23 923e 069d 7bbe c2c5 833d 96ef 7abd
000000c0: e697 dbbf ea50 fdbf aecd d5bf 167e e8bf
000000d0: 939b 21bf 77f2 7fbf 5d39 2ebf 2f29 253f
000000e0: e834 95bb 656a adbe 4ce1 9cbe b95e d93e
000000f0: e961 6c3e 48bb c83e cb4e 32bf 3b97 24bc
00000100: 521c 923e 25ad 333e a378 b2bd 838d 8abd
00000110: 6e2a 71be feee b33d 3f88 913e a535 a13e
00000120: db6e 103e c4e5 d43d 1de6 d3be 636d 123e
00000130: 1876 1c3f d534 bb3f 58d6 bdbd 0b43 543f
00000140: d0f3 e73d 4bec 21bf 3a61 9fbd c521 ab3e
00000150: 0ce9 0ec0 b869 0ac0 5566 00c0 4971 23bf
00000160: 1640 7e3f 5c47 82bd 530c 0e3f 5f9e 073e
00000170: a9d6 2f3d 45f7 54be 4190 88bd 660e d8bd
00000180: 4a31 31bd 0079 093f f089 f23e a797 a3be
00000190: bf22 1bbe 2d0f b1bd 6541 19be 5e39 073e
000001a0: c22f 91bc 6bc2 f6be 1669 29bd cdeb a83e
000001b0: aa46 193f 1460 0d3f 0bbb 1d3f 14b0 143f
000001c0: 3f6d c03e e4b2 9abe 2938 923e 426a f73e
000001d0: 303d 24bf 2c99 29bf d47e 603e af3c 4bbf
000001e0: ba6f 3bbe f865 fcbe 6c89 b1be 598e f23e
000001f0: 2932 b3bd 8cf2 853e fe8c 623e 8f97 da3e
00000200: e3e5 95bf 4e99 dbbf fbcd 6ebe 807a 49bf
00000210: b107 143d 378f 8a3c 13ea de3e bf72 cbbe
00000220: b7d4 4c3e 2987 f8be 98df 70be 10fe ac3d
00000230: 9f00 bcbe 8ff4 cabe 890e 5cbe 8334 4b3e
00000240: b6ff 733d 64b1 223f f3a6 38be 04f8 b8be
00000250: 11ae 303e a378 ca3b afe1 113c 376b 2abc
00000260: 096d a83e 03f7 58be ac47 9fbd 3f92 94bb
00000270: a840 82bf c9f1 59bf bad8 15bf 9533 ab3f
00000280: 1104 d4be 2059 bd3d e69f 55bd 3b77 b5bd
00000290: 8717 e73e 9a65 bbbe 4a06 8cbd 49f6 46be
000002a0: 6971 43bd 93b6 ebbe a7c4 f0be 57e7 e6be
000002b0: 4ade 1c3e 23ea 35bf ee68 11bf 3a88 a5bb
000002c0: 9fbd 97bd 6190 93be efd8 9d3e 8086 54be
000002d0: 6aa0 a33e 592b 1d3b f2a5 cb3c d597 703f
000002e0: 635a ee3e 37ee edbc 14dc bfbe 4559 8ebd
000002f0: 9fb0 7d3e 16a0 6b3e 8001 0abf 30c8 d83e
00000300: 5023 483c 08cf af3e 2788 28bd 291b ffbd
00000310: 4d4f 553e 3710 db3d 4cee babd 7735 0ebf
00000320: 7c73 d63e 9bf5 24be ff19 90bc ec66 733e
00000330: 9dc7 71be d169 10be 67a4 0ebe 5c48 fdbe
00000340: 298f f5be b5ad c43e cf15 1dbd f4d8 91bd
00000350: fbec c93e 4a5a 12bf f79d 11bd dabf 18bf
00000360: 82db 043f 301c c6be 038b c4be 6102 973e
00000370: 74ed abbe 91d8 0ebe db44 443d 8b0b 70be
00000380: 0bd2 573e 8e13 a7bd c03a e73e 1452 4dbf
00000390: 5153 29bf 0330 b13e fdeb 86bc ded8 663e
000003a0: 2ad4 5cbf 7551 c3bf 79b1 eebe 5524 a3bf
000003b0: 7108 b63d a1a6 9f3e f061 113e fd55 e3be
000003c0: 7c06 593e fb64 7ebe 9918 28be 22df bbbe
000003d0: 0cb1 e23e 3a58 d23f 9f22 06bf ffb5 473f
000003e0: 7c22 aabe bfb2 6abe f462 d33e f62f 1c3e
000003f0: 17ef 753e 15c0 8f3d 0719 99be ce9b fabc

hos_weight.0.bias f4 [128]
0.22432844 -0.17887327 0.42571285 -0.07065565 -0.43649676 0.12977964 -0.86961234 -0.43979004
0.08010044 0.62246364 0.09997533 -0.6872878 0.38932368 0.19504532 0.085166894 0.22511323
-0.28560144 -0.5820789 -0.024055611 0.0078705195 -0.1018412 0.7526863 -0.8805206 -0.11442226
-0.50927913 0.17169881 -0.20040914 -0.065855496 -0.15444715 0.09177399 -0.146327 -0.33877483
0.41617703 -0.3434733 -0.0037451822 -0.037362557 0.0933505 -0.2475647 -0.27343524 0.17246957
0.43784505 -0.3642668 0.061163105 -0.21280207 -0.16870148 -0.69222945 -0.20608447 -0.112427905
-0.015126543 -0.10604728 -0.5010286 -0.1262291 0.37531084 -0.4194849 -0.28321147 -0.39960057
-0.46957725 -0.56089926 0.1846581 -0.104189694 -0.7818589 0.047805294 -0.23501676 0.0044670887
-0.8874157 0.10523927 0.27501613 -0.43331802 -0.42587596 0.12163932 -0.044187836 0.09070802
-0.012568543 -0.1359907 0.2292516 -0.14433663 -0.2985289 0.62138456 0.7557605 -0.14664249
0.2560794 -0.9718358 -0.059044376 -0.08541515 0.60539263 -0.32117966 -0.38920978 -0.03852065
-0.163372 -0.7065339 0.29901472 0.30016658 -0.068853125 -0.005193505 0.03013248 -0.2328306
0.14469413 0.50328165 -0.7101466 0.18096596 0.06904193 -0.04126925 -0.14400533 -0.3157098
-0.4874478 -0.09567114 -0.09209764 0.31949553 -0.27594146 -0.030151762 -0.31287083 0.23929955
-0.05069278 -0.435213 -0.5253933 -0.13251354 0.22857995 0.16700779 -0.10811037 -0.20163417
0.12252586 0.17815919 -0.051373783 -0.42174917 0.06868009 -0.12743685 0.22153547 0.0037148786
00000000: 5bb6 653e 8e2a 37be 09f7 d93e e9b3 90bd
00000010: 817c dfbe f4e4 043e ea9e 5ebf 292c e1be
00000020: b30b a43d c759 1f3f debf cc3d 18f2 2fbf
00000030: 6f55 c73e f6b9 473e fb6b ae3d 1584 663e
00000040: 5a3a 92be 1f03 15bf 4610 c5bc 5af3 003c
00000050: 1e92 d0bd 0db0 403f cc69 61bf 3856 eabd
00000060: 1e60 02bf d0d1 2f3e 0e38 4dbe 3fdf 86bd
00000070: 6527 1ebe 00f4 bb3d bfd6 15be e573 adbe
00000080: 2815 d53e bbdb afbe bb71 75bb 7b09 19bd
00000090: 8c2e bf3d 9a81 7dbe b4ff 8bbe dd9b 303e
000000a0: 3a2d e03e 2e81 babe 2a86 7a3d c9e8 59be
000000b0: 15c0 2cbe f335 31bf cf07 53be 9a40 e6bd
000000c0: 52d5 77bc 512f d9bd 6943 00bf 3442 01be
000000d0: be28 c03e bac6 d6be 1801 91be 7298 ccbe
000000e0: 6e6c f0be 1897 0fbf 0317 3d3e 6861 d5bd
000000f0: e827 48bf 7ccf 433d 3ca8 70be a860 923b
00000100: ad2d 63bf b087 d73d eace 8c3e dcdb ddbe
00000110: 6a0c dabe 091e f93d 4efe 34bd 20c5 b93d
00000120: 4aec 4dbc 2541 0bbe eec0 6a3e fbcc 13be
00000130: c8d8 98be 0f13 1f3f 8579 413f 7329 16be
00000140: d71c 833e 3bca 78bf 84d8 71bd 23ee aebd
00000150: 03fb 1a3f a971 a4be 8146 c7be d4c7 1dbd
00000160: fd4a 27be 68df 34bf 7518 993e 6faf 993e
00000170: de02 8dbd 472e aabb 64d8 f63c 256b 6ebe
00000180: b32a 143e 11d7 003f 2bcc 35bf 244f 393e
00000190: db65 8d3d f209 29bd 2276 13be b7a4 a1be
000001a0: c292 f9be 3bef c3bd b09d bcbd eb94 a33e
000001b0: 3348 8dbe d400 f7bc 9b30 a0be f10a 753e
000001c0: 3ca3 4fbd 3dd4 debe 2d80 06bf a1b1 07be
000001d0: dd10 6a3e 1704 2b3e f868 ddbd 3079 4ebe
000001e0: d7ee fa3d 5d6f 363e 516d 52bd 82ef d7be
000001f0: 26a8 8c3d ce7e 02be 32da 623e 5275 733b

hos_weight.2.weight f4 [4, 128]
0.030655418 0.052078802 0.07210283 -0.057434205 0.0342536 0.3123029 -0.62949294 -0.080213234
0.014060716 2.7476974 0.047161978 -0.23238109 1.8118396 0.06876492 0.008581375 0.02956365
-0.03846717 -0.129317 -0.032868657 -0.07465863 -0.023494368 1.9335973 -0.7816116 -0.034135383
-0.13498975 0.0040583424 0.007623936 -0.12819967 -0.054518007 0.036850747 -0.17762317 -0.28096804
0.14837936 -0.12924385 0.064102806 0.0277404 0.030485803 -0.12752365 -0.083898105 0.16566427
0.38447177 -0.043011654 0.061768718 -0.16109169 -0.060536895 -0.41932738 -0.034378 -0.029837266
0.0042941715 0.100330554 0.00076983613 0.022923648 0.053485367 -0.08738971 -0.19916843 -0.11839708
-0.18931615 -0.07224288 0.5290978 -0.015656922 0.2686567 0.02042903 0.081208326 0.004227051
-0.4913765 0.01749081 0.8286989 0.21738653 -0.09352043 0.043415364 -0.0725169 0.02238107
0.1620286 -0.013566007 -0.013386214 0.080066495 -0.09464174 2.7994893 4.2756276 -0.018637171
0.034196585 -0.70608556 -0.045921575 -0.032467093 2.0373251 -0.099342845 -0.09804223 0.0086391
-0.042193595 -0.54173756 0.15534753 0.20837632 0.034874283 0.14093108 0.050698616 -0.04800376
0.019799735 0.44932222 -0.60146344 0.02885502 -0.045010697 0.0050667394 -0.013320877 -0.12944287
-0.18868244 -0.08975355 -0.08504156 0.14636499 0.07386425 -0.034615465 -0.16565064 -0.004112349
-0.05971562 -0.05100352 -0.12987278 -0.03515067 0.27770293 0.026582092 -0.22616434 -0.076669656
0.05545195 0.026547508 -0.005896065 -0.17562643 0.098706335 -0.03798967 0.031753935 0.14935093
-0.23349264 0.18786852 0.25697112 0.2326607 -0.039882615 -0.019589696 -0.1649852 -0.053124905
-0.36992672 3.2380474 0.023481255 0.07598986 1.9605286 0.07111336 -0.16012064 -0.3362665
-0.03737969 -0.021115744 -0.0918545 -1.4404466 0.202682 1.8864024 -0.1815838 0.21701795
-0.0059587737 -0.22136636 0.33009478 -1.0438126 -0.34794876 0.013413879 0.0343521 0.05744717
0.25517407 0.2776015 0.07435219 0.20403685 -0.36275873 0.045273643 0.10809157 0.040292684
-0.19283217 0.44519365 0.18164079 0.20904565 -0.029248092 -0.12673672 0.15624225 -0.2941729
-0.22467943 0.025155896 -0.060112007 0.36776376 -0.2933257 0.4232264 0.022687454 0.0828305
0.0017210275 -0.055735517 1.4672554 -0.2998875 0.45851403 -1.35476 0.3736447 -0.15094519
-0.032825895 -0.20983249 0.30756876 0.32718873 -0.09571476 -0.11616239 0.028446732 -0.039671626
0.15185426 -0.366928 -2.3628466 0.005835402 -0.013043264 3.1198456 5.7212744 0.23363127
-0.30234724 -0.22652148 -0.024662925 -0.06913581 3.5196407 0.14692351 0.24101688 -0.3581041
0.27612138 -0.07195767 0.0653244 0.06376332 -0.021146428 0.44687656 0.16929057 0.24947064
-0.09701182 -0.11988962 -0.07369499 -0.24747586 -1.6646752 -0.27364594 -0.2353583 0.08738011
0.2950087 -0.08195907 -0.026055405 0.013144246 0.284052 -1.2475078 0.011530923 0.0688978
0.03915634 0.25429022 -0.003394316 0.15529193 0.5775632 -0.24171712 0.027239677 -0.037593715
0.2924948 -0.26610047 0.10861814 -0.022370376 0.05753149 -0.0044327397 -0.33098593 0.08581773
00000000: 1221 fb3c 9550 553d a6aa 933d 2140 6bbd
00000010: 814d 0c3d 2ae6 9f3e 7326 21bf d646 a4bd
00000020: eb5e 663c 46da 2f40 eb2c 413d 4ff5 6dbe
00000030: 5cea e73f 9fd4 8c3d e598 0c3c 782f f23c
00000040: c08f 1dbd ad6b 04be 49a1 06bd a0e6 98bd
00000050: 4377 c0bc 1e80 f73f b317 48bf 8bd1 0bbd
00000060: c13a 0abe d8fb 843b 36d2 f93b c646 03be
00000070: 464e 5fbd cff0 163d d9e2 35be 0bdb 8fbe
00000080: c2f0 173e 8058 04be 5548 833d d63f e33c
00000090: 5dbd f93c 8f95 02be c5d2 abbd e5a3 293e
000000a0: 7cd9 c43e fd2c 30bd 3201 7d3d 38f5 24be
000000b0: 89f5 77bd 14b2 d6be f2cf 0cbd 486d f4bc
000000c0: 1fb6 8c3b 1b7a cd3d d4ce 493a 60ca bb3c
000000d0: 7913 5b3d 60f9 b2bd cff2 4bbe 2b7a f2bd
000000e0: 18dc 41be 13f4 93bd f472 073f f242 80bc
000000f0: 5f8d 893e c85a a73c 8d50 a63d 1383 8a3b
00000100: b395 fbbe e348 8f3c 9c25 543f 939a 5e3e
00000110: a487 bfbd 4fd4 313d be83 94bd 8158 b73c
00000120: d3ea 253e f543 5ebc da51 5bbc e7f9 a33d
00000130: 87d3 c1bd d52a 3340 f1d1 8840 fbac 98bc
00000140: b811 0c3d 06c2 34bf 4318 3cbd 37fc 04bd
00000150: 8963 0240 4374 cbbd 5dca c8bd 038b 0d3c
00000160: 31d3 2cbd 50af 0abf 6c13 1f3e 9a60 553e
00000170: 56d8 0e3d 3d50 103e 5aa9 4f3d 979f 44bd
00000180: 0e33 a23c 900d e63e 82f9 19bf 5d61 ec3c
00000190: 235d 38bd e406 a63b cf3f 5abc ac8c 04be
000001a0: f835 41be b6d0 b7bd 452a aebd b4e0 153e
000001b0: 2446 973d f2c8 0dbd 52a0 29be e2c0 86bb
000001c0: 5e98 74bd 11e9 50bd 5ffd 04be 26fa 0fbd
000001d0: 142f 8e3e b0c2 d93c a097 67be fb04 9dbd
000001e0: 9521 633d 297a d93c c733 c1bb 6ad7 33be
000001f0: 8c26 ca3d 0e9b 1bbd 6a10 023d 73ef 183e
00000200: b218 6fbe 9b60 403e b891 833e 9b3e 6e3e
00000210: f45b 23bd 927a a0bc e1f1 28be 8099 59bd
00000220: 0967 bdbe 2b3c 4f40 c35b c03c 92a0 9b3d
00000230: 9af2 fa3f e2a3 913d aaf6 23be 1f2b acbe
00000240: 721b 19bd edfa acbc 361e bcbd 8e60 b8bf
00000250: df8b 4f3e a275 f13f 1bf1 39be f439 5e3e
00000260: d141 c3bb ddad 62be 2f02 a93e a79b 85bf
00000270: 5726 b2be e3c5 5b3c cab4 0c3d b94d 6b3d
00000280: 2da6 823e c921 8e3e f645 983d 09ef 503e
00000290: 83bb b9be db70 393d 1d5f dd3d f109 253d
000002a0: cc75 45be 6cf0 e33e 0b00 3a3e 1010 563e
000002b0: b299 efbc 45c7 01be f8fd 1f3e d59d 96be
000002c0: 5d12 66be bd13 ce3c 0238 76bd 884b bc3e
000002d0: c92e 96be 21b1 d83e 0adb b93c 0aa3 a93d
000002e0: 1a94 e13a ed4a 64bd 06cf bb3f db8a 99be
000002f0: 5ac2 ea3e c768 adbf 5c4e bf3e 6091 1abe
00000300: 7274 06bd 54de 56be a779 9d3e 4885 a73e
00000310: 1a06 c4bd 8ce6 edbd 1f09 e93c b77e 22bd
00000320: af7f 1b3e fddd bbbe e138 17c0 e636 bf3b
00000330: 6ab3 55bc 8dab 4740 ae14 b740 093d 6f3e
00000340: 42cd 9abe 3ff5 67be e709 cabc 1397 8dbd
00000350: cb41 6140 1e73 163e 21cd 763e 6c59 b7be
00000360: c85f 8d3e 8b5e 93bd cdc8 853d 5896 823d
00000370: 463b adbc 01cd e43e 825a 2d3e 3b75 7f3e
00000380: 22ae c6bd b088 f5bd 66ed 96bd 506a 7dbe
00000390: 1414 d5bf 521b 8cbe c401 71be 58f4 b23d
000003a0: 610b 973e 28da a7bd 2572 d5bc f75a 573c
000003b0: 446f 913e 56ae 9fbf 32ec 3c3c 4a1a 8d3d
000003c0: 6662 203d 5432 823e 2c73 5ebb d904 1f3e
000003d0: 2fdb 133f b184 77be be25 df3c defb 19bd
000003e0: e1c1 953e 523e 88be 3073 de3d 1442 b7bc
000003f0: 24a6 6b3d 8440 91bb fd76 a9be 35c1 af3d

hos_weight.2.bias f4 [4]
0.1562659 -0.2967817 -0.13503973 -0.1275298
00000000: 2b04 203e c5f3 97be db47 0abe 2c97 02be

vac_weight.0.weight f4 [128, 17]
0.056071647 -0.24685678 -0.25982055 -0.16503158 0.03498665 -0.15713862 -0.08388416 -0.14987998
-0.36500588 -0.32260266 -0.08861453 -0.25651175 -0.3815178 -0.19135046 0.318176 -0.072409675
0.00079537765 -0.11568349 0.16965163 0.09023567 0.17325385 -0.04161576 -0.2360131 -0.0037106113
0.12809953 0.22030035 -0.095443286 -0.14684221 0.23903053 -0.10926599 -0.37452042 0.047212135
-0.08701936 -0.14700787 -0.038843356 -0.00515234 0.33847117 0.41793644 0.015031331 -0.016585724
0.5501079 0.08174034 0.33132422 0.29763642 0.2475306 0.020506704 -0.5495856 -0.26565635
0.06045505 0.0010759127 0.17664874 -0.30037367 -0.033663955 0.12538633 -0.16530803 0.10796362
-0.042966973 -0.121273294 -0.116061695 -0.026998516 -0.06475945 0.08319472 -0.024230652 0.34784114
-0.061434433 0.29821062 0.1236415 0.122501455 -0.2416444 0.017434508 -0.21449545 -0.29468396
-0.14425543 0.15120375 -0.04187538 -0.0868926 0.010981279 -0.062298436 0.1087116 -0.14259492
-0.00090297614 -0.19748753 -0.036520593 0.27607685 0.22116767 0.24282719 -0.07992759 0.22547536
-0.8955903 0.16416527 0.28732613 2.1045904 -0.20639095 -0.063514404 1.2808154 0.74421316
-0.82503605 -0.63289005 -0.91259867 0.060291123 0.26187232 0.5794298 0.16475816 -0.052950248
0.057478603 -0.2846295 0.09316032 0.07704411 0.016272448 -0.041059826 0.14476167 0.16812918
-0.30705667 -0.26810113 0.16384876 -0.029685656 -0.3814771 0.06374832 0.22799905 -0.23449302
-0.08490198 0.09189807 -0.35820502 -0.17727007 0.07260625 -0.30753532 -0.1596687 -0.0073986645
0.09531405 -0.00433395 -0.071986385 0.3798812 -0.04463554 -0.1633475 0.13303971 -0.06829344
0.11946096 -0.23701352 -0.34696454 -0.097115085 -0.054830976 0.10702545 -0.016334077 0.07739926
-0.004441333 -0.024659092 0.084976956 -0.123987384 -0.106099166 -0.3536353 -0.22583573 -0.31686187
-0.19004914 0.1515853 0.3398154 0.01571013 0.27513605 0.35477751 0.1425852 -0.016859526
0.09357926 0.064336576 0.024750462 0.07512701 0.18483295 0.3703719 0.45545068 0.40359336
0.27104053 0.32125795 -0.2483489 -0.08741117 -0.22702791 -0.10903668 -0.040590852 0.13307552
-0.017083395 0.17269711 0.019544316 -0.0839499 -0.2531066 0.02944982 0.20041412 0.29147494
-0.35473886 -0.20785403 0.2186664 -0.27544394 0.1631407 0.15770513 -0.2632385 -0.04055568
-0.25693354 0.10434746 -0.06282509 -0.027808392 0.047188926 0.085235536 -0.8571361 -0.404966
-0.36181003 0.72527844 1.1027311 0.45870936 -0.17452441 -0.0055629006 -0.3214698 -0.09301878
-0.2656644 -0.107393704 -0.12623529 -0.2800321 0.043420706 -0.18072951 -0.16533138 -0.33051452
0.017123345 0.29542807 0.30787897 0.24274462 0.12882791 -0.2124838 0.02228465 -0.02637064
0.07832572 -0.15226573 -0.24808294 0.009074731 -0.09492568 -0.17881241 0.17739794 0.2094804
-0.09515122 0.024522733 0.37521505 -0.26655635 0.08907523 -0.06782568 0.42710418 0.28981343
0.37103784 0.27047104 0.092783086 0.11675763 0.10605188 0.22505367 0.053708404 0.32070765
0.040017586 -0.05592026 0.49157366 0.6984477 0.3912369 0.16472593 0.55636984 -0.084685236
00000000: 62ab 653d 06c8 7cbe 3307 85be 0afe 28be
00000010: 294e 0f3d f2e8 20be 75cb abbd 237a 19be
00000020: 0de2 babe 2d2c a5be 897b b5bd 8255 83be
00000030: 4d56 c3be 60f1 43be f7e7 a23e 864b 94bd
00000040: e480 503a 77eb ecbd 28b9 2d3e 7bcd b83d
00000050: 7569 313e 4a75 2abd 6bad 71be ba2d 73bb
00000060: 862c 033e 6a96 613e c577 c3bd ce5d 16be
00000070: 6bc4 743e d9c6 dfbd 24c1 bfbe 8361 413d
00000080: 3537 b2bd 3b89 16be 361a 1fbd f6d4 a8bb
00000090: 184c ad3e c4fb d53e f945 763c c9de 87bc
000000a0: dfd3 0c3f 7b67 a73d 54a3 a93e cd63 983e
000000b0: a978 7d3e adfd a73c a4b1 0cbf 1c04 88be
000000c0: b79f 773d a405 8d3a 68e3 343e 94ca 99be
000000d0: 37e3 09bd 4665 003e 8246 29be 081c dd3d
000000e0: 23fe 2fbd 225e f8bd c1b1 edbd fe2b ddbc
000000f0: 9aa0 84bd fe61 aa3d 5c7f c6bc 3c18 b23e
00000100: aca2 7bbd 10af 983e c137 fd3d 0be2 fa3d
00000110: a171 77be d0d2 8e3c b2a4 5bbe d1e0 96be
00000120: b2b7 13be 28d5 1a3e 8585 2bbd bff4 b1bd
00000130: d3ea 333c a52c 7fbd 30a4 de3d 6704 12be
00000140: b4b5 6cba 2c3a 4abe 9e96 15bd f259 8d3e
00000150: c779 623e b1a7 783e 14b1 a3bd 03e3 663e
00000160: 6845 65bf f11a 283e 691c 933e 9cb1 0640
00000170: 2658 53be d713 82bd c2f1 a33f c184 3e3f
00000180: 9035 53bf 1505 22bf 11a0 69bf d3f3 763d
00000190: 2114 863e 8355 143f 5db6 283e 5ce2 58bd
000001a0: af6e 6b3d f5ba 91be d6ca be3d 4dc9 9d3d
000001b0: cc4d 853c 592e 28bd 673c 143e 0e2a 2c3e
000001c0: 8836 9dbe 8d44 89be f8c7 273e 552f f3bc
000001d0: f750 c3be 7b8e 823d 9578 693e f01e 70be
000001e0: 17e1 adbd 0e35 bc3d a666 b7be 4986 35be
000001f0: 96b2 943d 4575 9dbe 3180 23be 7f70 f2bb
00000200: 0334 c33d cf03 8ebb 996d 93bd ca7f c23e
00000210: c2d3 36bd 9144 27be 903b 083e 6edd 8bbd
00000220: f3a7 f43d acb3 72be 56a5 b1be 46e4 c6bd
00000230: 7296 60bd 2930 db3d 0bcf 85bc 8183 9e3d
00000240: 9a88 91bb dd01 cabc 6608 ae3d 19ed fdbd
00000250: 854a d9bd b00f b5be 7b41 67be b83b a2be
00000260: 3e9c 42be 2d39 1b3e 49fc ad3e 88b2 803c
00000270: a2de 8c3e 66a5 b53e db01 123e fd1c 8abc
00000280: 7ca6 bf3d e5c2 833d 7bc1 ca3c 31dc 993d
00000290: d944 3d3e 63a1 bd3e d530 e93e caa3 ce3e
000002a0: d3c5 8a3e ec7b a43e 2d4f 7ebe a104 b3bd
000002b0: 017a 68be 9f4e dfbd 9842 26bd f344 083e
000002c0: 7af2 8bbc 83d7 303e 671b a03c eded abbd
000002d0: 3097 81be c040 f13c 5c39 4d3e 343c 953e
000002e0: 55a0 b5be b0d7 54be 16ea 5f3e fd06 8dbe
000002f0: 5b0e 273e 747d 213e 32c7 86be b61d 26bd
00000300: cb8c 83be 1fb4 d53d 71aa 80bd 6dce e3bc
00000310: 2d49 413d f88f ae3d 456d 5bbf b457 cfbe
00000320: 2a3f b9be d9ab 393f 4b26 8d3f f4db ea3e
00000330: 87b6 32be fe48 b6bb b197 a4be a180 bebd
00000340: 2a05 88be 3bf1 dbbd d343 01be 5e60 8fbe
00000350: e9d9 313d 2811 39be a14c 29be 3339 a9be
00000360: 4246 8c3c 5942 973e 50a2 9d3e 0c92 783e
00000370: 77eb 033e 5a95 59be 4c8e b63c 3e07 d8bc
00000380: 3c69 a03d 8ceb 1bbe 7409 7ebe 2eae 143c
00000390: 6568 c2bd 9a1a 37be cea7 353e 0882 563e
000003a0: a5de c2bd e6e3 c83c 301c c03e 137a 88be
000003b0: 136d b63d 31e8 8abd 66ad da3e 6d62 943e
000003c0: acf8 bd3e 2e7b 8a3e 0f05 be3d a01e ef3d
000003d0: ba31 d93d 7874 663e 58fd 5b3d cb33 a43e
000003e0: 7be9 233d a40c 65bd 8baf fb3e 78cd 323f
000003f0: 3450 c83e eaad 283e 416e 0e3f 746f adbd

vac_weight.0.bias f4 [128]
0.0012257501 -0.15484045 0.052127793 0.12552668 0.027587706 1.2762896 0.09576705 0.0021269869
-0.2978185 0.12390207 -0.043582983 -0.2352776 0.0098208 -0.05553418 0.15817852 0.020362562
-0.1896681 -0.048150014 -0.18773936 -0.30468318 0.03755175 -0.042010944 -0.0070675886 0.00069663743
0.08734352 -0.0762338 -0.31851685 0.027725792 -0.08989193 -0.0045386082 0.13657741 0.0004113771
-0.17262575 -0.119686075 0.044921935 0.008574633 1.2175412 -0.044683557 0.05038307 -0.09370946
-0.102952644 0.13459122 0.05581107 0.1293968 1.2163062 1.221653 -0.10244328 0.05452904
0.09110535 -0.13705291 -0.09841344 -0.04433943 -0.046932034 -0.1529291 -0.08792603 -0.20015496
-0.047887754 0.11206874 0.08903337 -0.15884984 -0.0042026932 0.09832361 0.007934657 1.2666738
0.048876517 -0.11975622 -0.059851296 -0.06548764 -0.010141315 0.324756 0.035697635 0.12112783
0.022267008 0.070791215 0.0991768 0.0086949365 -0.004851954 0.08410885 -0.16936368 0.4906628
0.052273016 0.09298781 -0.043108884 0.3695691 0.0043469644 0.079095 -0.11089187 -0.0010028474
-0.052261382 -0.00020643567 -0.0057856925 -0.18562038 -0.04089509 -0.0044259345 -0.28630063 -0.2128045
0.084662855 -0.06806452 0.5427675 0.05252597 -0.13108589 0.005514034 0.20694764 0.12145617
-0.1186797 0.04814895 1.1296223 0.0024158952 -0.19463547 -0.03278085 -0.19798411 -0.09377882
0.09888211 -0.109437674 -0.026251856 -0.20945963 0.15639126 0.1558162 0.07233557 0.09579377
-0.020618254 -0.1631632 -0.17507024 -0.10598452 0.047797143 0.022422845 0.0024508915 -0.010096763
00000000: 59a9 a03a 7f8e 1ebe f483 553d 118a 003e
00000010: 9dff e13c 755d a33f 8421 c43d eb64 0b3b
00000020: ab7b 98be 5ec0 fd3d 1284 32bd 9cec 70be
00000030: 6ce7 203c cf77 63bd 8df9 213e 63cf a63c
00000040: 5b38 42be f338 45bd bf3e 40be 6fff 9bbe
00000050: ddcf 193d ab13 2cbd 3b97 e7bb 8c9e 363a
00000060: 29e1 b23d 7720 9cbd a414 a3be 3321 e33c
00000070: 4319 b8bd 9bb8 94bb f3da 0b3e 1aae d739
00000080: cec4 30be f91d f5bd 1000 383d 9e7c 0c3c
00000090: 64d8 9b3f 1b06 37bd 7a5e 4e3d bfea bfbd
000000a0: d6d8 d2bd 48d2 093e 269a 643d 9880 043e
000000b0: ecaf 9b3f 205f 9c3f c8cd d1bd d859 5f3d
000000c0: 7195 ba3d 9957 0cbe fc8c c9bd 439d 35bd
000000d0: ce3b 40bd 7299 1cbe 9012 b4bd 6cf5 4cbe
000000e0: f325 44bd 4c84 e53d 2157 b63d 88a9 22be
000000f0: bfb6 89bb e45d c93d 5d00 023c 5e22 a23f
00000100: be32 483d c042 f5bd a226 75bd 621e 86bd
00000110: c227 26bc 6b46 a63e af37 123d de11 f83d
00000120: 4d69 b63c fcfa 903d 351d cb3d 3575 0e3c
00000130: 24fd 9ebb 4341 ac3d ac6d 2dbe 2838 fb3e
00000140: 3b1c 563d 6570 be3d f192 30bd 2938 bd3e
00000150: fb70 8e3b 8ffc a13d 471b e3bd fa71 83ba
00000160: 0810 56bd a776 58b9 e895 bdbb 4513 3ebe
00000170: 9c81 27bd 6e07 91bb ff95 92be 6ce9 59be
00000180: b863 ad3d 6965 8bbd d0f2 0a3f 7925 573d
00000190: 613b 06be 12af b43b 15ea 533e 03be f83d
000001a0: 580e f3bd d537 453d 7797 903f ff53 1e3b
000001b0: 854e 47be 3645 06bd 59bc 4abe 1c0f c0bd
000001c0: b482 ca3d dc20 e0bd 220e d7bc 967c 56be
000001d0: 0825 203e 488e 1f3e ac24 943d 862f c43d
000001e0: 9de7 a8bc 4114 27be 9d45 33be 690e d9bd
000001f0: f0c6 433d 1db0 b73c 239f 203b e56c 25bc
