model/hoist_1.pth (torch, 470886 bytes, 22 tensors)

covid_weight.0.weight f4 [128, 1]
000000 17 5b d5 3e a0 1a 58 bf 23 0e c4 be 18 9d 6a 3f
       0.4167106 -0.84415627 -0.38292035 0.91645956
000010 d7 87 e9 bf 87 b4 c3 3e f2 00 2b 3d 22 c9 76 3e
       -1.824458 0.3822367 0.04174895 0.24100164
000020 f5 63 b3 3d 6c 57 d2 3d 49 15 39 3d 63 c5 cc 3e
       0.087593 0.10270581 0.045186315 0.39994344
000030 5c 24 1c 3e 9b 44 58 bf 3f fc d0 be 30 23 68 be
       0.15248245 -0.84479684 -0.40817448 -0.22669673
000040 fd 33 8a 3e 49 af a7 be 40 d7 b0 3f 2f 8e 3f 3f
       0.2699279 -0.3275092 1.3815689 0.7482633
000050 47 08 19 be c7 ec 92 bf e1 ce 94 bd bb ff 2a bf
       -0.14944564 -1.1478509 -0.072660215 -0.66796464
000060 a0 b6 56 bf 4f b5 d2 3c 6c 0a bc 3e 84 78 36 3f
       -0.83872414 0.02572122 0.367267 0.7127764
000070 49 53 90 bf b5 86 1d 3f bd 64 2f 3f 7c 90 41 3f
       -1.1275417 0.6153367 0.6851309 0.7561109
000080 6d 93 69 3f 8e e7 90 c0 47 b5 85 bf a6 f3 cc be
       0.9124058 -4.528266 -1.0445946 -0.4002964
000090 6f 2e 31 3f ee 80 d9 be 88 1a e1 3e 57 c9 34 bf
       0.6921148 -0.42481178 0.43965554 -0.7061972
0000a0 ce 82 6d 3f 1b d5 a8 c0 66 f5 8c 3f a5 d2 ae 3e
       0.9277772 -5.276014 1.101239 0.34145084
0000b0 7c 52 f9 be c4 88 84 3f 51 3b 64 bf b0 a0 28 3f
       -0.48695743 1.0354238 -0.8915301 0.6587019
0000c0 24 86 9d be 39 a9 13 bf 2c e7 49 bf 5f cc 64 bf
       -0.30766404 -0.5768009 -0.78868365 -0.89374346
0000d0 22 f0 4a 3f a0 de b8 c0 1f ef 93 3f 4a 5a a1 3f
       0.79272664 -5.777176 1.1557349 1.2605679
0000e0 9e 84 96 3e ec da 45 bf dc 91 d5 3e 1e de 02 40
       0.29398054 -0.77287173 0.41712844 2.044807
0000f0 7a 42 bb bf 7d 3e 19 3f 09 45 2a 3f c6 09 3e 3f
       -1.4629662 0.59860975 0.6651159 0.74233663
000100 3e 51 42 bf 2c e4 a3 bd 20 12 73 3e ab 45 64 3f
       -0.75905216 -0.08002505 0.23737383 0.89168805
000110 78 d9 ec bf 1c 19 81 bf 3d a9 77 3f 7e 76 1a bf
       -1.8503866 -1.0085788 0.9674261 -0.60337055
000120 77 3b 72 3f d3 a9 34 3e 82 68 e7 3d ea ac 25 3d
       0.94621986 0.17642908 0.1129923 0.040448107
000130 a0 65 e1 3d 92 12 77 3f 79 53 0a c0 0d bf 81 3f
       0.110057116 0.9651271 -2.1613448 1.0136429
000140 95 67 97 c0 e1 1a 9a bf eb 15 4e 3d 07 38 62 be
       -4.7313943 -1.2039453 0.05031387 -0.22091685
000150 dd 48 d2 3f 25 ea ff be 0d 51 5c bf 44 43 f4 3e
       1.6428486 -0.49983326 -0.86061174 0.4770757
000160 39 86 5c bc e1 ea 70 3f 42 63 f7 3e f3 e2 5a bf
       -0.013459736 0.94108397 0.48317915 -0.8550255
000170 3c 82 43 3f 06 2e 21 3f c7 72 8d bf a9 e6 64 bf
       0.76370597 0.6296085 -1.1050652 -0.8941446
000180 b2 b9 44 3f 76 bc 45 3f ab 60 60 bf 50 7e 2e bf
       0.7684585 0.77240694 -0.87647504 -0.6816149
000190 1a b5 34 3f 9e 15 f9 be f9 9f df 3e 7b 14 96 3e
       0.7058884 -0.48649305 0.43676737 0.293125
0001a0 f8 ba 0f bf e5 7c 8d bf ec ae 4c 3f 04 ce b7 3e
       -0.56144667 -1.105374 0.7995441 0.35899365
0001b0 1f 8a 40 3f 85 1e cd 3e d7 05 3c 3f c7 49 83 3f
       0.75210756 0.40062347 0.7344641 1.025689
0001c0 3a 0a 68 3f 58 8b 9d c0 18 3c 02 3f 16 96 68 3f
       0.90640604 -4.9232597 0.50872946 0.9085401
0001d0 4a e5 36 3f c1 0d 93 3f 07 21 94 bf 86 7a 96 bf
       0.7144362 1.1488572 -1.1572579 -1.1756141
0001e0 00 3a 1d bf 9e 60 59 be 8f f1 7a 3f c5 16 ba c0
       -0.61416626 -0.21228263 0.9802484 -5.8152795
0001f0 a4 a4 88 3f ac f8 0e bf c1 85 b9 c0 a3 4a 67 be
       1.0675244 -0.55848193 -5.7975774 -0.22587065

covid_weight.0.bias f4 [128]
000000 ef 76 13 3e f3 3a bd 3e e8 a2 87 bc 2c 6a ec 3a
       0.14400838 0.36959037 -0.016557172 0.0018037013
000010 6b 24 1a 3f 13 24 88 3e 01 ca 4d 3e 47 af 9e 3e
       0.6021182 0.26590022 0.2009659 0.309931
000020 25 c9 09 3d 74 ae 18 bb 3e c7 78 be 63 dd ac be
       0.033639092 -0.0023297342 -0.24294755 -0.33762655
000030 c7 e0 13 be 7a 7c 5f bd 0a bb 1f be 5f 36 be 3c
       -0.14441215 -0.05456207 -0.15598693 0.023219286
000040 91 28 8d bd 5b 7f 67 bc f0 04 2d 3e 56 30 60 3d
       -0.06892503 -0.014129485 0.16896415 0.054733597
000050 d7 00 83 3e fa 7e fa 3d aa 07 8a bb ff e2 a6 3d
       0.25586578 0.1223125 -0.0042123394 0.08148765
000060 17 17 d0 3e a2 1c 4e bd a1 e5 11 bf 29 b7 fc be
       0.40642616 -0.050320275 -0.5699101 -0.4935849
000070 c3 be 38 be c8 f8 dd be 76 0f 03 3f c5 79 07 bf
       -0.1804152 -0.43353868 0.51195467 -0.5292018
000080 73 f7 24 bf ed 08 73 3e 22 e9 16 bd d2 5e 2c 3e
       -0.6444008 0.23733874 -0.036843427 0.16833046
000090 d7 b7 33 bf a4 2f 24 3d e6 7c 9e be 94 dd 43 bd
       -0.7020239 0.040084496 -0.30954665 -0.047818735
0000a0 25 69 59 bf 03 3a b2 3e 99 18 cc 3b 89 36 cc 3d
       -0.8492606 0.34809884 0.006228518 0.09971339
0000b0 2c 7c 05 bd 45 00 aa 3b bd 87 61 3e 0e 1b f9 3e
       -0.032589123 0.0051880204 0.22024436 0.48653454
0000c0 a0 dd 18 3d 6e 40 60 3d 4e da b0 be 1c f5 b5 3e
       0.037320733 0.054748945 -0.34541553 0.35538566
0000d0 1a 07 1e bc 3b 91 9c 3e 66 2b 4f bf fb 3a 4b 3d
       -0.009645248 0.30579552 -0.80925596 0.049616795
0000e0 58 c5 73 be fc 8f 52 3e b9 85 c6 be 8a c3 0d bf
       -0.2380575 0.20562738 -0.38773897 -0.55376494
0000f0 27 9d 1b 3f c4 96 11 bf 80 c5 0f 3d 3a d6 05 bf
       0.6078667 -0.56870675 0.03510046 -0.5228001
000100 70 df 00 bd f6 f0 8d bc 87 01 e8 3d 71 de eb be
       -0.031463087 -0.017326813 0.11328416 -0.46068147
000110 3c b1 8f 3e a0 b8 06 3e 2d 82 34 3f 8a 8b 6d be
       0.28064907 0.13156366 0.7051113 -0.23197761
000120 38 54 c1 3d 7e 8d 97 bd 83 8e 8e 3e 0f ac 91 bc
       0.094398916 -0.07400034 0.27843103 -0.01778224
000130 9b 52 44 3e 1d 77 ff 3c 10 47 47 3f 9c 7a 16 3c
       0.19172136 0.031184727 0.7784281 0.009184506
000140 7b 37 7f 3e a5 3f 21 3e cf 13 14 bd 88 a3 35 bd
       0.24923508 0.15746935 -0.036151703 -0.04434541
000150 4a a9 82 bf 70 a2 7a 3e b5 c7 bb 3e ad cb d9 3e
       -1.0207913 0.24476027 0.36675802 0.42538205
000160 5f ef 61 3d d1 cb c9 be 27 f9 94 be c3 18 7b 3e
       0.055159923 -0.39413312 -0.29096338 0.24521165
000170 15 86 08 bf 6f 90 1a 3f 89 5d 10 bf cb fc 8f be
       -0.5332959 0.6037664 -0.56392723 -0.28122553
000180 3b 66 1e 3e fb 22 eb be 5b 23 80 bd 73 49 82 3e
       0.15468685 -0.45925125 -0.062567435 0.25446662
000190 f7 de d3 3e 1a 44 1f 3e 95 74 9d be 79 92 91 be
       0.41381046 0.15553322 -0.30753008 -0.28432062
0001a0 2b 60 d1 3e 3f d0 7b be bf ec 0f bf be 46 bd bd
       0.40893683 -0.24591158 -0.5622062 -0.092420086
0001b0 8b e6 05 bf 6c 99 cb 3b 39 ed e6 3e e5 ae 3a bf
       -0.52304906 0.0062133577 0.45102862 -0.7292312
0001c0 fe f5 54 bf 51 bc 85 3e 08 d4 6b 3e 0d fe 01 bc
       -0.83187854 0.26120237 0.23030102 -0.007934106
0001d0 bd d6 ff be a6 e4 e7 3c 93 25 21 bf 21 4f a0 be
       -0.4996852 0.02830727 -0.6294796 -0.3131037
0001e0 7e f6 41 be 13 06 b5 3e 78 25 d6 3e 07 ac 9e 3e
       -0.18941686 0.35356197 0.4182546 0.3099062
0001f0 4a 27 4e 3c b4 fc cc 3d 35 18 9e 3e 52 6a 68 bc
       0.012582609 0.10009137 0.30877843 -0.014185505

covid_weight.2.weight f4 [1, 128]
000000 7a da 5d bd a7 a4 bc 3c 8d 3f dd 3c 77 b9 12 be
       -0.054163434 0.023027731 0.027007842 -0.14328562
000010 08 a9 1f 3e cf 51 70 bd c3 91 31 bd b4 0c 40 bd
       0.15591824 -0.05867177 -0.0433519 -0.046887115
000020 c4 fe 1c bc e2 ac ee bb 1b 5c 29 3d a2 62 22 3b
       -0.009582225 -0.007283793 0.041347604 0.0024778028
000030 e9 8c a4 3c 99 4d 10 3e d5 81 82 3d 3e 15 99 3b
       0.020086722 0.14092101 0.0637242 0.0046717217
000040 35 c2 a7 bc 74 d5 56 3d 73 8e 66 be ad 75 ea bd
       -0.020478347 0.05244966 -0.22515278 -0.11448226
000050 bd f0 2e bd ed df df 3c 6b e0 c7 3b e2 65 bf 3b
       -0.042710055 0.027328456 0.0060997508 0.005841003
000060 a0 92 01 3f 83 ee e1 bc 21 3f 6f 3d 3b e7 c6 bd
       0.50614357 -0.027579552 0.058409814 -0.097120725
000070 1f d4 02 3e cd df 0d be 92 a0 37 be a2 b8 b5 bd
       0.1277623 -0.13854904 -0.17932346 -0.088731065
000080 f8 1d 13 bf 7e 0a 1a 3f 9a 72 64 bc ba 19 e9 bb
       -0.57467604 0.6017226 -0.013943339 -0.0071136625
000090 82 14 8a bc 17 82 c9 3c 16 1e ae bd 00 ab a1 3d
       -0.016855482 0.024598164 -0.08501832 0.07893944
0000a0 fc ac 3c bd ed 4f 8e 40 64 c0 7a be 68 d3 7a bd
       -0.04606341 4.4472566 -0.24487454 -0.06123677
0000b0 ca c2 f9 bb 18 fb 22 be a2 22 24 3c 04 7d dc bd
       -0.0076220976 -0.15916097 0.010018023 -0.10766032
0000c0 36 96 3d 3b 0e 8a cf 3d e1 ee bc 3d 59 61 58 3d
       0.0028928644 0.10133754 0.0922525 0.052827213
0000d0 3b 4c e8 bd 3f 55 f6 40 0c 63 94 be 42 f5 a1 be
       -0.11342665 7.697906 -0.28981817 -0.3163243
0000e0 8e cd d5 b9 4c 0b 0e 3b f3 2d bd 3c 3e 96 a9 bf
       -0.00040779676 0.0021674214 0.0230932 -1.3248975
0000f0 d9 a9 70 3f f6 c3 b8 bc 8b 33 90 bd fd 2b 86 bd
       0.94009167 -0.022554379 -0.07041081 -0.06551359
000100 e4 91 9e 3d 87 ac 83 bc 58 44 02 bd 32 d6 b2 bc
       0.0774267 -0.016073478 -0.03180346 -0.021830652
000110 e9 14 d9 3d f1 99 b1 3c 4b e9 33 be 67 5f b9 3d
       0.105996914 0.02167985 -0.17569463 0.090514
000120 4e d4 51 be 43 fd d0 3a b0 30 1f bd e4 1b 78 39
       -0.20491144 0.0015944618 -0.03886479 0.00023661513
000130 3e f9 0b bd e1 d7 85 be 08 0e 8d 3f c9 1b 6d be
       -0.034173243 -0.26141265 1.1019907 -0.2315513
000140 d5 85 c9 3f 28 1c 33 3d f1 d0 44 bd c8 58 1e bd
       1.5743967 0.043728024 -0.048050825 -0.038658887
000150 1e 44 23 bf af f4 28 bc a8 53 e1 ba 16 f0 83 bd
       -0.63775814 -0.010312243 -0.0017191069 -0.06442277
000160 23 96 03 bc 1e 04 a8 3d 90 26 2f be b1 e3 90 3b
       -0.008031401 0.0820391 -0.17104554 0.004421674
000170 a9 02 13 be 00 65 13 be bd 50 4d 3e 6e a5 03 3e
       -0.14356484 -0.14393997 0.2005033 0.12856075
000180 f5 86 f0 bd 8e 64 2f 3b ef 0c 3b 3e c0 fe bf 3c
       -0.11744491 0.0026762816 0.18266653 0.023436904
000190 db 03 a6 bd 39 f9 18 ba 23 45 42 bd a4 a6 ca 3c
       -0.08106204 -0.0005835477 -0.047429215 0.024737664
0001a0 fc 8b b4 bc 80 62 1a 3d bd d4 93 bd a2 72 13 bd
       -0.022039406 0.037691593 -0.07218311 -0.035997994
0001b0 01 6c d5 bd 8e 1b b9 bc 15 46 44 be dd 43 38 bf
       -0.10420991 -0.022596147 -0.19167359 -0.7197855
0001c0 85 b7 02 bd 4e f2 57 40 cd cc 15 be 81 45 e9 bd
       -0.0319133 3.374164 -0.14628907 -0.1139021
0001d0 85 dc bd bd 83 d0 86 be cf 78 36 3e d7 00 25 3e
       -0.092705764 -0.26330957 0.17819522 0.16113602
0001e0 6f 39 99 3d 97 12 74 bc b5 8e d7 bd 08 2a a4 40
       0.07481658 -0.01489701 -0.10525266 5.130131
0001f0 b1 a7 68 be 91 94 0c 3c fd d9 62 40 e2 df 85 3c
       -0.22720219 0.008580343 3.544555 0.016342107

claim_weight.0.weight f4 [128, 20]
000000 84 fa d8 3e fe 5c 68 3e 61 cc b7 3d 51 8c f1 ba
       0.42378628 0.22691724 0.08974529 -0.0018428658
000010 c7 e3 ed 3d 38 07 77 3d bd b2 77 3e 4b 2b 3b 3e
       0.11615711 0.06030962 0.24189277 0.18278234
000020 91 a5 1b be 64 27 4a 3e c1 4a 47 3e a2 e2 80 3e
       -0.15199877 0.19741589 0.1946211 0.25172907
000030 8f 8a 15 3e bf e4 1e 3e 6c 10 60 3e ba b6 af bd
       0.14603637 0.15516947 0.21881264 -0.08579774
000040 72 4f 2c 3e 34 8a 9d 3d c3 ae b4 bc 13 6b 4b bd
       0.16827181 0.07692376 -0.02205599 -0.04966266
000050 3f 36 12 be 19 f0 eb bd cc a6 01 be 60 79 11 3e
       -0.14278506 -0.11520404 -0.12661284 0.14206457
000060 54 27 a7 bc f0 90 1a bd 72 af 37 3e e9 f7 33 3d
       -0.020404495 -0.03773588 0.17938021 0.043937597
000070 84 5c 7e be 86 c4 68 3d e6 87 d3 3d 31 67 68 be
       -0.2483998 0.056828044 0.10328655 -0.22695614
000080 9a 15 c2 3d 85 8e 8d be 2a 32 6b be e5 fd 9b bd
       0.094767764 -0.27647796 -0.22968355 -0.07616786
000090 e1 77 06 3e 4b 75 8b 3c ff 44 41 3e 20 1e a9 3d
       0.13131668 0.017023703 0.18873976 0.08257699
0000a0 65 6a d6 3e b3 5d 8f bd a6 76 a1 be 0a cf 71 3d
       0.41878048 -0.070002936 -0.31535834 0.05903534
0000b0 01 d0 0a 3e 7b eb 4b 3c e1 00 e1 bd 9b c8 00 3e
       0.1355591 0.01244628 -0.10986496 0.12576525
0000c0 21 08 1a bd c0 0e f6 3d b7 03 c8 bd ef 5d 0d 3e
       -0.03760541 0.12014532 -0.097663336 0.13805364
0000d0 76 80 09 3e 78 93 25 3e 5f 49 41 3e 7c 5a da bd
       0.1342791 0.16169536 0.18875645 -0.1066179
0000e0 ad a9 96 3e 76 0b 67 be 37 32 93 3e 8a 62 b4 3d
       0.29426327 -0.22562966 0.28749248 0.08807857
0000f0 0d 5d b3 3d 21 f4 20 be 76 b1 d0 3d 7a ba 02 be
       0.087579824 -0.15718128 0.10190098 -0.12766448
000100 8c f8 60 be 41 da 30 3d cc 4a eb 3d af 26 41 3e
       -0.21969813 0.043176893 0.11488876 0.18862413
000110 9e 7d 26 bd 58 09 2e 3e 27 b1 f1 3d 57 26 15 be
       -0.04064714 0.16995752 0.11801367 -0.14565407
000120 d1 e9 55 be 7e dc cd 3d cf 61 fe bd 22 1c a1 3d
       -0.20889975 0.10051821 -0.12420999 0.07866694
000130 86 73 60 be 6c 7f fe 3d ce 63 0d 3d 0e 13 71 bd
       -0.21919069 0.124266475 0.03451901 -0.058856063
000140 f8 fe 7e 3d cc 3a 4f be 10 8d c3 bd 34 d6 3d bd
       0.062254876 -0.20237273 -0.0954839 -0.04634686
000150 8d 95 32 be e8 27 d2 bd 52 0b 12 be 15 4d 2e 3e
       -0.17439862 -0.10261518 -0.14262131 0.17021592
000160 73 dc 13 3e 8f a3 18 3e 6d 0e 0d 3e 7e 00 81 be
       0.14439563 0.14906143 0.13775034 -0.25195688
000170 27 5a 04 3d 1d e1 0d 3d 58 ff 57 be 8f 8d 55 3d
       0.03231254 0.034638513 -0.210935 0.052136954
000180 6f 66 2c be 14 b2 0e bc ed 6b dd 3c f7 9e 19 3e
       -0.1683595 -0.008709449 0.027029002 0.15002047
000190 b8 7f 8a be fd 25 04 be f6 95 a0 3e 0c 1b 75 3d
       -0.27050567 -0.12905116 0.3136441 0.059840247
0001a0 74 19 21 3d a2 fe 84 3d 5b 8e ec bd 44 b0 f1 3d
       0.039330915 0.0649388 -0.1155059 0.11801198
0001b0 8a 67 f2 bd 64 02 6a 3d f3 be be 3d cb 47 56 3e
       -0.11836155 0.057131186 0.093137644 0.20925824
0001c0 23 3e 97 bd 47 c7 09 be 3e 88 70 3d 53 16 85 be
       -0.073848985 -0.13454925 0.05872368 -0.25993595
0001d0 70 58 34 be 77 26 eb bd 90 e3 f4 bd 87 04 96 bd
       -0.17611861 -0.11481946 -0.119574666 -0.07325082
0001e0 cd 0c b9 be 85 64 00 bd 69 06 62 bd 75 47 32 3e
       -0.3614258 -0.031345863 -0.055181894 0.17410071
0001f0 98 00 77 bd a5 4b 40 bd c0 04 2d 3d 08 d0 3b be
       -0.0603033 -0.04694714 0.042240858 -0.18341076
000200 3d ec 62 3e 8b 78 9f 3e b3 19 8d be fe 73 20 be
       0.2216043 0.31146654 -0.2755867 -0.15669248
000210 58 b3 e9 bd 4a 55 b1 bc 91 43 8f bd 6c 96 87 be
       -0.1141116 -0.021647114 -0.06995309 -0.2648195
000220 d1 ea 02 be 66 13 42 3e 3d 18 c4 bd 2f 5b 09 bd
       -0.12784888 0.18952712 -0.095749356 -0.033534225
000230 9e c8 9c bf 13 e6 88 be 2c 08 0e bd f1 19 e4 be
       -1.2248724 -0.26738033 -0.034675762 -0.44551042
000240 bc c3 1b bf 92 95 f2 be 0c 37 6b 3d 9a 13 10 be
       -0.6084554 -0.47379738 0.057425544 -0.14069977
000250 ad ed 43 bd d1 25 e5 3c 62 ee 8f be 14 28 1e be
       -0.047834087 0.027972134 -0.2811156 -0.15444976
000260 af 5f 89 be 21 c7 07 bf 6c c9 f0 bd ee 56 db be
       -0.26830813 -0.5303822 -0.11757168 -0.4283976
000270 92 09 db be f6 b0 67 3c 95 7f 25 bf 13 a2 e6 be
       -0.4278074 0.014141312 -0.646478 -0.45045528
000280 63 fd a8 bd 43 9a b5 be 67 57 fe 3c 8b bd 8d be
       -0.08251455 -0.35469255 0.031047536 -0.27683672
000290 05 d6 88 bd 02 56 42 be 70 04 88 be 1a 5f 4b bd
       -0.06681446 -0.18978122 -0.26565886 -0.049651243
0002a0 eb e6 b2 be c6 db 8d be d7 da 0b be 8c 44 81 bb
       -0.349418 -0.27706736 -0.136577 -0.003944939
0002b0 cc e3 9d be 40 52 a5 be 91 da bc be 1e 03 c2 be
       -0.30837858 -0.32289314 -0.36885503 -0.37893003
0002c0 26 f2 80 be 6a 52 6d be f6 bb 98 be 95 5e 18 be
       -0.25184745 -0.2317597 -0.29830903 -0.1487983
0002d0 ae 4d a4 3d aa 23 4b be 38 e5 34 be b1 8f 05 bd
       0.08022629 -0.19837824 -0.17665565 -0.032607738
0002e0 3b 29 c2 bd 89 eb a9 3d dd d1 ec bd b4 a8 88 be
       -0.0948052 0.08296878 -0.11563466 -0.2669121
0002f0 2f 25 3c be 97 00 3b be e8 1e fb bd e1 a5 3e 3d
       -0.1837356 -0.18261944 -0.12261754 0.046544913
000300 17 66 f4 bd b7 11 bc bb c7 35 eb bd 43 4b 6f 3e
       -0.119335346 -0.0057394165 -0.114848666 0.23368554
000310 d5 ba a2 bc 84 ea 05 be 4d e0 ae 3d 4b 45 4c 3c
       -0.01986448 -0.13077742 0.08538876 0.012467693
000320 9c 77 62 be 8a 03 43 be 1d cc e5 3d 6d f6 66 3d
       -0.2211594 -0.19044319 0.11220572 0.056387354
000330 a2 21 0c 3e 75 67 8f bd 66 58 3e 3e c4 e9 3b bc
       0.13684705 -0.07002155 0.18588409 -0.011469308
000340 d1 c6 07 be 7a f3 db bd 0c 95 2c 3e 47 12 16 be
       -0.13259436 -0.10739799 0.16853732 -0.1465541
000350 16 51 82 be a1 25 3c be 5c 76 46 bb 79 68 a8 3d
       -0.2545249 -0.1837373 -0.003028295 0.082230516
000360 dd af 0e be 28 f3 00 3e 41 7e 3c 3d de 7f 1c be
       -0.13934274 0.12592757 0.046018843 -0.15283152
000370 3c 6f 4b 3d 11 88 a7 3e a1 fe 92 3e b5 26 55 bd
       0.04966663 0.32720998 0.2870989 -0.052038867
000380 72 5e c0 3e 7a 51 bb 3d 9a 84 95 3d 79 50 21 3e
       0.37572056 0.091464 0.07300682 0.15753354
000390 67 78 06 3d a5 65 e0 3d 5d 00 c7 3e 85 4a 49 3e
       0.03282967 0.10956887 0.38867465 0.19657333
0003a0 de 4e 79 3e 14 66 3a 3e a2 a7 26 3e ac 64 55 3c
       0.24346492 0.18203002 0.16274884 0.01302449
0003b0 76 f1 55 bd cf 6b 9c 3e 40 d9 8a 3e 58 47 37 3e
       -0.05223223 0.30551 0.27118874 0.17898309
0003c0 f6 f5 36 3f f4 83 03 3e 31 2f 79 3e 01 5a 9d 3d
       0.71469057 0.12843305 0.24334408 0.076831825
0003d0 7e f2 e6 3e 77 6e 82 3e 0b 23 9b 3d 13 fd 5a 3e
       0.45106882 0.25474903 0.07575043 0.21385603
0003e0 ff d0 d1 bd 41 cd e5 bd ad 8d 3a 3e 6c b7 ca 3d
       -0.10244941 -0.1122079 0.18218108 0.09898266
0003f0 63 87 2e 3d 47 5a 6c be b0 e5 92 bb 92 bb 87 3e
       0.042609584 -0.23081313 -0.0044829473 0.26510292

claim_weight.0.bias f4 [128]
000000 96 a4 c4 bd 06 1e ef bd 32 61 af bd 64 65 03 be
       -0.09601705 -0.116756484 -0.085634604 -0.12831646
000010 d4 64 9f bd eb 9e 05 be 00 17 84 bd cd e3 24 3f
       -0.07782903 -0.13048904 -0.064496994 0.64410096
000020 48 d9 41 be f2 5d 5b be 44 45 ac bd 91 a2 a9 bd
       -0.18930542 -0.21422556 -0.08411649 -0.0828296
000030 19 82 a9 bd 41 c7 45 bd ee 84 29 3f 46 55 4c bd
       -0.08276767 -0.048285726 0.6621846 -0.04988601
000040 7f 32 dc bd 7d 5b df bd b5 c3 0f be 3e 8f 37 3f
       -0.10751819 -0.10906122 -0.140395 0.71702945
000050 a8 ff 6f 3d 4e ef ed bd ea cf d5 bd f4 3e c0 bb
       0.058593422 -0.11617909 -0.10440047 -0.0058668796
000060 25 25 44 3f 6d 2d 55 3c aa 90 ec bd 82 fd 6a 3c
       0.7661918 0.013011319 -0.1155103 0.014342668
000070 c4 f5 d6 bd 4e fc 77 3d 33 0f 08 be 3d 05 2b 3f
       -0.10496095 0.06054335 -0.13287048 0.6680487
000080 62 dd 6b be 68 4e 9c bd 66 06 48 bc 73 05 16 be
       -0.2303367 -0.07632142 -0.012208557 -0.14650516
000090 21 91 24 be 4b 76 cf bd 2c ca 0c bd 5a 0e 83 be
       -0.16070987 -0.101299845 -0.034372494 -0.25596887
0000a0 30 89 d9 bd d3 b2 55 3d 21 da 26 bd 86 36 94 bd
       -0.106218696 0.052172493 -0.040735368 -0.07236962
0000b0 a8 46 3f be 07 0a 00 be 5a 8d 02 be 02 56 13 3f
       -0.18679297 -0.12503825 -0.12749234 0.5755311
0000c0 de 9a 13 3e 23 34 e4 bd 50 f9 25 be e1 5a 33 3f
       0.14414546 -0.11142757 -0.16208386 0.70060545
0000d0 f3 ec a5 3d dd 05 da 3e ea 03 02 bc b9 51 21 3f
       0.08101835 0.42582598 -0.0079355035 0.63015324
0000e0 d3 84 57 bd 6e 7c b0 3c 34 66 ac 3e 8b 69 43 be
       -0.052616905 0.021543708 0.33671725 -0.1908323
0000f0 ef e0 55 bc a9 51 58 be c2 c3 11 bd 7a 66 25 be
       -0.013054117 -0.21124901 -0.03558708 -0.16152373
000100 6f 11 d5 3a 51 7b 02 be 60 fc e5 bd d2 d3 5c be
       0.0016255806 -0.12742354 -0.11229777 -0.21565178
000110 bf 8a 21 be b1 16 6a bd eb 04 02 be 2a d3 ac bc
       -0.15775584 -0.057150546 -0.12697189 -0.021096785
000120 b1 ef bf bd b9 b1 e7 bd d2 98 ae bd 9c bb 65 bd
       -0.093718894 -0.11313195 -0.08525242 -0.05608712
000130 a8 e7 19 bd b5 c2 12 3f ce b1 ee 3e fd 54 61 bd
       -0.03757444 0.5732835 0.4662003 -0.05501269
000140 48 8c 2f be b9 2f 46 bd f3 c9 eb bc 00 fa f2 3b
       -0.17143357 -0.048385356 -0.02878282 0.007415056
000150 62 81 d0 bd 12 7e c2 be d3 2b b0 3c ad a8 25 3f
       -0.10180928 -0.3798681 0.021505272 0.64710504
000160 94 ce b6 bd 3d f9 37 3b 73 db 91 be d5 d7 9a bd
       -0.089261204 0.0028072142 -0.2848774 -0.07560698
000170 c5 fc 1a be ad 62 78 bd 9a d8 f8 bb 6e 24 5d be
       -0.15135486 -0.06064098 -0.0075941803 -0.21595928
000180 fa 26 be 3d 04 8f 17 3f a9 64 8d bc 50 fe ad 3d
       0.09284778 0.592026 -0.017259913 0.08495772
000190 73 ab ba 3f fb 77 11 be f3 45 a3 bc bd 4a 1b 3f
       1.4583572 -0.14205925 -0.019930815 0.60660917
0001a0 4d 0a 00 3f b1 fc c6 bd d2 ad bf 3b 37 6e 24 3e
       0.5001572 -0.09716166 0.0058495784 0.16057669
0001b0 d6 56 e9 bd 59 c5 45 bd 4b fa 53 3f 20 e1 8a 3c
       -0.11393516 -0.04828391 0.8280379 0.016953051
0001c0 87 52 87 3d 38 98 3c 3f 1a e9 ae bd ed cd 82 bb
       0.06607538 0.7366977 -0.08540554 -0.0039918334
0001d0 01 96 f3 3d b7 fb 25 be 79 02 4e bc 82 3b cd bd
       0.11893845 -0.16209303 -0.012573832 -0.10021116
0001e0 db 74 f2 3e f8 84 78 3c a7 e4 f9 3e 43 26 0c be
       0.4735478 0.015168421 0.4880726 -0.1368647
0001f0 3a cc 8a bd d1 98 f6 bb 1b f6 e4 bc 9d af 06 bd
       -0.067772344 -0.0075255414 -0.027949383 -0.03288232

claim_weight.2.weight f4 [20, 128]
000000 1a 16 85 3e 5c 2c 06 3e 6a 69 d2 3e 7c c3 33 be
       0.25993425 0.1310286 0.4109605 -0.1755504
000010 aa f5 57 bc 8b a7 35 be cc e9 39 be ac fb 18 3f
       -0.0131811295 -0.17739694 -0.18155593 0.5975902
000020 05 58 b6 be b7 9a 9e be a7 aa d8 bc 16 df b6 3e
       -0.3561403 -0.30977413 -0.02644856 0.35717076
000030 e3 d4 3d 3d 44 90 d4 bd e3 d5 aa 3f 20 af 3c bd
       0.046345603 -0.10379079 1.3346523 -0.04606545
000040 7d e9 05 bc d7 63 72 3d fe c8 f0 3d c3 15 5b 3f
       -0.008173344 0.059177246 0.11757086 0.8558008
000050 e7 02 43 bd cf 3d e4 3d f0 ec 8e bd 8c fa 8d bd
       -0.04761019 0.111446016 -0.06978786 -0.06932554
000060 68 15 4c 3f c7 f9 9b be 38 c1 57 bc 86 64 d8 3d
       0.79720163 -0.30464002 -0.0131686255 0.10566048
000070 ab 2d 99 3d 49 87 54 be fb d5 b7 be 3e d4 ab 3f
       0.074794136 -0.20754732 -0.35905442 1.3424146
000080 55 31 ef bc 30 9a 2b 3e e5 a2 a9 bd db 81 b1 bd
       -0.029198328 0.16758037 -0.08283023 -0.08667346
000090 0d 69 d4 bd 25 fa e1 3d f2 fb 6d be df fe 0c 3d
       -0.10371599 0.110340394 -0.23240641 0.03442275
0000a0 ad eb 02 bd 89 6a 33 bd a2 bb 45 be ce ed 5e bc
       -0.03196304 -0.04380277 -0.19309857 -0.013606502
0000b0 c1 8a 0d 3c 6d 85 ab 3c 0f 4a 24 3e fc bd a7 3f
       0.008639039 0.020937646 0.16043876 1.3104854
0000c0 c4 71 0c 3f 42 5c 02 3e 4c c2 c3 be 32 78 88 3f
       0.5486109 0.12730506 -0.38234174 1.0661681
0000d0 df 6e 44 3e 73 24 a6 3f 38 81 9c be c2 40 9c 3f
       0.19182919 1.2979873 -0.30567336 1.2207263
0000e0 5e b3 b3 3c f4 b6 49 bc 25 65 e1 be 42 3e a9 3d
       0.021936115 -0.012311686 -0.4402248 0.08263828
0000f0 11 9f 97 3c c4 67 8c bb d8 96 51 bd 1d fa 0e be
       0.018508466 -0.0042848308 -0.051169246 -0.13962598
000100 58 25 d3 bd 68 bd a6 bd 0c f5 3c 3e b7 22 fc bd
       -0.10309857 -0.08141595 0.18452853 -0.12311309
000110 6c e3 84 3b 86 aa fe bc d1 46 e1 bc 36 f1 84 bd
       0.004055431 -0.031087171 -0.027499588 -0.0649132
000120 5a e1 d3 be 51 6a 2a 3e c2 43 8e 3d c9 87 ff bd
       -0.41382867 0.16642119 0.069465175 -0.12477071
000130 5d f8 72 be f3 98 9e 3f c2 f2 1b 3f 06 e4 9d bc
       -0.23727556 1.2390426 0.60917294 -0.01927377
000140 ec 1d ac bb b5 ae 99 bd 70 6b 39 3d 25 54 8f bd
       -0.0052525904 -0.07504026 0.045268476 -0.06998471
000150 8d 75 6f bd dc ff 7b be 94 c2 a3 bd ad 28 90 3f
       -0.058461715 -0.24609321 -0.07996097 1.1262413
000160 58 b9 33 3e 68 bb bc bb 39 52 01 3e 9e ef 9b 3e
       0.17551172 -0.0057596453 0.12629022 0.3045625
000170 cb 32 79 bd 04 5a de 3c 56 08 29 be 34 e7 0b bf
       -0.060839456 0.027142532 -0.16507086 -0.5464966
000180 eb b9 72 3e c1 32 94 3f 42 0d d0 bc 01 7f f0 bd
       0.23703735 1.1577989 -0.025396947 -0.11742974
000190 7d 70 9f 3f d7 52 0a 3e b4 a1 81 bc 4e bc 8c 3f
       1.2456204 0.13508163 -0.015824176 1.0994966
0001a0 3d 61 23 3f 02 86 31 3d 35 79 39 3d b3 82 3f 3e
       0.6382025 0.04334069 0.045281608 0.18702202
0001b0 69 f7 02 bf d6 f2 60 bd b9 fb 28 3f 57 25 72 3d
       -0.5115877 -0.054919086 0.660091 0.05911764
0001c0 1e 11 2c 3e 44 ca 96 3f 9b 75 6e 3e b1 6d d5 bd
       0.16803405 1.1780477 0.2328705 -0.104213126
0001d0 ae 68 67 3e 35 ad e8 3b 30 1e 05 3d 54 15 78 3e
       0.22598526 0.007100726 0.032499492 0.24226886
0001e0 91 4d c2 3e d3 0d 5a 3e 4d 99 a8 3f 07 fc b3 3c
       0.37949803 0.21294336 1.3171784 0.021970762
0001f0 84 7f 5e bd 42 f7 90 3c b6 ad cc bd a7 66 8e bd
       -0.054320827 0.017696027 -0.0999407 -0.06953173
000200 a4 76 c7 be f7 1f d0 bd 54 74 6d be 46 a3 16 bd
       -0.38957703 -0.10162347 -0.23188907 -0.036776803
000210 2c 87 8e bd 40 41 76 3e 43 89 72 3e 3f 41 f2 bd
       -0.06959376 0.24048328 0.23685174 -0.11828851
000220 99 5b 6c 3a 69 87 0d 3e fc 54 19 be c9 e1 24 bf
       0.00090163347 0.13821186 -0.14973825 -0.6440702
000230 43 fd fe be 40 61 79 bb 56 9b b5 3f 62 05 c0 bd
       -0.49802598 -0.003805235 1.418803 -0.09376027
000240 e3 dd 35 be 07 d1 0f be 84 1c a6 be 05 b1 07 3f
       -0.17760424 -0.14044581 -0.3244363 0.53004485
000250 d7 f8 c8 3e 6b 94 9e be b3 d3 9d bd 03 c9 2d 3e
       0.3925235 -0.3097261 -0.07706394 0.16971211
000260 0d a4 52 bd 38 a5 95 3e 38 b5 99 bd 2a 8f f0 bd
       -0.051425982 0.29227614 -0.07505268 -0.117460564
000270 ed 03 d1 be 3e 96 ab 3e 9a 9f ce 3e db 3d 07 40
       -0.40823308 0.33513063 0.4035614 2.1131504
000280 ee de a9 3d 6f 8c 05 be dd b7 18 be a3 c3 c6 bb
       0.082944736 -0.13041852 -0.14913888 -0.006065802
000290 1f 1e 12 be 57 30 22 be dd fe 1c 3e 0c 89 0a 3e
       -0.14269303 -0.15838753 0.15331598 0.13528842
0002a0 1b fa f9 bc 07 42 a7 3e 04 45 1f 3e 98 53 5b be
       -0.030514767 0.32667562 0.15553671 -0.21418607
0002b0 76 a1 a3 be 42 33 e8 bd fc 15 94 be 45 6a 92 3f
       -0.31959122 -0.11337902 -0.28923023 1.1438681
0002c0 31 a2 8b be 3e 03 ab be bf 77 19 3e 40 00 cc 3f
       -0.2727218 -0.3340091 0.14987086 1.5937576
0002d0 78 d4 90 be 76 25 1c bf bc 07 a0 3e 1d a3 da 3f
       -0.282871 -0.6099466 0.312559 1.7081028
0002e0 92 9b cd bc c5 d7 92 bd 12 ea d8 be de d1 77 be
       -0.025098596 -0.07170061 -0.4236608 -0.24201152
0002f0 e2 45 9e bd 8b 07 2d bd c8 06 74 bd c4 4b c3 3d
       -0.07728173 -0.04224352 -0.05957678 0.095359355
000300 e3 c6 00 be 84 27 15 bd e9 7c 3c bf 51 83 74 3e
       -0.1257587 -0.03641464 -0.736281 0.23878218
000310 67 56 a4 be fc 13 fc bd af 87 e7 bd 34 e0 93 bc
       -0.3209717 -0.12308499 -0.113051765 -0.018051244
000320 3f ab 25 3e 34 4d e6 be 5a c2 e1 bd ef c1 71 3d
       0.16178606 -0.44980776 -0.11023398 0.05902284
000330 90 27 c1 bd b2 1f b2 3f 9f b9 4b 3e 06 55 04 be
       -0.09431374 1.3915923 0.19895028 -0.12923059
000340 ff 13 c3 bd 5a 7d 47 3d 25 e4 97 bd ba 8f d7 3e
       -0.09525298 0.04870353 -0.07416562 0.42101842
000350 b7 4b 9b 3d fb 7f d7 3e 60 a8 74 bd 5a 72 6d 3f
       0.07582801 0.4208983 -0.059730887 0.9275261
000360 3f ab 76 be a0 2a 89 bd 2b b4 aa bb 2f 79 94 be
       -0.24088763 -0.06697583 -0.005209466 -0.28998706
000370 11 c0 b2 3d f5 3a c3 bd 5c f4 c5 3d fc 34 6e 3e
       0.0872804 -0.095327295 0.096657485 0.232624
000380 b1 c5 64 be 12 c8 ca 3f 3b 98 7a 3c 09 f4 a0 3e
       -0.22341038 1.5842307 0.015295084 0.31436184
000390 fd c2 08 41 a8 cb 92 be a3 c7 43 3c 95 91 80 be
       8.547605 -0.28671002 0.011949453 -0.2511107
0003a0 02 63 43 bf 47 24 80 3d 78 e3 af bd 64 d9 46 3e
       -0.7632295 0.06256919 -0.08588308 0.19418865
0003b0 cd 5f 50 3e 1a aa f4 bd 44 de bf 3f 24 ca 8e 3d
       0.20349045 -0.11946507 1.4989705 0.06972149
0003c0 04 70 3e be f8 9e ad 3f 5c 4e 28 bf 2c 1c f6 bd
       -0.18597418 1.3564138 -0.65744567 -0.12017092
0003d0 e4 fc 6c bd 0e 0f ce be f5 99 5b bd 0f 7d 9c be
       -0.057858363 -0.4024586 -0.05361362 -0.30564162
0003e0 31 3d c5 3f 5b eb b3 be 23 36 a0 be b1 59 70 be
       1.5409299 -0.351405 -0.31291303 -0.23471715
0003f0 e1 b1 45 bd 96 4c a4 bd 8e b9 f8 3d 1a c3 9a bd
       -0.04826534 -0.0802242 0.12144767 -0.07556744

claim_weight.2.bias f4 [20]
000000 0e fc 16 3f 7b d4 98 be 71 3c 4b be 65 e6 83 be
       0.58978355 -0.2984961 -0.19847275 -0.25761715
000010 e6 0d 66 bc 7f 6e 29 be cf b8 12 be 66 08 9a be
       -0.0140414 -0.16546057 -0.14328311 -0.30084532
000020 3e a5 2c be 50 0b b8 bd ea 50 80 be 71 ae 59 be
       -0.1685991 -0.08986533 -0.25061733 -0.2125795
000030 65 f9 28 3d 4d 49 b8 3d e2 63 8f be 10 a0 35 be
       0.041253466 0.08998356 -0.28005892 -0.1773684
000040 1d a7 55 3e be 91 21 be 7e 98 25 bd 9f b1 6b be
       0.2086453 -0.15778252 -0.04042863 -0.23016976

hos_weight.0.weight f4 [128, 4]
000000 5f bb 77 3d a9 fe 01 3e 61 2e 8c 3d 2f 70 dd 3e
       0.060481425 0.12694801 0.068447836 0.43249652
000010 1c bd 05 c0 2e b4 30 c0 a7 9f c3 bf 6c 2d ec bf
       -2.0896673 -2.7609973 -1.5283097 -1.8451362
000020 df 8d 4e 3e ae 7b 2d 3e 4d e2 2b 3e f7 8a e5 3e
       0.20171307 0.16941711 0.16785546 0.44832584
000030 a7 02 3a be 72 a5 0f 3f d9 d0 82 3e 81 96 44 3e
       -0.18165074 0.56111825 0.25549963 0.19198038
000040 88 a0 8d bf dd 26 57 bf ff 20 77 bf 7b a7 5b be
       -1.1064615 -0.84043676 -0.96534723 -0.21450607
000050 be fa 82 be b4 8c 79 3e 09 d5 2f be e5 14 93 be
       -0.25581926 0.2437008 -0.1717111 -0.2872688
000060 bf 26 0b 3e ab 08 e9 be b7 95 99 3e dc 26 3f bd
       0.13588999 -0.45514426 0.29997036 -0.04666792
000070 27 a5 6d 3e 98 c8 c1 bd 07 a7 08 be 56 f7 69 3e
       0.23207532 -0.09462088 -0.13344966 0.22848257
000080 e9 8c 14 3e a0 71 9c 3d a2 57 7e 3e 88 79 3a 3e
       0.14506878 0.0763886 0.24838117 0.18210423
000090 83 8b 16 be 3a 27 02 bf 0c 7e ca 3e fe 64 b2 3e
       -0.14701657 -0.50841105 0.3954929 0.34842676
0000a0 0e 69 a9 be 6a fc 62 bd f6 a7 2c 3e 6f c9 96 3e
       -0.33087963 -0.055416502 0.16860947 0.29450557
0000b0 ec 3a 12 be be 9e 1b 3e 13 ef 33 be 88 f1 de 3d
       -0.1428029 0.15197274 -0.17571668 0.10885912
0000c0 e6 c8 f1 bd 45 89 d5 3d 68 58 93 3e 73 d8 94 ba
       -0.118058965 0.10426573 0.28778386 -0.0011356011
0000d0 37 3a ae 3e db 7e e8 3d de 0f 96 be 7d 02 4a 3f
       0.3402879 0.11352321 -0.2930898 0.78910047
0000e0 d7 71 b6 bd b8 9c 58 be 12 30 d1 3c 16 16 43 3d
       -0.08908432 -0.21153533 0.025535617 0.047628485
0000f0 ff 6f ee 3d 50 0d ad be 0a fd 9a bd dd 69 05 be
       0.11642455 -0.3379922 -0.075677946 -0.13028665
000100 ff 7f ac b9 34 66 a3 be 2d b9 9f 3e 8d 45 b0 3d
       -0.0003290176 -0.31913912 0.31195965 0.08607016
000110 84 e5 30 3d 62 0a d0 3d b6 44 f3 3d 93 ac f3 3d
       0.043187633 0.1015823 0.1187834 0.1189815
000120 b5 e2 59 be 50 3f 08 bd 5a d4 f6 be 5e 76 d7 3e
       -0.21277888 -0.033263505 -0.48208886 0.42082494
000130 f7 cf 86 3e 9b bc 1c 3f d2 91 1a bf f8 74 2a 3f
       0.2633054 0.6122529 -0.60378754 0.6658473
000140 ff 47 31 3e 45 49 b3 3d 60 0e df 3e 7b 84 41 3f
       0.1731262 0.087542094 0.43565655 0.75592774
000150 e9 fb 9a 3e 9b c6 4a bf 40 07 b4 be 58 c8 76 be
       0.30270317 -0.792093 -0.3516178 -0.24099863
000160 43 f5 51 c0 f5 50 b6 c0 5c f0 26 c0 fb 27 99 c0
       -3.2805946 -5.6973825 -2.6084204 -4.7861304
000170 fc a5 a7 be 94 5c ee 3e 36 93 04 3f 26 0d 6c 3f
       -0.32743824 0.46555007 0.51787126 0.9220756
000180 c2 75 87 bd 5e 5b 59 bf 7c 46 e2 be bb 5b 2c 3c
       -0.066142574 -0.8490504 -0.441944 0.010519917
000190 cf bd 22 be 29 bc 48 bf 69 66 15 bf 34 71 31 bf
       -0.15892719 -0.7841211 -0.5835939 -0.6931336
0001a0 70 ab 12 bf 8f 9a 40 3e 5e 58 31 3d 3f 8a 4f bd
       -0.5729284 0.1880896 0.043297164 -0.05066895
0001b0 26 00 32 3e eb 68 3e 3f 33 43 8e 3d 0f 93 49 3f
       0.17382869 0.7437884 0.06946411 0.7874002
0001c0 26 46 a2 be 62 c8 ab 3e 9f 4f b6 3e 79 1a 7f 3e
       -0.31694144 0.33551317 0.3560762 0.24912442
0001d0 23 82 b0 3e 69 d7 c2 3f bf 1d 96 3e 87 eb 44 3f
       0.34474286 1.5221988 0.2931957 0.76921886
0001e0 3e 1d 40 3e de 7d 76 3d c4 e9 08 bf 6a e9 75 3e
       0.18761155 0.06017863 -0.534817 0.24014822
0001f0 71 d6 48 be 50 8e 8f 3d ad 89 f2 bd 8c 21 7e 3e
       -0.19613053 0.07009566 -0.11842666 0.24817485
000200 ac 2f f0 be 18 95 1a be a6 b1 b8 3e 9b 2d eb be
       -0.4691137 -0.15095937 0.36073035 -0.45933232
000210 fa 8a 07 be 08 f8 30 3f 37 b3 bd bc 9e c1 14 3f
       -0.13236609 0.69128466 -0.023156745 0.58107936
000220 06 a2 cc 3e c6 a4 87 3f 25 b4 ea 3e 98 b1 5d 3f
       0.39967364 1.059716 0.45840564 0.8659911
000230 2d 4d f9 bf fd 83 6d c0 13 ee 00 c0 41 d7 57 c0
       -1.9476677 -3.711181 -2.014531 -3.372513
000240 17 e0 7e 3d 93 08 20 3f 71 01 f8 bd 4c 88 db 3e
       0.062225427 0.62513083 -0.1210965 0.42877424
000250 e8 99 77 3e d5 4a e1 3e d9 63 df bd 10 5b ea 39
       0.24179804 0.44002405 -0.10907716 0.00044699805
000260 f5 59 85 be b3 4c 31 bd b8 24 b6 bd d3 9e 54 be
       -0.26045194 -0.043286037 -0.08893722 -0.20763712
000270 a1 1e 80 3e 55 9c 57 3f 0e d7 9a be f7 21 e4 3e
       0.25023368 0.8422292 -0.302422 0.44557163
000280 a8 d9 68 3e 4a c5 ca be d4 b8 80 be 1b c6 da 3d
       0.2273928 -0.39603645 -0.25141013 0.10682317
000290 d6 d7 c9 3e bc 5b be be d8 3e fc bd b5 44 bb 3e
       0.39422482 -0.37179363 -0.12316674 0.36575857
0002a0 46 56 42 3e b5 c4 b0 be a8 2f 9d 3d 31 d8 a8 bd
       0.18978223 -0.34525076 0.07675105 -0.0824436
0002b0 39 ea f9 be d3 44 3a 3f fc eb 93 3e 01 fd 83 3e
       -0.4881151 0.7276127 0.2889098 0.25778964
0002c0 c6 46 d0 be ce 42 9a 3f 20 a2 d8 3d 7a 28 9a 3f
       -0.40678996 1.2051637 0.10577798 1.2043602
0002d0 8d f0 b3 be 28 a3 05 bf 4d 81 e2 3e 8d 8b ea 3c
       -0.35144463 -0.5220208 0.44239274 0.028630996
0002e0 24 14 77 3c 0d 9e 5e 3e ea c5 7d 3e 76 bc cd 3e
       0.0150804855 0.21739979 0.2478253 0.40182847
0002f0 c7 b5 d5 be a5 7a 79 3e 29 df 23 3e 48 22 24 be
       -0.41740248 0.24363191 0.16003098 -0.16028702
000300 82 ea 17 3e 2e 82 59 3e 64 46 3f 3c 77 29 ab be
       0.14835551 0.21241066 0.011674497 -0.33430073
000310 16 61 8f 3e bf 3f e6 be c0 55 46 be bd db f1 3d
       0.28003758 -0.4497051 -0.19368649 0.1180949
000320 81 e2 a7 bd 19 31 b5 3f 80 69 9b 3e fd 57 38 3f
       -0.08197499 1.4155608 0.30353928 0.7200926
000330 ed a0 96 3e e4 ce b5 3e e1 8c 35 be d8 1a 3f 3f
       0.29419652 0.35509408 -0.17729522 0.74650335
000340 ea 56 83 bf b0 2f 19 c0 62 21 87 bf bd 3a de bf
       -1.0260899 -2.3935356 -1.0557063 -1.7361676
000350 52 e5 71 bd c1 d9 1a bf 13 22 4b 3e 35 bb 44 bf
       -0.059056588 -0.60488516 0.19837217 -0.76848155
000360 49 5b 9a be e9 7a 96 bf 39 6c 35 bd be 29 91 be
       -0.3014777 -1.1756259 -0.044292662 -0.2835216
000370 3b d6 ad 3d cf f6 09 3f 51 ca b7 3d c7 e5 b7 3e
       0.08488127 0.53892225 0.08974136 0.35917494
000380 63 e1 c5 3d 34 56 57 be 62 9e d6 3e d0 bc 2a be
       0.0966213 -0.21028978 0.41917711 -0.16673589
000390 06 35 2e 3e d9 8c 1d 3f 36 71 06 be ae 67 ad be
       0.17012414 0.6154304 -0.13129124 -0.33868164
0003a0 e0 3c 4c bf 7d f8 b1 bf 56 ea 49 bf 94 e5 ed be
       -0.7978039 -1.3903958 -0.78873193 -0.46464217
0003b0 a8 68 e7 3e 62 2b bd bd c1 b8 4c bb 74 84 0b 3d
       0.45197034 -0.0923679 -0.0031238052 0.034061864
0003c0 42 39 14 be 94 80 fe be bd 1f 5a be f6 cb fa bd
       -0.14474967 -0.49707472 -0.2130117 -0.12245934
0003d0 46 40 4d bd c5 1b 5b 3f 82 03 f6 be 5f 48 5f 3f
       -0.050110124 0.8558925 -0.4804955 0.87219805
0003e0 41 5e bf be 4c b4 81 be 0a 4c 8e be 6c ae 1f bf
       -0.37376598 -0.25332868 -0.27792388 -0.6237552
0003f0 25 18 dd bf c0 83 21 bf 7a e0 b6 bf ac 59 ea 3d
       -1.7272993 -0.6309166 -1.4287255 0.11442885

hos_weight.0.bias f4 [128]
000000 4d bc 90 3c 1e 07 f6 3e 6b 14 e7 bc ec bf b9 bd
       0.017667914 0.48052305 -0.028207978 -0.09069809
000010 95 4e b4 3e b6 97 8f bd 43 e1 84 be d5 f5 d8 3d
       0.35216203 -0.070113584 -0.2595311 0.10593764
000020 08 e7 13 be e7 9a 48 be ab d3 a7 bd 60 67 88 bc
       -0.144436 -0.1959034 -0.08194669 -0.016650856
000030 a1 87 31 be ff 21 9e be 54 70 4d bc 96 77 f4 bc
       -0.17336895 -0.30885312 -0.012538988 -0.02984218
000040 ff 51 ad bd 93 e6 4d be 94 38 c8 be 6b f1 12 bf
       -0.08462905 -0.20107488 -0.39105666 -0.57399625
000050 1c 3a 6e bd b3 09 a2 3d e1 ff 46 3f e3 89 04 bf
       -0.058160886 0.07912006 0.7773419 -0.517729
000060 68 8d 65 3e 1f 07 88 3e 35 ab 7c bd bf a0 2d bd
       0.22417223 0.26567933 -0.061686713 -0.042389628
000070 e4 4b 04 be 5b 94 a9 3d 8c 61 f4 bd e1 8b 81 3d
       -0.12919575 0.0828025 -0.11932668 0.06325508
000080 fa a3 b1 bc 2b b2 e4 bd ea 00 6c 3e 1b 83 02 3f
       -0.021684635 -0.11166795 0.23047224 0.509813
000090 ab 34 96 bc f1 03 a1 bd d7 c4 2d bc 02 92 e8 bc
       -0.01833566 -0.0786208 -0.010606012 -0.028389934
0000a0 e2 86 60 3c 6b 48 8a be 3a 57 33 bd bc c1 0f bf
       0.013704034 -0.27008376 -0.043784358 -0.5615499
0000b0 47 11 f6 be 7a a0 2f be ab 75 95 bd 7b b8 35 be
       -0.48060057 -0.1715106 -0.07297834 -0.17746155
0000c0 e6 7f ba bd 79 7d c4 bd 08 f9 78 3c ea 7c e3 be
       -0.09106426 -0.095942445 0.015196092 -0.4443124
0000d0 eb 4a 91 3e 63 81 7e bd de f9 12 3e a4 46 bf bd
       0.2837747 -0.06213511 0.1435313 -0.093396455
0000e0 c7 88 a9 be de e0 0d 3d fd c1 91 3e 7e 1e c9 be
       -0.33112165 0.03463828 0.28468314 -0.39281076
0000f0 78 78 25 bd f1 67 0f bf 7c a4 e0 bd 03 03 01 3f
       -0.04039809 -0.56017977 -0.10968873 0.5039522
000100 50 ee 04 bf 30 7b 37 3e 6b 84 98 be 1f bc af bd
       -0.51926136 0.17918086 -0.29788527 -0.08580803
000110 1d 3e 2e 3e e7 de ce 3b 0e 37 97 3e 57 3d 17 bf
       0.17015882 0.006313193 0.2953419 -0.5907797
000120 83 86 52 3e 2f 06 b0 be 3f a1 d5 3d f8 67 ee 3c
       0.20559125 -0.34379718 0.10431146 0.02910231
000130 f2 8f ba 3e 56 4d 29 be 45 5a af bc 1d 4d b2 3e
       0.36437947 -0.16533408 -0.021405349 0.34824458
000140 60 a7 79 3e d0 ca 89 3d 16 a4 a5 3e 6d 2c 0a be
       0.24380255 0.067281365 0.3235175 -0.1349351
000150 b5 1c 16 3f 6f 3f af bd d5 92 bf bc 62 93 8f be
       0.58637553 -0.08557021 -0.023385445 -0.28042132
000160 0b 48 10 bf cf 38 98 bd 78 80 b6 be 56 8e 12 bf
       -0.5635993 -0.074327104 -0.3564489 -0.5724844
000170 76 6b 09 bf 15 84 06 3e bc 55 36 be b2 89 6c be
       -0.536796 0.13136323 -0.17806143 -0.23099402
000180 13 e2 b7 bd c4 97 68 bd 7b 95 30 3e ae 8b 23 3a
       -0.08978667 -0.05678536 0.17244522 0.00062387704
000190 49 0c e7 3e b2 ac b4 be 82 00 d2 bc a4 b6 3f 3e
       0.4512656 -0.35288006 -0.025635008 0.18722016
0001a0 e2 75 e3 bd 03 fa 72 3d f8 c4 a8 bc f5 12 cc bd
       -0.11106469 0.05932046 -0.020601735 -0.09964553
0001b0 b7 0c 89 3d 77 76 13 bd 38 47 55 be ed 53 b4 3d
       0.06691878 -0.03600165 -0.20827949 0.0880507
0001c0 ce b5 b6 be cd fd 8c be 4e 59 6c 3e 1e 34 85 3e
       -0.3568558 -0.27537385 0.23080942 0.26016325
0001d0 be dc 57 bc 10 af e6 3d 03 fc 1d 3e 9b 8b 20 3f
       -0.013175188 0.11263859 0.15428166 0.6271302
0001e0 88 4e ad 3e c7 7d 97 3e 5f dd 60 bd 0b ed 80 3a
       0.33848977 0.29588148 -0.054898616 0.0009836269
0001f0 b8 d2 36 3d b2 67 f7 3c a9 ed a6 bd 02 41 ad bd
       0.04463455 0.030200813 -0.08150799 -0.08459665

hos_weight.2.weight f4 [4, 128]
000000 bd 83 5d 3d c0 b4 00 40 e3 30 04 3a 62 44 85 bb
       0.054080714 2.011032 0.0005042685 -0.0040669898
000010 b5 e6 cc 3e 7e cf f1 bc 52 e3 22 3c 37 4d 5b 3d
       0.40019765 -0.029517885 0.009941893 0.053540435
000020 11 da 45 3d 19 bf 9f 3c f7 ff a8 bd 27 34 85 bd
       0.048303667 0.019500302 -0.082519464 -0.06504088
000030 6f 4d b0 bd 92 f8 80 be 0b 62 57 3b d3 21 b4 3b
       -0.08608519 -0.25189644 0.0032864835 0.005497196
000040 14 e6 8f 3b 8e 07 8d bd b6 e9 52 3e 89 f9 e0 be
       0.004391441 -0.068862066 0.20596966 -0.4394038
000050 ad 58 34 3c 10 0d 53 3d fa 8e ae 40 cd 98 ed be
       0.01100747 0.05152613 5.454953 -0.4640564
000060 2d 8b 27 3e 35 3c 98 3d 81 a8 ac bd 71 9a ca 3b
       0.16361685 0.074333586 -0.08430577 0.0061829616
000070 b4 b7 5b bd 85 34 f3 bd f3 aa 69 3d 63 25 ee 3b
       -0.05364199 -0.11875252 0.057047796 0.0072676404
000080 3b 3b b0 bd 94 18 91 bd 49 86 98 bd 1f 70 a2 3f
       -0.08605047 -0.07084766 -0.07447488 1.2690467
000090 84 e4 26 3d cd bc 85 3c 92 e1 00 bd ca 9c d8 3c
       0.040745273 0.016325379 -0.03146512 0.02644195
0000a0 f0 58 85 38 1f 75 08 ba 22 b5 ac 3c 89 42 64 be
       6.3585e-05 -0.00052054407 0.021082465 -0.22291006
0000b0 e7 45 52 bf ac 69 2d bd 15 c3 41 3c db 94 7c 3d
       -0.8213791 -0.042337105 0.011826296 0.061665397
0000c0 8a f5 47 bb 29 73 3a bd b6 ee d7 3c 63 45 c4 be
       -0.0030511343 -0.04551998 0.026358943 -0.38334188
0000d0 fc 35 9f 3e 3a e7 90 3c 7d 8f a5 3c ee f2 e4 3c
       0.31095874 0.017688382 0.020210022 0.02794787
0000e0 cb 90 07 3d d5 e1 51 3d 63 a4 4e 3e 11 c6 4e 3d
       0.03309707 0.05124076 0.20179896 0.05048186
0000f0 ab 5c 06 bd 50 f6 c4 be 91 a3 ca 3c fe 9e b0 3f
       -0.03280322 -0.38469172 0.024736198 1.379852
000100 f6 74 bc bd f4 b0 05 3e 56 33 60 3d 21 de 88 bd
       -0.09201996 0.13055784 0.054736458 -0.06682993
000110 a2 af a3 3e b8 80 c3 3d 33 f7 d5 3e c8 b5 ca be
       0.31969935 0.095460355 0.4179016 -0.39591813
000120 c8 33 5f 3e 1e 05 d1 bd 76 2b 17 3d 41 11 af 3c
       0.21797097 -0.10206054 0.036906682 0.021370532
000130 38 48 95 3f a9 a8 c1 bd f6 53 0e bd a4 5b 49 3f
       1.1662664 -0.094559975 -0.03474804 0.7865546
000140 e4 8f 83 3e 14 01 0a be ac 27 ad 3e c8 6f 20 bc
       0.25695717 -0.13476974 0.3381933 -0.009792276
000150 5b f5 87 3f ec aa 66 3d 07 75 b0 bc 8b 10 89 3e
       1.0621752 0.056315348 -0.021540178 0.26770434
000160 01 a6 8e be bd 6a f4 bd c0 07 09 be 59 1b 85 be
       -0.27861026 -0.11934421 -0.13381863 -0.25997427
000170 91 ce 26 be 4d 10 17 3d de 88 66 3b fa b4 ee bd
       -0.16289736 0.03688078 0.0035176794 -0.11655612
000180 49 45 89 be aa 3e 6d bd 98 03 8c 3d 74 1f dd bc
       -0.26810673 -0.05792109 0.06836623 -0.026992537
000190 fe f4 1b 3e 49 22 96 be 91 e4 e8 3c 82 8b 45 3f
       0.15230176 -0.29323032 0.028429301 0.77166
0001a0 f5 ef 37 3c 3a 8e 36 3d 1b 8b 23 3d ca 00 5a be
       0.011226644 0.04456923 0.039927583 -0.21289364
0001b0 92 32 30 3d 32 c4 da 3a db a4 0b 3e ee 18 33 3d
       0.043016978 0.0016690551 0.13637106 0.043724947
0001c0 e8 f6 59 3e 14 d3 28 bd d9 93 84 3e 58 02 69 3e
       0.21285594 -0.041216925 0.2589405 0.227548
0001d0 9d 13 83 3c 9f ea 16 3d 26 92 a3 3d df 22 64 40
       0.016000563 0.036844846 0.0798686 3.5646284
0001e0 41 7a c8 3f ce b0 b5 3e e0 88 0b be d3 cd e0 3c
       1.5662309 0.35486454 -0.13626432 0.027441895
0001f0 7e 9d fe 3c d9 21 3b 3d 5e 4d e6 3c 75 1a f3 bc
       0.031080958 0.045686577 0.028113063 -0.029675702
000200 b6 90 6c be 4e 60 01 40 0c ad 92 be cf e4 93 be
       -0.23102078 2.021503 -0.2864765 -0.28885505
000210 28 8f b3 3d 82 a7 8f 3e b5 c6 85 39 f3 69 b3 be
       0.08767539 0.28057486 0.00025515785 -0.3504177
000220 5d 56 93 be 90 b3 84 bd 5f 8d d2 bd c6 a1 4b 3e
       -0.28776827 -0.06479561 -0.10280871 0.1988593
000230 4d ee 17 3e 57 fb 12 be 5a 92 29 bd f7 05 6b 3d
       0.14836998 -0.14353691 -0.041399337 0.057378735
000240 e0 67 5e be b2 a2 f4 bb 7b 7b fd 3e 97 03 97 bc
       -0.21719313 -0.007465684 0.4950827 -0.018434329
000250 19 f6 ab be 90 66 25 be 0f a8 dd 40 91 b1 51 bd
       -0.33586195 -0.16152406 6.926765 -0.05119473
000260 e0 96 8d be 1f 42 f4 bd f0 f7 00 3e e2 9b cf be
       -0.2765417 -0.11926674 0.1259458 -0.40548617
000270 53 f7 c2 be f9 62 bc bf 6f 3d 3b 3e a4 da 2d be
       -0.38079318 -1.4717704 0.18285154 -0.16977936
000280 af 50 e3 3e 2d 10 84 be eb 53 9c be ad 67 29 40
       0.44397494 -0.2579359 -0.30532774 2.6469529
000290 96 ae bc be 5f aa 43 be ba f6 a0 3e ba 07 9e be
       -0.36851948 -0.1910796 0.31438237 -0.3086527
0002a0 b3 92 c3 bd 2f cb 46 3d 3b d2 58 be ee 08 a9 bc
       -0.09549465 0.048533615 -0.21173947 -0.02063414
0002b0 62 3d 58 bd 0c 86 6e 3e e4 c5 e2 be d4 85 2d 3e
       -0.052792914 0.23293322 -0.44291604 0.16945583
0002c0 36 93 f5 bd 03 0b cf bc b2 91 87 bf 99 3f b5 bd
       -0.11990969 -0.025273805 -1.0591338 -0.08850021
0002d0 c1 e1 57 3f 4f 22 92 3e ef 86 b0 bd 53 77 df be
       0.8432885 0.285418 -0.086194865 -0.43645725
0002e0 55 67 e9 3e 50 4e 9c be 16 4f 11 3e 25 93 11 bd
       0.4558665 -0.30528498 0.14190325 -0.03554072
0002f0 c4 2c 7f 3e 0c 1b d4 bc 1b 63 b1 3e 91 e5 0b 3f
       0.2491942 -0.025891803 0.34645924 0.54647166
000300 a7 0f 12 be 9f 4f 5d 3e b3 c4 13 3d 0d 50 8b 3e
       -0.14263783 0.21612404 0.03607626 0.2720951
000310 2c 3e 71 3a 58 d1 24 bf 77 90 83 3d 6c 7b d6 bd
       0.0009202685 -0.64381933 0.06424039 -0.104727596
000320 a0 57 85 3e ad c1 3c 3a d9 99 a4 be e8 a9 8f be
       0.26043415 0.0007200491 -0.32148626 -0.28059316
000330 0c 66 9d 3f 28 28 af bd e9 44 37 3e 53 64 c7 3f
       1.2296767 -0.08552581 0.17897381 1.5577492
000340 86 77 ac 3e cd 1d c8 bf 9f 17 c8 3e 32 02 16 bd
       0.3368494 -1.5634094 0.3908052 -0.036623187
000350 70 7a 9f 3f e0 cb 9d be c6 f6 84 3d 7a f1 89 bb
       1.245924 -0.30819607 0.06492381 -0.0042096945
000360 54 46 7a bc fb a2 46 bc 69 94 6f be c6 bc 9c bd
       -0.015275557 -0.0121238185 -0.23396458 -0.07653193
000370 b4 6c 59 3e c4 5e 94 be 0e 1e 33 3e 2c 46 b3 3e
       0.21232873 -0.2897855 0.17491934 0.35014474
000380 73 99 67 be 8e aa 88 be b2 8c e2 be a5 ae a1 3d
       -0.2261713 -0.26692623 -0.44247967 0.07894639
000390 5c 73 65 be a6 98 ee bd 36 d1 90 be 00 c9 c1 3f
       -0.22407287 -0.11650209 -0.28284615 1.5139465
0003a0 ba ec b5 3e 18 9d 97 be a4 00 c6 be a0 29 29 be
       0.3553217 -0.2961204 -0.38672364 -0.16519785
0003b0 87 cd ed bd 96 bc ab be 72 79 d9 3d a5 25 e0 bd
       -0.11611467 -0.33542317 0.10618867 -0.1094468
0003c0 c7 d1 37 3f 7c 7e cc bc 6c ef ef 3d 2c ee bc be
       0.7180447 -0.024962656 0.11715588 -0.3690046
0003d0 0a 29 0a 3e 71 e9 9b be 77 c7 11 bd d0 1a 6e 40
       0.13492218 -0.3045154 -0.035590615 3.7203865
0003e0 c7 13 10 40 92 6b 22 be b6 c3 85 be 1d b1 b4 be
       2.251207 -0.15861347 -0.26125878 -0.35291377
0003f0 8b 3d 7d be 4a e4 6b bf 23 bd ce 3e 95 0d 28 3e
       -0.24730508 -0.92145216 0.40378675 0.16411431

hos_weight.2.bias f4 [4]
000000 96 ef 26 bc 37 54 09 bf 59 60 39 be 89 ae 45 be
       -0.010188958 -0.53644127 -0.1810316 -0.19304861
